{
  "storage" : "model.espresso.weights",
  "analyses" : {

  },
  "properties" : {

  },
  "format_version" : 200,
  "metadata_in_weights" : [

  ],
  "layers" : [
    {
      "pad_r" : 2,
      "fused_relu" : 0,
      "fused_tanh" : 0,
      "debug_info" : "Conv_0",
      "pad_fill_mode" : 0,
      "pad_b" : 2,
      "pad_l" : 2,
      "top" : "164",
      "K" : 3,
      "blob_biases" : 1,
      "stride_x" : 2,
      "name" : "Conv_0",
      "has_batch_norm" : 0,
      "type" : "convolution",
      "n_groups" : 1,
      "pad_t" : 2,
      "stride_y" : 2,
      "has_biases" : 1,
      "C" : 16,
      "bottom" : "input",
      "weights" : {

      },
      "Nx" : 6,
      "pad_mode" : 0,
      "pad_value" : 0,
      "Ny" : 6,
      "n_parallel" : 1,
      "blob_weights_f16" : 3
    },
    {
      "bottom" : "164",
      "weights" : {

      },
      "mode" : 3,
      "debug_info" : "Sigmoid_1",
      "top" : "165",
      "type" : "activation",
      "name" : "Sigmoid_1"
    },
    {
      "bottom" : "164,165",
      "alpha" : 1,
      "operation" : 1,
      "weights" : {

      },
      "fused_relu" : 0,
      "debug_info" : "Mul_2",
      "top" : "166",
      "type" : "elementwise",
      "name" : "Mul_2",
      "beta" : 0
    },
    {
      "pad_r" : 1,
      "fused_relu" : 0,
      "fused_tanh" : 0,
      "debug_info" : "Conv_3",
      "pad_fill_mode" : 0,
      "pad_b" : 1,
      "pad_l" : 1,
      "top" : "167",
      "K" : 16,
      "blob_biases" : 5,
      "stride_x" : 2,
      "name" : "Conv_3",
      "has_batch_norm" : 0,
      "type" : "convolution",
      "n_groups" : 1,
      "pad_t" : 1,
      "stride_y" : 2,
      "has_biases" : 1,
      "C" : 32,
      "bottom" : "166",
      "weights" : {

      },
      "Nx" : 3,
      "pad_mode" : 0,
      "pad_value" : 0,
      "Ny" : 3,
      "n_parallel" : 1,
      "blob_weights_f16" : 7
    },
    {
      "bottom" : "167",
      "weights" : {

      },
      "mode" : 3,
      "debug_info" : "Sigmoid_4",
      "top" : "168",
      "type" : "activation",
      "name" : "Sigmoid_4"
    },
    {
      "bottom" : "167,168",
      "alpha" : 1,
      "operation" : 1,
      "weights" : {

      },
      "fused_relu" : 0,
      "debug_info" : "Mul_5",
      "top" : "169",
      "type" : "elementwise",
      "name" : "Mul_5",
      "beta" : 0
    },
    {
      "pad_r" : 0,
      "fused_relu" : 0,
      "fused_tanh" : 0,
      "debug_info" : "Conv_6",
      "pad_fill_mode" : 0,
      "pad_b" : 0,
      "pad_l" : 0,
      "top" : "170",
      "K" : 32,
      "blob_biases" : 9,
      "name" : "Conv_6",
      "has_batch_norm" : 0,
      "type" : "convolution",
      "n_groups" : 1,
      "pad_t" : 0,
      "has_biases" : 1,
      "C" : 16,
      "bottom" : "169",
      "weights" : {

      },
      "Nx" : 1,
      "pad_mode" : 0,
      "pad_value" : 0,
      "Ny" : 1,
      "n_parallel" : 1,
      "blob_weights_f16" : 11
    },
    {
      "bottom" : "170",
      "weights" : {

      },
      "mode" : 3,
      "debug_info" : "Sigmoid_7",
      "top" : "171",
      "type" : "activation",
      "name" : "Sigmoid_7"
    },
    {
      "bottom" : "170,171",
      "alpha" : 1,
      "operation" : 1,
      "weights" : {

      },
      "fused_relu" : 0,
      "debug_info" : "Mul_8",
      "top" : "172",
      "type" : "elementwise",
      "name" : "Mul_8",
      "beta" : 0
    },
    {
      "pad_r" : 0,
      "fused_relu" : 0,
      "fused_tanh" : 0,
      "debug_info" : "Conv_9",
      "pad_fill_mode" : 0,
      "pad_b" : 0,
      "pad_l" : 0,
      "top" : "173",
      "K" : 16,
      "blob_biases" : 13,
      "name" : "Conv_9",
      "has_batch_norm" : 0,
      "type" : "convolution",
      "n_groups" : 1,
      "pad_t" : 0,
      "has_biases" : 1,
      "C" : 32,
      "bottom" : "172",
      "weights" : {

      },
      "Nx" : 1,
      "pad_mode" : 0,
      "pad_value" : 0,
      "Ny" : 1,
      "n_parallel" : 1,
      "blob_weights_f16" : 15
    },
    {
      "bottom" : "173",
      "weights" : {

      },
      "mode" : 3,
      "debug_info" : "Sigmoid_10",
      "top" : "174",
      "type" : "activation",
      "name" : "Sigmoid_10"
    },
    {
      "bottom" : "173,174",
      "alpha" : 1,
      "operation" : 1,
      "weights" : {

      },
      "fused_relu" : 0,
      "debug_info" : "Mul_11",
      "top" : "175",
      "type" : "elementwise",
      "name" : "Mul_11",
      "beta" : 0
    },
    {
      "pad_r" : 1,
      "fused_relu" : 0,
      "fused_tanh" : 0,
      "debug_info" : "Conv_12",
      "pad_fill_mode" : 0,
      "pad_b" : 1,
      "pad_l" : 1,
      "top" : "176",
      "K" : 32,
      "blob_biases" : 17,
      "name" : "Conv_12",
      "has_batch_norm" : 0,
      "type" : "convolution",
      "n_groups" : 32,
      "pad_t" : 1,
      "has_biases" : 1,
      "C" : 32,
      "bottom" : "175",
      "weights" : {

      },
      "Nx" : 3,
      "pad_mode" : 0,
      "pad_value" : 0,
      "Ny" : 3,
      "n_parallel" : 1,
      "blob_weights_f16" : 19
    },
    {
      "bottom" : "176",
      "weights" : {

      },
      "mode" : 3,
      "debug_info" : "Sigmoid_13",
      "top" : "177",
      "type" : "activation",
      "name" : "Sigmoid_13"
    },
    {
      "bottom" : "176,177",
      "alpha" : 1,
      "operation" : 1,
      "weights" : {

      },
      "fused_relu" : 0,
      "debug_info" : "Mul_14",
      "top" : "178",
      "type" : "elementwise",
      "name" : "Mul_14",
      "beta" : 0
    },
    {
      "pad_r" : 0,
      "fused_relu" : 0,
      "fused_tanh" : 0,
      "debug_info" : "Conv_15",
      "pad_fill_mode" : 0,
      "pad_b" : 0,
      "pad_l" : 0,
      "top" : "179",
      "K" : 32,
      "blob_biases" : 21,
      "name" : "Conv_15",
      "has_batch_norm" : 0,
      "type" : "convolution",
      "n_groups" : 1,
      "pad_t" : 0,
      "has_biases" : 1,
      "C" : 16,
      "bottom" : "178",
      "weights" : {

      },
      "Nx" : 1,
      "pad_mode" : 0,
      "pad_value" : 0,
      "Ny" : 1,
      "n_parallel" : 1,
      "blob_weights_f16" : 23
    },
    {
      "bottom" : "179",
      "weights" : {

      },
      "mode" : 3,
      "debug_info" : "Sigmoid_16",
      "top" : "180",
      "type" : "activation",
      "name" : "Sigmoid_16"
    },
    {
      "bottom" : "179,180",
      "alpha" : 1,
      "operation" : 1,
      "weights" : {

      },
      "fused_relu" : 0,
      "debug_info" : "Mul_17",
      "top" : "181",
      "type" : "elementwise",
      "name" : "Mul_17",
      "beta" : 0
    },
    {
      "bottom" : "172,181",
      "alpha" : 1,
      "operation" : 0,
      "weights" : {

      },
      "fused_relu" : 0,
      "debug_info" : "Add_18",
      "top" : "182",
      "type" : "elementwise",
      "name" : "Add_18",
      "beta" : 0
    },
    {
      "pad_r" : 0,
      "fused_relu" : 0,
      "fused_tanh" : 0,
      "debug_info" : "Conv_19",
      "pad_fill_mode" : 0,
      "pad_b" : 0,
      "pad_l" : 0,
      "top" : "183",
      "K" : 32,
      "blob_biases" : 25,
      "name" : "Conv_19",
      "has_batch_norm" : 0,
      "type" : "convolution",
      "n_groups" : 1,
      "pad_t" : 0,
      "has_biases" : 1,
      "C" : 16,
      "bottom" : "169",
      "weights" : {

      },
      "Nx" : 1,
      "pad_mode" : 0,
      "pad_value" : 0,
      "Ny" : 1,
      "n_parallel" : 1,
      "blob_weights_f16" : 27
    },
    {
      "bottom" : "183",
      "weights" : {

      },
      "mode" : 3,
      "debug_info" : "Sigmoid_20",
      "top" : "184",
      "type" : "activation",
      "name" : "Sigmoid_20"
    },
    {
      "bottom" : "183,184",
      "alpha" : 1,
      "operation" : 1,
      "weights" : {

      },
      "fused_relu" : 0,
      "debug_info" : "Mul_21",
      "top" : "185",
      "type" : "elementwise",
      "name" : "Mul_21",
      "beta" : 0
    },
    {
      "weights" : {

      },
      "debug_info" : "Concat_22",
      "top" : "186",
      "type" : "concat",
      "name" : "Concat_22",
      "bottom" : "182,185"
    },
    {
      "pad_r" : 0,
      "fused_relu" : 0,
      "fused_tanh" : 0,
      "debug_info" : "Conv_23",
      "pad_fill_mode" : 0,
      "pad_b" : 0,
      "pad_l" : 0,
      "top" : "187",
      "K" : 32,
      "blob_biases" : 29,
      "name" : "Conv_23",
      "has_batch_norm" : 0,
      "type" : "convolution",
      "n_groups" : 1,
      "pad_t" : 0,
      "has_biases" : 1,
      "C" : 32,
      "bottom" : "186",
      "weights" : {

      },
      "Nx" : 1,
      "pad_mode" : 0,
      "pad_value" : 0,
      "Ny" : 1,
      "n_parallel" : 1,
      "blob_weights_f16" : 31
    },
    {
      "bottom" : "187",
      "weights" : {

      },
      "mode" : 3,
      "debug_info" : "Sigmoid_24",
      "top" : "188",
      "type" : "activation",
      "name" : "Sigmoid_24"
    },
    {
      "bottom" : "187,188",
      "alpha" : 1,
      "operation" : 1,
      "weights" : {

      },
      "fused_relu" : 0,
      "debug_info" : "Mul_25",
      "top" : "189",
      "type" : "elementwise",
      "name" : "Mul_25",
      "beta" : 0
    },
    {
      "pad_r" : 0,
      "fused_relu" : 0,
      "fused_tanh" : 0,
      "debug_info" : "Conv_26",
      "pad_fill_mode" : 0,
      "pad_b" : 0,
      "pad_l" : 0,
      "top" : "190",
      "K" : 32,
      "blob_biases" : 33,
      "name" : "Conv_26",
      "has_batch_norm" : 0,
      "type" : "convolution",
      "n_groups" : 1,
      "pad_t" : 0,
      "has_biases" : 1,
      "C" : 64,
      "bottom" : "189",
      "weights" : {

      },
      "Nx" : 1,
      "pad_mode" : 0,
      "pad_value" : 0,
      "Ny" : 1,
      "n_parallel" : 1,
      "blob_weights_f16" : 35
    },
    {
      "bottom" : "190",
      "weights" : {

      },
      "mode" : 3,
      "debug_info" : "Sigmoid_27",
      "top" : "191",
      "type" : "activation",
      "name" : "Sigmoid_27"
    },
    {
      "bottom" : "190,191",
      "alpha" : 1,
      "operation" : 1,
      "weights" : {

      },
      "fused_relu" : 0,
      "debug_info" : "Mul_28",
      "top" : "192",
      "type" : "elementwise",
      "name" : "Mul_28",
      "beta" : 0
    },
    {
      "pad_r" : 1,
      "fused_relu" : 0,
      "fused_tanh" : 0,
      "debug_info" : "Conv_29",
      "pad_fill_mode" : 0,
      "pad_b" : 1,
      "pad_l" : 1,
      "top" : "193",
      "K" : 64,
      "blob_biases" : 37,
      "stride_x" : 2,
      "name" : "Conv_29",
      "has_batch_norm" : 0,
      "type" : "convolution",
      "n_groups" : 64,
      "pad_t" : 1,
      "stride_y" : 2,
      "has_biases" : 1,
      "C" : 64,
      "bottom" : "192",
      "weights" : {

      },
      "Nx" : 3,
      "pad_mode" : 0,
      "pad_value" : 0,
      "Ny" : 3,
      "n_parallel" : 1,
      "blob_weights_f16" : 39
    },
    {
      "bottom" : "193",
      "weights" : {

      },
      "mode" : 3,
      "debug_info" : "Sigmoid_30",
      "top" : "194",
      "type" : "activation",
      "name" : "Sigmoid_30"
    },
    {
      "bottom" : "193,194",
      "alpha" : 1,
      "operation" : 1,
      "weights" : {

      },
      "fused_relu" : 0,
      "debug_info" : "Mul_31",
      "top" : "195",
      "type" : "elementwise",
      "name" : "Mul_31",
      "beta" : 0
    },
    {
      "pad_r" : 0,
      "fused_relu" : 0,
      "fused_tanh" : 0,
      "debug_info" : "Conv_32",
      "pad_fill_mode" : 0,
      "pad_b" : 0,
      "pad_l" : 0,
      "top" : "196",
      "K" : 64,
      "blob_biases" : 41,
      "name" : "Conv_32",
      "has_batch_norm" : 0,
      "type" : "convolution",
      "n_groups" : 1,
      "pad_t" : 0,
      "has_biases" : 1,
      "C" : 64,
      "bottom" : "195",
      "weights" : {

      },
      "Nx" : 1,
      "pad_mode" : 0,
      "pad_value" : 0,
      "Ny" : 1,
      "n_parallel" : 1,
      "blob_weights_f16" : 43
    },
    {
      "bottom" : "196",
      "weights" : {

      },
      "mode" : 3,
      "debug_info" : "Sigmoid_33",
      "top" : "197",
      "type" : "activation",
      "name" : "Sigmoid_33"
    },
    {
      "bottom" : "196,197",
      "alpha" : 1,
      "operation" : 1,
      "weights" : {

      },
      "fused_relu" : 0,
      "debug_info" : "Mul_34",
      "top" : "198",
      "type" : "elementwise",
      "name" : "Mul_34",
      "beta" : 0
    },
    {
      "pad_r" : 0,
      "fused_relu" : 0,
      "fused_tanh" : 0,
      "debug_info" : "Conv_35",
      "pad_fill_mode" : 0,
      "pad_b" : 0,
      "pad_l" : 0,
      "top" : "199",
      "K" : 64,
      "blob_biases" : 45,
      "name" : "Conv_35",
      "has_batch_norm" : 0,
      "type" : "convolution",
      "n_groups" : 1,
      "pad_t" : 0,
      "has_biases" : 1,
      "C" : 32,
      "bottom" : "198",
      "weights" : {

      },
      "Nx" : 1,
      "pad_mode" : 0,
      "pad_value" : 0,
      "Ny" : 1,
      "n_parallel" : 1,
      "blob_weights_f16" : 47
    },
    {
      "bottom" : "199",
      "weights" : {

      },
      "mode" : 3,
      "debug_info" : "Sigmoid_36",
      "top" : "200",
      "type" : "activation",
      "name" : "Sigmoid_36"
    },
    {
      "bottom" : "199,200",
      "alpha" : 1,
      "operation" : 1,
      "weights" : {

      },
      "fused_relu" : 0,
      "debug_info" : "Mul_37",
      "top" : "201",
      "type" : "elementwise",
      "name" : "Mul_37",
      "beta" : 0
    },
    {
      "pad_r" : 0,
      "fused_relu" : 0,
      "fused_tanh" : 0,
      "debug_info" : "Conv_38",
      "pad_fill_mode" : 0,
      "pad_b" : 0,
      "pad_l" : 0,
      "top" : "202",
      "K" : 32,
      "blob_biases" : 49,
      "name" : "Conv_38",
      "has_batch_norm" : 0,
      "type" : "convolution",
      "n_groups" : 1,
      "pad_t" : 0,
      "has_biases" : 1,
      "C" : 64,
      "bottom" : "201",
      "weights" : {

      },
      "Nx" : 1,
      "pad_mode" : 0,
      "pad_value" : 0,
      "Ny" : 1,
      "n_parallel" : 1,
      "blob_weights_f16" : 51
    },
    {
      "bottom" : "202",
      "weights" : {

      },
      "mode" : 3,
      "debug_info" : "Sigmoid_39",
      "top" : "203",
      "type" : "activation",
      "name" : "Sigmoid_39"
    },
    {
      "bottom" : "202,203",
      "alpha" : 1,
      "operation" : 1,
      "weights" : {

      },
      "fused_relu" : 0,
      "debug_info" : "Mul_40",
      "top" : "204",
      "type" : "elementwise",
      "name" : "Mul_40",
      "beta" : 0
    },
    {
      "pad_r" : 1,
      "fused_relu" : 0,
      "fused_tanh" : 0,
      "debug_info" : "Conv_41",
      "pad_fill_mode" : 0,
      "pad_b" : 1,
      "pad_l" : 1,
      "top" : "205",
      "K" : 64,
      "blob_biases" : 53,
      "name" : "Conv_41",
      "has_batch_norm" : 0,
      "type" : "convolution",
      "n_groups" : 64,
      "pad_t" : 1,
      "has_biases" : 1,
      "C" : 64,
      "bottom" : "204",
      "weights" : {

      },
      "Nx" : 3,
      "pad_mode" : 0,
      "pad_value" : 0,
      "Ny" : 3,
      "n_parallel" : 1,
      "blob_weights_f16" : 55
    },
    {
      "bottom" : "205",
      "weights" : {

      },
      "mode" : 3,
      "debug_info" : "Sigmoid_42",
      "top" : "206",
      "type" : "activation",
      "name" : "Sigmoid_42"
    },
    {
      "bottom" : "205,206",
      "alpha" : 1,
      "operation" : 1,
      "weights" : {

      },
      "fused_relu" : 0,
      "debug_info" : "Mul_43",
      "top" : "207",
      "type" : "elementwise",
      "name" : "Mul_43",
      "beta" : 0
    },
    {
      "pad_r" : 0,
      "fused_relu" : 0,
      "fused_tanh" : 0,
      "debug_info" : "Conv_44",
      "pad_fill_mode" : 0,
      "pad_b" : 0,
      "pad_l" : 0,
      "top" : "208",
      "K" : 64,
      "blob_biases" : 57,
      "name" : "Conv_44",
      "has_batch_norm" : 0,
      "type" : "convolution",
      "n_groups" : 1,
      "pad_t" : 0,
      "has_biases" : 1,
      "C" : 32,
      "bottom" : "207",
      "weights" : {

      },
      "Nx" : 1,
      "pad_mode" : 0,
      "pad_value" : 0,
      "Ny" : 1,
      "n_parallel" : 1,
      "blob_weights_f16" : 59
    },
    {
      "bottom" : "208",
      "weights" : {

      },
      "mode" : 3,
      "debug_info" : "Sigmoid_45",
      "top" : "209",
      "type" : "activation",
      "name" : "Sigmoid_45"
    },
    {
      "bottom" : "208,209",
      "alpha" : 1,
      "operation" : 1,
      "weights" : {

      },
      "fused_relu" : 0,
      "debug_info" : "Mul_46",
      "top" : "210",
      "type" : "elementwise",
      "name" : "Mul_46",
      "beta" : 0
    },
    {
      "bottom" : "201,210",
      "alpha" : 1,
      "operation" : 0,
      "weights" : {

      },
      "fused_relu" : 0,
      "debug_info" : "Add_47",
      "top" : "211",
      "type" : "elementwise",
      "name" : "Add_47",
      "beta" : 0
    },
    {
      "pad_r" : 0,
      "fused_relu" : 0,
      "fused_tanh" : 0,
      "debug_info" : "Conv_48",
      "pad_fill_mode" : 0,
      "pad_b" : 0,
      "pad_l" : 0,
      "top" : "212",
      "K" : 32,
      "blob_biases" : 61,
      "name" : "Conv_48",
      "has_batch_norm" : 0,
      "type" : "convolution",
      "n_groups" : 1,
      "pad_t" : 0,
      "has_biases" : 1,
      "C" : 64,
      "bottom" : "211",
      "weights" : {

      },
      "Nx" : 1,
      "pad_mode" : 0,
      "pad_value" : 0,
      "Ny" : 1,
      "n_parallel" : 1,
      "blob_weights_f16" : 63
    },
    {
      "bottom" : "212",
      "weights" : {

      },
      "mode" : 3,
      "debug_info" : "Sigmoid_49",
      "top" : "213",
      "type" : "activation",
      "name" : "Sigmoid_49"
    },
    {
      "bottom" : "212,213",
      "alpha" : 1,
      "operation" : 1,
      "weights" : {

      },
      "fused_relu" : 0,
      "debug_info" : "Mul_50",
      "top" : "214",
      "type" : "elementwise",
      "name" : "Mul_50",
      "beta" : 0
    },
    {
      "pad_r" : 1,
      "fused_relu" : 0,
      "fused_tanh" : 0,
      "debug_info" : "Conv_51",
      "pad_fill_mode" : 0,
      "pad_b" : 1,
      "pad_l" : 1,
      "top" : "215",
      "K" : 64,
      "blob_biases" : 65,
      "name" : "Conv_51",
      "has_batch_norm" : 0,
      "type" : "convolution",
      "n_groups" : 64,
      "pad_t" : 1,
      "has_biases" : 1,
      "C" : 64,
      "bottom" : "214",
      "weights" : {

      },
      "Nx" : 3,
      "pad_mode" : 0,
      "pad_value" : 0,
      "Ny" : 3,
      "n_parallel" : 1,
      "blob_weights_f16" : 67
    },
    {
      "bottom" : "215",
      "weights" : {

      },
      "mode" : 3,
      "debug_info" : "Sigmoid_52",
      "top" : "216",
      "type" : "activation",
      "name" : "Sigmoid_52"
    },
    {
      "bottom" : "215,216",
      "alpha" : 1,
      "operation" : 1,
      "weights" : {

      },
      "fused_relu" : 0,
      "debug_info" : "Mul_53",
      "top" : "217",
      "type" : "elementwise",
      "name" : "Mul_53",
      "beta" : 0
    },
    {
      "pad_r" : 0,
      "fused_relu" : 0,
      "fused_tanh" : 0,
      "debug_info" : "Conv_54",
      "pad_fill_mode" : 0,
      "pad_b" : 0,
      "pad_l" : 0,
      "top" : "218",
      "K" : 64,
      "blob_biases" : 69,
      "name" : "Conv_54",
      "has_batch_norm" : 0,
      "type" : "convolution",
      "n_groups" : 1,
      "pad_t" : 0,
      "has_biases" : 1,
      "C" : 32,
      "bottom" : "217",
      "weights" : {

      },
      "Nx" : 1,
      "pad_mode" : 0,
      "pad_value" : 0,
      "Ny" : 1,
      "n_parallel" : 1,
      "blob_weights_f16" : 71
    },
    {
      "bottom" : "218",
      "weights" : {

      },
      "mode" : 3,
      "debug_info" : "Sigmoid_55",
      "top" : "219",
      "type" : "activation",
      "name" : "Sigmoid_55"
    },
    {
      "bottom" : "218,219",
      "alpha" : 1,
      "operation" : 1,
      "weights" : {

      },
      "fused_relu" : 0,
      "debug_info" : "Mul_56",
      "top" : "220",
      "type" : "elementwise",
      "name" : "Mul_56",
      "beta" : 0
    },
    {
      "bottom" : "211,220",
      "alpha" : 1,
      "operation" : 0,
      "weights" : {

      },
      "fused_relu" : 0,
      "debug_info" : "Add_57",
      "top" : "221",
      "type" : "elementwise",
      "name" : "Add_57",
      "beta" : 0
    },
    {
      "pad_r" : 0,
      "fused_relu" : 0,
      "fused_tanh" : 0,
      "debug_info" : "Conv_58",
      "pad_fill_mode" : 0,
      "pad_b" : 0,
      "pad_l" : 0,
      "top" : "222",
      "K" : 64,
      "blob_biases" : 73,
      "name" : "Conv_58",
      "has_batch_norm" : 0,
      "type" : "convolution",
      "n_groups" : 1,
      "pad_t" : 0,
      "has_biases" : 1,
      "C" : 32,
      "bottom" : "198",
      "weights" : {

      },
      "Nx" : 1,
      "pad_mode" : 0,
      "pad_value" : 0,
      "Ny" : 1,
      "n_parallel" : 1,
      "blob_weights_f16" : 75
    },
    {
      "bottom" : "222",
      "weights" : {

      },
      "mode" : 3,
      "debug_info" : "Sigmoid_59",
      "top" : "223",
      "type" : "activation",
      "name" : "Sigmoid_59"
    },
    {
      "bottom" : "222,223",
      "alpha" : 1,
      "operation" : 1,
      "weights" : {

      },
      "fused_relu" : 0,
      "debug_info" : "Mul_60",
      "top" : "224",
      "type" : "elementwise",
      "name" : "Mul_60",
      "beta" : 0
    },
    {
      "weights" : {

      },
      "debug_info" : "Concat_61",
      "top" : "225",
      "type" : "concat",
      "name" : "Concat_61",
      "bottom" : "221,224"
    },
    {
      "pad_r" : 0,
      "fused_relu" : 0,
      "fused_tanh" : 0,
      "debug_info" : "Conv_62",
      "pad_fill_mode" : 0,
      "pad_b" : 0,
      "pad_l" : 0,
      "top" : "226",
      "K" : 64,
      "blob_biases" : 77,
      "name" : "Conv_62",
      "has_batch_norm" : 0,
      "type" : "convolution",
      "n_groups" : 1,
      "pad_t" : 0,
      "has_biases" : 1,
      "C" : 64,
      "bottom" : "225",
      "weights" : {

      },
      "Nx" : 1,
      "pad_mode" : 0,
      "pad_value" : 0,
      "Ny" : 1,
      "n_parallel" : 1,
      "blob_weights_f16" : 79
    },
    {
      "bottom" : "226",
      "weights" : {

      },
      "mode" : 3,
      "debug_info" : "Sigmoid_63",
      "top" : "227",
      "type" : "activation",
      "name" : "Sigmoid_63"
    },
    {
      "bottom" : "226,227",
      "alpha" : 1,
      "operation" : 1,
      "weights" : {

      },
      "fused_relu" : 0,
      "debug_info" : "Mul_64",
      "top" : "228",
      "type" : "elementwise",
      "name" : "Mul_64",
      "beta" : 0
    },
    {
      "pad_r" : 0,
      "fused_relu" : 0,
      "fused_tanh" : 0,
      "debug_info" : "Conv_65",
      "pad_fill_mode" : 0,
      "pad_b" : 0,
      "pad_l" : 0,
      "top" : "229",
      "K" : 64,
      "blob_biases" : 81,
      "name" : "Conv_65",
      "has_batch_norm" : 0,
      "type" : "convolution",
      "n_groups" : 1,
      "pad_t" : 0,
      "has_biases" : 1,
      "C" : 128,
      "bottom" : "228",
      "weights" : {

      },
      "Nx" : 1,
      "pad_mode" : 0,
      "pad_value" : 0,
      "Ny" : 1,
      "n_parallel" : 1,
      "blob_weights_f16" : 83
    },
    {
      "bottom" : "229",
      "weights" : {

      },
      "mode" : 3,
      "debug_info" : "Sigmoid_66",
      "top" : "230",
      "type" : "activation",
      "name" : "Sigmoid_66"
    },
    {
      "bottom" : "229,230",
      "alpha" : 1,
      "operation" : 1,
      "weights" : {

      },
      "fused_relu" : 0,
      "debug_info" : "Mul_67",
      "top" : "231",
      "type" : "elementwise",
      "name" : "Mul_67",
      "beta" : 0
    },
    {
      "pad_r" : 1,
      "fused_relu" : 0,
      "fused_tanh" : 0,
      "debug_info" : "Conv_68",
      "pad_fill_mode" : 0,
      "pad_b" : 1,
      "pad_l" : 1,
      "top" : "232",
      "K" : 128,
      "blob_biases" : 85,
      "stride_x" : 2,
      "name" : "Conv_68",
      "has_batch_norm" : 0,
      "type" : "convolution",
      "n_groups" : 128,
      "pad_t" : 1,
      "stride_y" : 2,
      "has_biases" : 1,
      "C" : 128,
      "bottom" : "231",
      "weights" : {

      },
      "Nx" : 3,
      "pad_mode" : 0,
      "pad_value" : 0,
      "Ny" : 3,
      "n_parallel" : 1,
      "blob_weights_f16" : 87
    },
    {
      "bottom" : "232",
      "weights" : {

      },
      "mode" : 3,
      "debug_info" : "Sigmoid_69",
      "top" : "233",
      "type" : "activation",
      "name" : "Sigmoid_69"
    },
    {
      "bottom" : "232,233",
      "alpha" : 1,
      "operation" : 1,
      "weights" : {

      },
      "fused_relu" : 0,
      "debug_info" : "Mul_70",
      "top" : "234",
      "type" : "elementwise",
      "name" : "Mul_70",
      "beta" : 0
    },
    {
      "pad_r" : 0,
      "fused_relu" : 0,
      "fused_tanh" : 0,
      "debug_info" : "Conv_71",
      "pad_fill_mode" : 0,
      "pad_b" : 0,
      "pad_l" : 0,
      "top" : "235",
      "K" : 128,
      "blob_biases" : 89,
      "name" : "Conv_71",
      "has_batch_norm" : 0,
      "type" : "convolution",
      "n_groups" : 1,
      "pad_t" : 0,
      "has_biases" : 1,
      "C" : 128,
      "bottom" : "234",
      "weights" : {

      },
      "Nx" : 1,
      "pad_mode" : 0,
      "pad_value" : 0,
      "Ny" : 1,
      "n_parallel" : 1,
      "blob_weights_f16" : 91
    },
    {
      "bottom" : "235",
      "weights" : {

      },
      "mode" : 3,
      "debug_info" : "Sigmoid_72",
      "top" : "236",
      "type" : "activation",
      "name" : "Sigmoid_72"
    },
    {
      "bottom" : "235,236",
      "alpha" : 1,
      "operation" : 1,
      "weights" : {

      },
      "fused_relu" : 0,
      "debug_info" : "Mul_73",
      "top" : "237",
      "type" : "elementwise",
      "name" : "Mul_73",
      "beta" : 0
    },
    {
      "pad_r" : 0,
      "fused_relu" : 0,
      "fused_tanh" : 0,
      "debug_info" : "Conv_74",
      "pad_fill_mode" : 0,
      "pad_b" : 0,
      "pad_l" : 0,
      "top" : "238",
      "K" : 128,
      "blob_biases" : 93,
      "name" : "Conv_74",
      "has_batch_norm" : 0,
      "type" : "convolution",
      "n_groups" : 1,
      "pad_t" : 0,
      "has_biases" : 1,
      "C" : 64,
      "bottom" : "237",
      "weights" : {

      },
      "Nx" : 1,
      "pad_mode" : 0,
      "pad_value" : 0,
      "Ny" : 1,
      "n_parallel" : 1,
      "blob_weights_f16" : 95
    },
    {
      "bottom" : "238",
      "weights" : {

      },
      "mode" : 3,
      "debug_info" : "Sigmoid_75",
      "top" : "239",
      "type" : "activation",
      "name" : "Sigmoid_75"
    },
    {
      "bottom" : "238,239",
      "alpha" : 1,
      "operation" : 1,
      "weights" : {

      },
      "fused_relu" : 0,
      "debug_info" : "Mul_76",
      "top" : "240",
      "type" : "elementwise",
      "name" : "Mul_76",
      "beta" : 0
    },
    {
      "pad_r" : 0,
      "fused_relu" : 0,
      "fused_tanh" : 0,
      "debug_info" : "Conv_77",
      "pad_fill_mode" : 0,
      "pad_b" : 0,
      "pad_l" : 0,
      "top" : "241",
      "K" : 64,
      "blob_biases" : 97,
      "name" : "Conv_77",
      "has_batch_norm" : 0,
      "type" : "convolution",
      "n_groups" : 1,
      "pad_t" : 0,
      "has_biases" : 1,
      "C" : 128,
      "bottom" : "240",
      "weights" : {

      },
      "Nx" : 1,
      "pad_mode" : 0,
      "pad_value" : 0,
      "Ny" : 1,
      "n_parallel" : 1,
      "blob_weights_f16" : 99
    },
    {
      "bottom" : "241",
      "weights" : {

      },
      "mode" : 3,
      "debug_info" : "Sigmoid_78",
      "top" : "242",
      "type" : "activation",
      "name" : "Sigmoid_78"
    },
    {
      "bottom" : "241,242",
      "alpha" : 1,
      "operation" : 1,
      "weights" : {

      },
      "fused_relu" : 0,
      "debug_info" : "Mul_79",
      "top" : "243",
      "type" : "elementwise",
      "name" : "Mul_79",
      "beta" : 0
    },
    {
      "pad_r" : 1,
      "fused_relu" : 0,
      "fused_tanh" : 0,
      "debug_info" : "Conv_80",
      "pad_fill_mode" : 0,
      "pad_b" : 1,
      "pad_l" : 1,
      "top" : "244",
      "K" : 128,
      "blob_biases" : 101,
      "name" : "Conv_80",
      "has_batch_norm" : 0,
      "type" : "convolution",
      "n_groups" : 128,
      "pad_t" : 1,
      "has_biases" : 1,
      "C" : 128,
      "bottom" : "243",
      "weights" : {

      },
      "Nx" : 3,
      "pad_mode" : 0,
      "pad_value" : 0,
      "Ny" : 3,
      "n_parallel" : 1,
      "blob_weights_f16" : 103
    },
    {
      "bottom" : "244",
      "weights" : {

      },
      "mode" : 3,
      "debug_info" : "Sigmoid_81",
      "top" : "245",
      "type" : "activation",
      "name" : "Sigmoid_81"
    },
    {
      "bottom" : "244,245",
      "alpha" : 1,
      "operation" : 1,
      "weights" : {

      },
      "fused_relu" : 0,
      "debug_info" : "Mul_82",
      "top" : "246",
      "type" : "elementwise",
      "name" : "Mul_82",
      "beta" : 0
    },
    {
      "pad_r" : 0,
      "fused_relu" : 0,
      "fused_tanh" : 0,
      "debug_info" : "Conv_83",
      "pad_fill_mode" : 0,
      "pad_b" : 0,
      "pad_l" : 0,
      "top" : "247",
      "K" : 128,
      "blob_biases" : 105,
      "name" : "Conv_83",
      "has_batch_norm" : 0,
      "type" : "convolution",
      "n_groups" : 1,
      "pad_t" : 0,
      "has_biases" : 1,
      "C" : 64,
      "bottom" : "246",
      "weights" : {

      },
      "Nx" : 1,
      "pad_mode" : 0,
      "pad_value" : 0,
      "Ny" : 1,
      "n_parallel" : 1,
      "blob_weights_f16" : 107
    },
    {
      "bottom" : "247",
      "weights" : {

      },
      "mode" : 3,
      "debug_info" : "Sigmoid_84",
      "top" : "248",
      "type" : "activation",
      "name" : "Sigmoid_84"
    },
    {
      "bottom" : "247,248",
      "alpha" : 1,
      "operation" : 1,
      "weights" : {

      },
      "fused_relu" : 0,
      "debug_info" : "Mul_85",
      "top" : "249",
      "type" : "elementwise",
      "name" : "Mul_85",
      "beta" : 0
    },
    {
      "bottom" : "240,249",
      "alpha" : 1,
      "operation" : 0,
      "weights" : {

      },
      "fused_relu" : 0,
      "debug_info" : "Add_86",
      "top" : "250",
      "type" : "elementwise",
      "name" : "Add_86",
      "beta" : 0
    },
    {
      "pad_r" : 0,
      "fused_relu" : 0,
      "fused_tanh" : 0,
      "debug_info" : "Conv_87",
      "pad_fill_mode" : 0,
      "pad_b" : 0,
      "pad_l" : 0,
      "top" : "251",
      "K" : 64,
      "blob_biases" : 109,
      "name" : "Conv_87",
      "has_batch_norm" : 0,
      "type" : "convolution",
      "n_groups" : 1,
      "pad_t" : 0,
      "has_biases" : 1,
      "C" : 128,
      "bottom" : "250",
      "weights" : {

      },
      "Nx" : 1,
      "pad_mode" : 0,
      "pad_value" : 0,
      "Ny" : 1,
      "n_parallel" : 1,
      "blob_weights_f16" : 111
    },
    {
      "bottom" : "251",
      "weights" : {

      },
      "mode" : 3,
      "debug_info" : "Sigmoid_88",
      "top" : "252",
      "type" : "activation",
      "name" : "Sigmoid_88"
    },
    {
      "bottom" : "251,252",
      "alpha" : 1,
      "operation" : 1,
      "weights" : {

      },
      "fused_relu" : 0,
      "debug_info" : "Mul_89",
      "top" : "253",
      "type" : "elementwise",
      "name" : "Mul_89",
      "beta" : 0
    },
    {
      "pad_r" : 1,
      "fused_relu" : 0,
      "fused_tanh" : 0,
      "debug_info" : "Conv_90",
      "pad_fill_mode" : 0,
      "pad_b" : 1,
      "pad_l" : 1,
      "top" : "254",
      "K" : 128,
      "blob_biases" : 113,
      "name" : "Conv_90",
      "has_batch_norm" : 0,
      "type" : "convolution",
      "n_groups" : 128,
      "pad_t" : 1,
      "has_biases" : 1,
      "C" : 128,
      "bottom" : "253",
      "weights" : {

      },
      "Nx" : 3,
      "pad_mode" : 0,
      "pad_value" : 0,
      "Ny" : 3,
      "n_parallel" : 1,
      "blob_weights_f16" : 115
    },
    {
      "bottom" : "254",
      "weights" : {

      },
      "mode" : 3,
      "debug_info" : "Sigmoid_91",
      "top" : "255",
      "type" : "activation",
      "name" : "Sigmoid_91"
    },
    {
      "bottom" : "254,255",
      "alpha" : 1,
      "operation" : 1,
      "weights" : {

      },
      "fused_relu" : 0,
      "debug_info" : "Mul_92",
      "top" : "256",
      "type" : "elementwise",
      "name" : "Mul_92",
      "beta" : 0
    },
    {
      "pad_r" : 0,
      "fused_relu" : 0,
      "fused_tanh" : 0,
      "debug_info" : "Conv_93",
      "pad_fill_mode" : 0,
      "pad_b" : 0,
      "pad_l" : 0,
      "top" : "257",
      "K" : 128,
      "blob_biases" : 117,
      "name" : "Conv_93",
      "has_batch_norm" : 0,
      "type" : "convolution",
      "n_groups" : 1,
      "pad_t" : 0,
      "has_biases" : 1,
      "C" : 64,
      "bottom" : "256",
      "weights" : {

      },
      "Nx" : 1,
      "pad_mode" : 0,
      "pad_value" : 0,
      "Ny" : 1,
      "n_parallel" : 1,
      "blob_weights_f16" : 119
    },
    {
      "bottom" : "257",
      "weights" : {

      },
      "mode" : 3,
      "debug_info" : "Sigmoid_94",
      "top" : "258",
      "type" : "activation",
      "name" : "Sigmoid_94"
    },
    {
      "bottom" : "257,258",
      "alpha" : 1,
      "operation" : 1,
      "weights" : {

      },
      "fused_relu" : 0,
      "debug_info" : "Mul_95",
      "top" : "259",
      "type" : "elementwise",
      "name" : "Mul_95",
      "beta" : 0
    },
    {
      "bottom" : "250,259",
      "alpha" : 1,
      "operation" : 0,
      "weights" : {

      },
      "fused_relu" : 0,
      "debug_info" : "Add_96",
      "top" : "260",
      "type" : "elementwise",
      "name" : "Add_96",
      "beta" : 0
    },
    {
      "pad_r" : 0,
      "fused_relu" : 0,
      "fused_tanh" : 0,
      "debug_info" : "Conv_97",
      "pad_fill_mode" : 0,
      "pad_b" : 0,
      "pad_l" : 0,
      "top" : "261",
      "K" : 64,
      "blob_biases" : 121,
      "name" : "Conv_97",
      "has_batch_norm" : 0,
      "type" : "convolution",
      "n_groups" : 1,
      "pad_t" : 0,
      "has_biases" : 1,
      "C" : 128,
      "bottom" : "260",
      "weights" : {

      },
      "Nx" : 1,
      "pad_mode" : 0,
      "pad_value" : 0,
      "Ny" : 1,
      "n_parallel" : 1,
      "blob_weights_f16" : 123
    },
    {
      "bottom" : "261",
      "weights" : {

      },
      "mode" : 3,
      "debug_info" : "Sigmoid_98",
      "top" : "262",
      "type" : "activation",
      "name" : "Sigmoid_98"
    },
    {
      "bottom" : "261,262",
      "alpha" : 1,
      "operation" : 1,
      "weights" : {

      },
      "fused_relu" : 0,
      "debug_info" : "Mul_99",
      "top" : "263",
      "type" : "elementwise",
      "name" : "Mul_99",
      "beta" : 0
    },
    {
      "pad_r" : 1,
      "fused_relu" : 0,
      "fused_tanh" : 0,
      "debug_info" : "Conv_100",
      "pad_fill_mode" : 0,
      "pad_b" : 1,
      "pad_l" : 1,
      "top" : "264",
      "K" : 128,
      "blob_biases" : 125,
      "name" : "Conv_100",
      "has_batch_norm" : 0,
      "type" : "convolution",
      "n_groups" : 128,
      "pad_t" : 1,
      "has_biases" : 1,
      "C" : 128,
      "bottom" : "263",
      "weights" : {

      },
      "Nx" : 3,
      "pad_mode" : 0,
      "pad_value" : 0,
      "Ny" : 3,
      "n_parallel" : 1,
      "blob_weights_f16" : 127
    },
    {
      "bottom" : "264",
      "weights" : {

      },
      "mode" : 3,
      "debug_info" : "Sigmoid_101",
      "top" : "265",
      "type" : "activation",
      "name" : "Sigmoid_101"
    },
    {
      "bottom" : "264,265",
      "alpha" : 1,
      "operation" : 1,
      "weights" : {

      },
      "fused_relu" : 0,
      "debug_info" : "Mul_102",
      "top" : "266",
      "type" : "elementwise",
      "name" : "Mul_102",
      "beta" : 0
    },
    {
      "pad_r" : 0,
      "fused_relu" : 0,
      "fused_tanh" : 0,
      "debug_info" : "Conv_103",
      "pad_fill_mode" : 0,
      "pad_b" : 0,
      "pad_l" : 0,
      "top" : "267",
      "K" : 128,
      "blob_biases" : 129,
      "name" : "Conv_103",
      "has_batch_norm" : 0,
      "type" : "convolution",
      "n_groups" : 1,
      "pad_t" : 0,
      "has_biases" : 1,
      "C" : 64,
      "bottom" : "266",
      "weights" : {

      },
      "Nx" : 1,
      "pad_mode" : 0,
      "pad_value" : 0,
      "Ny" : 1,
      "n_parallel" : 1,
      "blob_weights_f16" : 131
    },
    {
      "bottom" : "267",
      "weights" : {

      },
      "mode" : 3,
      "debug_info" : "Sigmoid_104",
      "top" : "268",
      "type" : "activation",
      "name" : "Sigmoid_104"
    },
    {
      "bottom" : "267,268",
      "alpha" : 1,
      "operation" : 1,
      "weights" : {

      },
      "fused_relu" : 0,
      "debug_info" : "Mul_105",
      "top" : "269",
      "type" : "elementwise",
      "name" : "Mul_105",
      "beta" : 0
    },
    {
      "bottom" : "260,269",
      "alpha" : 1,
      "operation" : 0,
      "weights" : {

      },
      "fused_relu" : 0,
      "debug_info" : "Add_106",
      "top" : "270",
      "type" : "elementwise",
      "name" : "Add_106",
      "beta" : 0
    },
    {
      "pad_r" : 0,
      "fused_relu" : 0,
      "fused_tanh" : 0,
      "debug_info" : "Conv_107",
      "pad_fill_mode" : 0,
      "pad_b" : 0,
      "pad_l" : 0,
      "top" : "271",
      "K" : 128,
      "blob_biases" : 133,
      "name" : "Conv_107",
      "has_batch_norm" : 0,
      "type" : "convolution",
      "n_groups" : 1,
      "pad_t" : 0,
      "has_biases" : 1,
      "C" : 64,
      "bottom" : "237",
      "weights" : {

      },
      "Nx" : 1,
      "pad_mode" : 0,
      "pad_value" : 0,
      "Ny" : 1,
      "n_parallel" : 1,
      "blob_weights_f16" : 135
    },
    {
      "bottom" : "271",
      "weights" : {

      },
      "mode" : 3,
      "debug_info" : "Sigmoid_108",
      "top" : "272",
      "type" : "activation",
      "name" : "Sigmoid_108"
    },
    {
      "bottom" : "271,272",
      "alpha" : 1,
      "operation" : 1,
      "weights" : {

      },
      "fused_relu" : 0,
      "debug_info" : "Mul_109",
      "top" : "273",
      "type" : "elementwise",
      "name" : "Mul_109",
      "beta" : 0
    },
    {
      "weights" : {

      },
      "debug_info" : "Concat_110",
      "top" : "274",
      "type" : "concat",
      "name" : "Concat_110",
      "bottom" : "270,273"
    },
    {
      "pad_r" : 0,
      "fused_relu" : 0,
      "fused_tanh" : 0,
      "debug_info" : "Conv_111",
      "pad_fill_mode" : 0,
      "pad_b" : 0,
      "pad_l" : 0,
      "top" : "275",
      "K" : 128,
      "blob_biases" : 137,
      "name" : "Conv_111",
      "has_batch_norm" : 0,
      "type" : "convolution",
      "n_groups" : 1,
      "pad_t" : 0,
      "has_biases" : 1,
      "C" : 128,
      "bottom" : "274",
      "weights" : {

      },
      "Nx" : 1,
      "pad_mode" : 0,
      "pad_value" : 0,
      "Ny" : 1,
      "n_parallel" : 1,
      "blob_weights_f16" : 139
    },
    {
      "bottom" : "275",
      "weights" : {

      },
      "mode" : 3,
      "debug_info" : "Sigmoid_112",
      "top" : "276",
      "type" : "activation",
      "name" : "Sigmoid_112"
    },
    {
      "bottom" : "275,276",
      "alpha" : 1,
      "operation" : 1,
      "weights" : {

      },
      "fused_relu" : 0,
      "debug_info" : "Mul_113",
      "top" : "277",
      "type" : "elementwise",
      "name" : "Mul_113",
      "beta" : 0
    },
    {
      "pad_r" : 0,
      "fused_relu" : 0,
      "fused_tanh" : 0,
      "debug_info" : "Conv_114",
      "pad_fill_mode" : 0,
      "pad_b" : 0,
      "pad_l" : 0,
      "top" : "278",
      "K" : 128,
      "blob_biases" : 141,
      "name" : "Conv_114",
      "has_batch_norm" : 0,
      "type" : "convolution",
      "n_groups" : 1,
      "pad_t" : 0,
      "has_biases" : 1,
      "C" : 256,
      "bottom" : "277",
      "weights" : {

      },
      "Nx" : 1,
      "pad_mode" : 0,
      "pad_value" : 0,
      "Ny" : 1,
      "n_parallel" : 1,
      "blob_weights_f16" : 143
    },
    {
      "bottom" : "278",
      "weights" : {

      },
      "mode" : 3,
      "debug_info" : "Sigmoid_115",
      "top" : "279",
      "type" : "activation",
      "name" : "Sigmoid_115"
    },
    {
      "bottom" : "278,279",
      "alpha" : 1,
      "operation" : 1,
      "weights" : {

      },
      "fused_relu" : 0,
      "debug_info" : "Mul_116",
      "top" : "280",
      "type" : "elementwise",
      "name" : "Mul_116",
      "beta" : 0
    },
    {
      "pad_r" : 1,
      "fused_relu" : 0,
      "fused_tanh" : 0,
      "debug_info" : "Conv_117",
      "pad_fill_mode" : 0,
      "pad_b" : 1,
      "pad_l" : 1,
      "top" : "281",
      "K" : 256,
      "blob_biases" : 145,
      "stride_x" : 2,
      "name" : "Conv_117",
      "has_batch_norm" : 0,
      "type" : "convolution",
      "n_groups" : 256,
      "pad_t" : 1,
      "stride_y" : 2,
      "has_biases" : 1,
      "C" : 256,
      "bottom" : "280",
      "weights" : {

      },
      "Nx" : 3,
      "pad_mode" : 0,
      "pad_value" : 0,
      "Ny" : 3,
      "n_parallel" : 1,
      "blob_weights_f16" : 147
    },
    {
      "bottom" : "281",
      "weights" : {

      },
      "mode" : 3,
      "debug_info" : "Sigmoid_118",
      "top" : "282",
      "type" : "activation",
      "name" : "Sigmoid_118"
    },
    {
      "bottom" : "281,282",
      "alpha" : 1,
      "operation" : 1,
      "weights" : {

      },
      "fused_relu" : 0,
      "debug_info" : "Mul_119",
      "top" : "283",
      "type" : "elementwise",
      "name" : "Mul_119",
      "beta" : 0
    },
    {
      "pad_r" : 0,
      "fused_relu" : 0,
      "fused_tanh" : 0,
      "debug_info" : "Conv_120",
      "pad_fill_mode" : 0,
      "pad_b" : 0,
      "pad_l" : 0,
      "top" : "284",
      "K" : 256,
      "blob_biases" : 149,
      "name" : "Conv_120",
      "has_batch_norm" : 0,
      "type" : "convolution",
      "n_groups" : 1,
      "pad_t" : 0,
      "has_biases" : 1,
      "C" : 256,
      "bottom" : "283",
      "weights" : {

      },
      "Nx" : 1,
      "pad_mode" : 0,
      "pad_value" : 0,
      "Ny" : 1,
      "n_parallel" : 1,
      "blob_weights_f16" : 151
    },
    {
      "bottom" : "284",
      "weights" : {

      },
      "mode" : 3,
      "debug_info" : "Sigmoid_121",
      "top" : "285",
      "type" : "activation",
      "name" : "Sigmoid_121"
    },
    {
      "bottom" : "284,285",
      "alpha" : 1,
      "operation" : 1,
      "weights" : {

      },
      "fused_relu" : 0,
      "debug_info" : "Mul_122",
      "top" : "286",
      "type" : "elementwise",
      "name" : "Mul_122",
      "beta" : 0
    },
    {
      "pad_r" : 0,
      "fused_relu" : 0,
      "fused_tanh" : 0,
      "debug_info" : "Conv_123",
      "pad_fill_mode" : 0,
      "pad_b" : 0,
      "pad_l" : 0,
      "top" : "287",
      "K" : 256,
      "blob_biases" : 153,
      "name" : "Conv_123",
      "has_batch_norm" : 0,
      "type" : "convolution",
      "n_groups" : 1,
      "pad_t" : 0,
      "has_biases" : 1,
      "C" : 128,
      "bottom" : "286",
      "weights" : {

      },
      "Nx" : 1,
      "pad_mode" : 0,
      "pad_value" : 0,
      "Ny" : 1,
      "n_parallel" : 1,
      "blob_weights_f16" : 155
    },
    {
      "bottom" : "287",
      "weights" : {

      },
      "mode" : 3,
      "debug_info" : "Sigmoid_124",
      "top" : "288",
      "type" : "activation",
      "name" : "Sigmoid_124"
    },
    {
      "bottom" : "287,288",
      "alpha" : 1,
      "operation" : 1,
      "weights" : {

      },
      "fused_relu" : 0,
      "debug_info" : "Mul_125",
      "top" : "289",
      "type" : "elementwise",
      "name" : "Mul_125",
      "beta" : 0
    },
    {
      "pad_r" : 0,
      "fused_relu" : 0,
      "fused_tanh" : 0,
      "debug_info" : "Conv_126",
      "pad_fill_mode" : 0,
      "pad_b" : 0,
      "pad_l" : 0,
      "top" : "290",
      "K" : 128,
      "blob_biases" : 157,
      "name" : "Conv_126",
      "has_batch_norm" : 0,
      "type" : "convolution",
      "n_groups" : 1,
      "pad_t" : 0,
      "has_biases" : 1,
      "C" : 256,
      "bottom" : "289",
      "weights" : {

      },
      "Nx" : 1,
      "pad_mode" : 0,
      "pad_value" : 0,
      "Ny" : 1,
      "n_parallel" : 1,
      "blob_weights_f16" : 159
    },
    {
      "bottom" : "290",
      "weights" : {

      },
      "mode" : 3,
      "debug_info" : "Sigmoid_127",
      "top" : "291",
      "type" : "activation",
      "name" : "Sigmoid_127"
    },
    {
      "bottom" : "290,291",
      "alpha" : 1,
      "operation" : 1,
      "weights" : {

      },
      "fused_relu" : 0,
      "debug_info" : "Mul_128",
      "top" : "292",
      "type" : "elementwise",
      "name" : "Mul_128",
      "beta" : 0
    },
    {
      "pad_r" : 1,
      "fused_relu" : 0,
      "fused_tanh" : 0,
      "debug_info" : "Conv_129",
      "pad_fill_mode" : 0,
      "pad_b" : 1,
      "pad_l" : 1,
      "top" : "293",
      "K" : 256,
      "blob_biases" : 161,
      "name" : "Conv_129",
      "has_batch_norm" : 0,
      "type" : "convolution",
      "n_groups" : 256,
      "pad_t" : 1,
      "has_biases" : 1,
      "C" : 256,
      "bottom" : "292",
      "weights" : {

      },
      "Nx" : 3,
      "pad_mode" : 0,
      "pad_value" : 0,
      "Ny" : 3,
      "n_parallel" : 1,
      "blob_weights_f16" : 163
    },
    {
      "bottom" : "293",
      "weights" : {

      },
      "mode" : 3,
      "debug_info" : "Sigmoid_130",
      "top" : "294",
      "type" : "activation",
      "name" : "Sigmoid_130"
    },
    {
      "bottom" : "293,294",
      "alpha" : 1,
      "operation" : 1,
      "weights" : {

      },
      "fused_relu" : 0,
      "debug_info" : "Mul_131",
      "top" : "295",
      "type" : "elementwise",
      "name" : "Mul_131",
      "beta" : 0
    },
    {
      "pad_r" : 0,
      "fused_relu" : 0,
      "fused_tanh" : 0,
      "debug_info" : "Conv_132",
      "pad_fill_mode" : 0,
      "pad_b" : 0,
      "pad_l" : 0,
      "top" : "296",
      "K" : 256,
      "blob_biases" : 165,
      "name" : "Conv_132",
      "has_batch_norm" : 0,
      "type" : "convolution",
      "n_groups" : 1,
      "pad_t" : 0,
      "has_biases" : 1,
      "C" : 128,
      "bottom" : "295",
      "weights" : {

      },
      "Nx" : 1,
      "pad_mode" : 0,
      "pad_value" : 0,
      "Ny" : 1,
      "n_parallel" : 1,
      "blob_weights_f16" : 167
    },
    {
      "bottom" : "296",
      "weights" : {

      },
      "mode" : 3,
      "debug_info" : "Sigmoid_133",
      "top" : "297",
      "type" : "activation",
      "name" : "Sigmoid_133"
    },
    {
      "bottom" : "296,297",
      "alpha" : 1,
      "operation" : 1,
      "weights" : {

      },
      "fused_relu" : 0,
      "debug_info" : "Mul_134",
      "top" : "298",
      "type" : "elementwise",
      "name" : "Mul_134",
      "beta" : 0
    },
    {
      "bottom" : "289,298",
      "alpha" : 1,
      "operation" : 0,
      "weights" : {

      },
      "fused_relu" : 0,
      "debug_info" : "Add_135",
      "top" : "299",
      "type" : "elementwise",
      "name" : "Add_135",
      "beta" : 0
    },
    {
      "pad_r" : 0,
      "fused_relu" : 0,
      "fused_tanh" : 0,
      "debug_info" : "Conv_136",
      "pad_fill_mode" : 0,
      "pad_b" : 0,
      "pad_l" : 0,
      "top" : "300",
      "K" : 256,
      "blob_biases" : 169,
      "name" : "Conv_136",
      "has_batch_norm" : 0,
      "type" : "convolution",
      "n_groups" : 1,
      "pad_t" : 0,
      "has_biases" : 1,
      "C" : 128,
      "bottom" : "286",
      "weights" : {

      },
      "Nx" : 1,
      "pad_mode" : 0,
      "pad_value" : 0,
      "Ny" : 1,
      "n_parallel" : 1,
      "blob_weights_f16" : 171
    },
    {
      "bottom" : "300",
      "weights" : {

      },
      "mode" : 3,
      "debug_info" : "Sigmoid_137",
      "top" : "301",
      "type" : "activation",
      "name" : "Sigmoid_137"
    },
    {
      "bottom" : "300,301",
      "alpha" : 1,
      "operation" : 1,
      "weights" : {

      },
      "fused_relu" : 0,
      "debug_info" : "Mul_138",
      "top" : "302",
      "type" : "elementwise",
      "name" : "Mul_138",
      "beta" : 0
    },
    {
      "weights" : {

      },
      "debug_info" : "Concat_139",
      "top" : "303",
      "type" : "concat",
      "name" : "Concat_139",
      "bottom" : "299,302"
    },
    {
      "pad_r" : 0,
      "fused_relu" : 0,
      "fused_tanh" : 0,
      "debug_info" : "Conv_140",
      "pad_fill_mode" : 0,
      "pad_b" : 0,
      "pad_l" : 0,
      "top" : "304",
      "K" : 256,
      "blob_biases" : 173,
      "name" : "Conv_140",
      "has_batch_norm" : 0,
      "type" : "convolution",
      "n_groups" : 1,
      "pad_t" : 0,
      "has_biases" : 1,
      "C" : 256,
      "bottom" : "303",
      "weights" : {

      },
      "Nx" : 1,
      "pad_mode" : 0,
      "pad_value" : 0,
      "Ny" : 1,
      "n_parallel" : 1,
      "blob_weights_f16" : 175
    },
    {
      "bottom" : "304",
      "weights" : {

      },
      "mode" : 3,
      "debug_info" : "Sigmoid_141",
      "top" : "305",
      "type" : "activation",
      "name" : "Sigmoid_141"
    },
    {
      "bottom" : "304,305",
      "alpha" : 1,
      "operation" : 1,
      "weights" : {

      },
      "fused_relu" : 0,
      "debug_info" : "Mul_142",
      "top" : "306",
      "type" : "elementwise",
      "name" : "Mul_142",
      "beta" : 0
    },
    {
      "pad_r" : 0,
      "fused_relu" : 0,
      "fused_tanh" : 0,
      "debug_info" : "Conv_143",
      "pad_fill_mode" : 0,
      "pad_b" : 0,
      "pad_l" : 0,
      "top" : "307",
      "K" : 256,
      "blob_biases" : 177,
      "name" : "Conv_143",
      "has_batch_norm" : 0,
      "type" : "convolution",
      "n_groups" : 1,
      "pad_t" : 0,
      "has_biases" : 1,
      "C" : 128,
      "bottom" : "306",
      "weights" : {

      },
      "Nx" : 1,
      "pad_mode" : 0,
      "pad_value" : 0,
      "Ny" : 1,
      "n_parallel" : 1,
      "blob_weights_f16" : 179
    },
    {
      "bottom" : "307",
      "weights" : {

      },
      "mode" : 3,
      "debug_info" : "Sigmoid_144",
      "top" : "308",
      "type" : "activation",
      "name" : "Sigmoid_144"
    },
    {
      "bottom" : "307,308",
      "alpha" : 1,
      "operation" : 1,
      "weights" : {

      },
      "fused_relu" : 0,
      "debug_info" : "Mul_145",
      "top" : "309",
      "type" : "elementwise",
      "name" : "Mul_145",
      "beta" : 0
    },
    {
      "pad_r" : 2,
      "debug_info" : "MaxPool_146",
      "pad_fill_mode" : 0,
      "pad_b" : 2,
      "pad_l" : 2,
      "size_x" : 5,
      "top" : "310",
      "top_shape_style" : 0,
      "stride_x" : 1,
      "avg_or_max" : 1,
      "average_count_exclude_padding" : 1,
      "type" : "pool",
      "name" : "MaxPool_146",
      "pad_t" : 2,
      "stride_y" : 1,
      "bottom" : "309",
      "weights" : {

      },
      "pad_mode" : 0,
      "size_y" : 5,
      "pad_value" : 0
    },
    {
      "pad_r" : 2,
      "debug_info" : "MaxPool_147",
      "pad_fill_mode" : 0,
      "pad_b" : 2,
      "pad_l" : 2,
      "size_x" : 5,
      "top" : "311",
      "top_shape_style" : 0,
      "stride_x" : 1,
      "avg_or_max" : 1,
      "average_count_exclude_padding" : 1,
      "type" : "pool",
      "name" : "MaxPool_147",
      "pad_t" : 2,
      "stride_y" : 1,
      "bottom" : "310",
      "weights" : {

      },
      "pad_mode" : 0,
      "size_y" : 5,
      "pad_value" : 0
    },
    {
      "pad_r" : 2,
      "debug_info" : "MaxPool_148",
      "pad_fill_mode" : 0,
      "pad_b" : 2,
      "pad_l" : 2,
      "size_x" : 5,
      "top" : "312",
      "top_shape_style" : 0,
      "stride_x" : 1,
      "avg_or_max" : 1,
      "average_count_exclude_padding" : 1,
      "type" : "pool",
      "name" : "MaxPool_148",
      "pad_t" : 2,
      "stride_y" : 1,
      "bottom" : "311",
      "weights" : {

      },
      "pad_mode" : 0,
      "size_y" : 5,
      "pad_value" : 0
    },
    {
      "weights" : {

      },
      "debug_info" : "Concat_149",
      "top" : "313",
      "type" : "concat",
      "name" : "Concat_149",
      "bottom" : "309,310,311,312"
    },
    {
      "pad_r" : 0,
      "fused_relu" : 0,
      "fused_tanh" : 0,
      "debug_info" : "Conv_150",
      "pad_fill_mode" : 0,
      "pad_b" : 0,
      "pad_l" : 0,
      "top" : "314",
      "K" : 512,
      "blob_biases" : 181,
      "name" : "Conv_150",
      "has_batch_norm" : 0,
      "type" : "convolution",
      "n_groups" : 1,
      "pad_t" : 0,
      "has_biases" : 1,
      "C" : 256,
      "bottom" : "313",
      "weights" : {

      },
      "Nx" : 1,
      "pad_mode" : 0,
      "pad_value" : 0,
      "Ny" : 1,
      "n_parallel" : 1,
      "blob_weights_f16" : 183
    },
    {
      "bottom" : "314",
      "weights" : {

      },
      "mode" : 3,
      "debug_info" : "Sigmoid_151",
      "top" : "315",
      "type" : "activation",
      "name" : "Sigmoid_151"
    },
    {
      "bottom" : "314,315",
      "alpha" : 1,
      "operation" : 1,
      "weights" : {

      },
      "fused_relu" : 0,
      "debug_info" : "Mul_152",
      "top" : "316",
      "type" : "elementwise",
      "name" : "Mul_152",
      "beta" : 0
    },
    {
      "pad_r" : 0,
      "fused_relu" : 0,
      "fused_tanh" : 0,
      "debug_info" : "Conv_153",
      "pad_fill_mode" : 0,
      "pad_b" : 0,
      "pad_l" : 0,
      "top" : "317",
      "K" : 256,
      "blob_biases" : 185,
      "name" : "Conv_153",
      "has_batch_norm" : 0,
      "type" : "convolution",
      "n_groups" : 1,
      "pad_t" : 0,
      "has_biases" : 1,
      "C" : 128,
      "bottom" : "316",
      "weights" : {

      },
      "Nx" : 1,
      "pad_mode" : 0,
      "pad_value" : 0,
      "Ny" : 1,
      "n_parallel" : 1,
      "blob_weights_f16" : 187
    },
    {
      "bottom" : "317",
      "weights" : {

      },
      "mode" : 3,
      "debug_info" : "Sigmoid_154",
      "top" : "318",
      "type" : "activation",
      "name" : "Sigmoid_154"
    },
    {
      "bottom" : "317,318",
      "alpha" : 1,
      "operation" : 1,
      "weights" : {

      },
      "fused_relu" : 0,
      "debug_info" : "Mul_155",
      "top" : "319",
      "type" : "elementwise",
      "name" : "Mul_155",
      "beta" : 0
    },
    {
      "top" : "323",
      "use_fractional_scale_factors" : false,
      "weights" : {

      },
      "fractional_scaling_factor_y" : 1,
      "type" : "upsample",
      "scaling_factor_x" : 2,
      "mode" : 0,
      "align_corners" : 0,
      "bottom" : "319",
      "debug_info" : "Upsample_156",
      "fractional_scaling_factor_x" : 1,
      "is_legacy_mode" : 1,
      "name" : "Upsample_156",
      "scaling_factor_y" : 2
    },
    {
      "weights" : {

      },
      "debug_info" : "Concat_157",
      "top" : "324",
      "type" : "concat",
      "name" : "Concat_157",
      "bottom" : "323,277"
    },
    {
      "pad_r" : 0,
      "fused_relu" : 0,
      "fused_tanh" : 0,
      "debug_info" : "Conv_158",
      "pad_fill_mode" : 0,
      "pad_b" : 0,
      "pad_l" : 0,
      "top" : "325",
      "K" : 256,
      "blob_biases" : 189,
      "name" : "Conv_158",
      "has_batch_norm" : 0,
      "type" : "convolution",
      "n_groups" : 1,
      "pad_t" : 0,
      "has_biases" : 1,
      "C" : 64,
      "bottom" : "324",
      "weights" : {

      },
      "Nx" : 1,
      "pad_mode" : 0,
      "pad_value" : 0,
      "Ny" : 1,
      "n_parallel" : 1,
      "blob_weights_f16" : 191
    },
    {
      "bottom" : "325",
      "weights" : {

      },
      "mode" : 3,
      "debug_info" : "Sigmoid_159",
      "top" : "326",
      "type" : "activation",
      "name" : "Sigmoid_159"
    },
    {
      "bottom" : "325,326",
      "alpha" : 1,
      "operation" : 1,
      "weights" : {

      },
      "fused_relu" : 0,
      "debug_info" : "Mul_160",
      "top" : "327",
      "type" : "elementwise",
      "name" : "Mul_160",
      "beta" : 0
    },
    {
      "pad_r" : 0,
      "fused_relu" : 0,
      "fused_tanh" : 0,
      "debug_info" : "Conv_161",
      "pad_fill_mode" : 0,
      "pad_b" : 0,
      "pad_l" : 0,
      "top" : "328",
      "K" : 64,
      "blob_biases" : 193,
      "name" : "Conv_161",
      "has_batch_norm" : 0,
      "type" : "convolution",
      "n_groups" : 1,
      "pad_t" : 0,
      "has_biases" : 1,
      "C" : 128,
      "bottom" : "327",
      "weights" : {

      },
      "Nx" : 1,
      "pad_mode" : 0,
      "pad_value" : 0,
      "Ny" : 1,
      "n_parallel" : 1,
      "blob_weights_f16" : 195
    },
    {
      "bottom" : "328",
      "weights" : {

      },
      "mode" : 3,
      "debug_info" : "Sigmoid_162",
      "top" : "329",
      "type" : "activation",
      "name" : "Sigmoid_162"
    },
    {
      "bottom" : "328,329",
      "alpha" : 1,
      "operation" : 1,
      "weights" : {

      },
      "fused_relu" : 0,
      "debug_info" : "Mul_163",
      "top" : "330",
      "type" : "elementwise",
      "name" : "Mul_163",
      "beta" : 0
    },
    {
      "pad_r" : 1,
      "fused_relu" : 0,
      "fused_tanh" : 0,
      "debug_info" : "Conv_164",
      "pad_fill_mode" : 0,
      "pad_b" : 1,
      "pad_l" : 1,
      "top" : "331",
      "K" : 128,
      "blob_biases" : 197,
      "name" : "Conv_164",
      "has_batch_norm" : 0,
      "type" : "convolution",
      "n_groups" : 128,
      "pad_t" : 1,
      "has_biases" : 1,
      "C" : 128,
      "bottom" : "330",
      "weights" : {

      },
      "Nx" : 3,
      "pad_mode" : 0,
      "pad_value" : 0,
      "Ny" : 3,
      "n_parallel" : 1,
      "blob_weights_f16" : 199
    },
    {
      "bottom" : "331",
      "weights" : {

      },
      "mode" : 3,
      "debug_info" : "Sigmoid_165",
      "top" : "332",
      "type" : "activation",
      "name" : "Sigmoid_165"
    },
    {
      "bottom" : "331,332",
      "alpha" : 1,
      "operation" : 1,
      "weights" : {

      },
      "fused_relu" : 0,
      "debug_info" : "Mul_166",
      "top" : "333",
      "type" : "elementwise",
      "name" : "Mul_166",
      "beta" : 0
    },
    {
      "pad_r" : 0,
      "fused_relu" : 0,
      "fused_tanh" : 0,
      "debug_info" : "Conv_167",
      "pad_fill_mode" : 0,
      "pad_b" : 0,
      "pad_l" : 0,
      "top" : "334",
      "K" : 128,
      "blob_biases" : 201,
      "name" : "Conv_167",
      "has_batch_norm" : 0,
      "type" : "convolution",
      "n_groups" : 1,
      "pad_t" : 0,
      "has_biases" : 1,
      "C" : 64,
      "bottom" : "333",
      "weights" : {

      },
      "Nx" : 1,
      "pad_mode" : 0,
      "pad_value" : 0,
      "Ny" : 1,
      "n_parallel" : 1,
      "blob_weights_f16" : 203
    },
    {
      "bottom" : "334",
      "weights" : {

      },
      "mode" : 3,
      "debug_info" : "Sigmoid_168",
      "top" : "335",
      "type" : "activation",
      "name" : "Sigmoid_168"
    },
    {
      "bottom" : "334,335",
      "alpha" : 1,
      "operation" : 1,
      "weights" : {

      },
      "fused_relu" : 0,
      "debug_info" : "Mul_169",
      "top" : "336",
      "type" : "elementwise",
      "name" : "Mul_169",
      "beta" : 0
    },
    {
      "pad_r" : 0,
      "fused_relu" : 0,
      "fused_tanh" : 0,
      "debug_info" : "Conv_170",
      "pad_fill_mode" : 0,
      "pad_b" : 0,
      "pad_l" : 0,
      "top" : "337",
      "K" : 256,
      "blob_biases" : 205,
      "name" : "Conv_170",
      "has_batch_norm" : 0,
      "type" : "convolution",
      "n_groups" : 1,
      "pad_t" : 0,
      "has_biases" : 1,
      "C" : 64,
      "bottom" : "324",
      "weights" : {

      },
      "Nx" : 1,
      "pad_mode" : 0,
      "pad_value" : 0,
      "Ny" : 1,
      "n_parallel" : 1,
      "blob_weights_f16" : 207
    },
    {
      "bottom" : "337",
      "weights" : {

      },
      "mode" : 3,
      "debug_info" : "Sigmoid_171",
      "top" : "338",
      "type" : "activation",
      "name" : "Sigmoid_171"
    },
    {
      "bottom" : "337,338",
      "alpha" : 1,
      "operation" : 1,
      "weights" : {

      },
      "fused_relu" : 0,
      "debug_info" : "Mul_172",
      "top" : "339",
      "type" : "elementwise",
      "name" : "Mul_172",
      "beta" : 0
    },
    {
      "weights" : {

      },
      "debug_info" : "Concat_173",
      "top" : "340",
      "type" : "concat",
      "name" : "Concat_173",
      "bottom" : "336,339"
    },
    {
      "pad_r" : 0,
      "fused_relu" : 0,
      "fused_tanh" : 0,
      "debug_info" : "Conv_174",
      "pad_fill_mode" : 0,
      "pad_b" : 0,
      "pad_l" : 0,
      "top" : "341",
      "K" : 128,
      "blob_biases" : 209,
      "name" : "Conv_174",
      "has_batch_norm" : 0,
      "type" : "convolution",
      "n_groups" : 1,
      "pad_t" : 0,
      "has_biases" : 1,
      "C" : 128,
      "bottom" : "340",
      "weights" : {

      },
      "Nx" : 1,
      "pad_mode" : 0,
      "pad_value" : 0,
      "Ny" : 1,
      "n_parallel" : 1,
      "blob_weights_f16" : 211
    },
    {
      "bottom" : "341",
      "weights" : {

      },
      "mode" : 3,
      "debug_info" : "Sigmoid_175",
      "top" : "342",
      "type" : "activation",
      "name" : "Sigmoid_175"
    },
    {
      "bottom" : "341,342",
      "alpha" : 1,
      "operation" : 1,
      "weights" : {

      },
      "fused_relu" : 0,
      "debug_info" : "Mul_176",
      "top" : "343",
      "type" : "elementwise",
      "name" : "Mul_176",
      "beta" : 0
    },
    {
      "pad_r" : 0,
      "fused_relu" : 0,
      "fused_tanh" : 0,
      "debug_info" : "Conv_177",
      "pad_fill_mode" : 0,
      "pad_b" : 0,
      "pad_l" : 0,
      "top" : "344",
      "K" : 128,
      "blob_biases" : 213,
      "name" : "Conv_177",
      "has_batch_norm" : 0,
      "type" : "convolution",
      "n_groups" : 1,
      "pad_t" : 0,
      "has_biases" : 1,
      "C" : 64,
      "bottom" : "343",
      "weights" : {

      },
      "Nx" : 1,
      "pad_mode" : 0,
      "pad_value" : 0,
      "Ny" : 1,
      "n_parallel" : 1,
      "blob_weights_f16" : 215
    },
    {
      "bottom" : "344",
      "weights" : {

      },
      "mode" : 3,
      "debug_info" : "Sigmoid_178",
      "top" : "345",
      "type" : "activation",
      "name" : "Sigmoid_178"
    },
    {
      "bottom" : "344,345",
      "alpha" : 1,
      "operation" : 1,
      "weights" : {

      },
      "fused_relu" : 0,
      "debug_info" : "Mul_179",
      "top" : "346",
      "type" : "elementwise",
      "name" : "Mul_179",
      "beta" : 0
    },
    {
      "top" : "350",
      "use_fractional_scale_factors" : false,
      "weights" : {

      },
      "fractional_scaling_factor_y" : 1,
      "type" : "upsample",
      "scaling_factor_x" : 2,
      "mode" : 0,
      "align_corners" : 0,
      "bottom" : "346",
      "debug_info" : "Upsample_180",
      "fractional_scaling_factor_x" : 1,
      "is_legacy_mode" : 1,
      "name" : "Upsample_180",
      "scaling_factor_y" : 2
    },
    {
      "weights" : {

      },
      "debug_info" : "Concat_181",
      "top" : "351",
      "type" : "concat",
      "name" : "Concat_181",
      "bottom" : "350,228"
    },
    {
      "pad_r" : 0,
      "fused_relu" : 0,
      "fused_tanh" : 0,
      "debug_info" : "Conv_182",
      "pad_fill_mode" : 0,
      "pad_b" : 0,
      "pad_l" : 0,
      "top" : "352",
      "K" : 128,
      "blob_biases" : 217,
      "name" : "Conv_182",
      "has_batch_norm" : 0,
      "type" : "convolution",
      "n_groups" : 1,
      "pad_t" : 0,
      "has_biases" : 1,
      "C" : 32,
      "bottom" : "351",
      "weights" : {

      },
      "Nx" : 1,
      "pad_mode" : 0,
      "pad_value" : 0,
      "Ny" : 1,
      "n_parallel" : 1,
      "blob_weights_f16" : 219
    },
    {
      "bottom" : "352",
      "weights" : {

      },
      "mode" : 3,
      "debug_info" : "Sigmoid_183",
      "top" : "353",
      "type" : "activation",
      "name" : "Sigmoid_183"
    },
    {
      "bottom" : "352,353",
      "alpha" : 1,
      "operation" : 1,
      "weights" : {

      },
      "fused_relu" : 0,
      "debug_info" : "Mul_184",
      "top" : "354",
      "type" : "elementwise",
      "name" : "Mul_184",
      "beta" : 0
    },
    {
      "pad_r" : 0,
      "fused_relu" : 0,
      "fused_tanh" : 0,
      "debug_info" : "Conv_185",
      "pad_fill_mode" : 0,
      "pad_b" : 0,
      "pad_l" : 0,
      "top" : "355",
      "K" : 32,
      "blob_biases" : 221,
      "name" : "Conv_185",
      "has_batch_norm" : 0,
      "type" : "convolution",
      "n_groups" : 1,
      "pad_t" : 0,
      "has_biases" : 1,
      "C" : 64,
      "bottom" : "354",
      "weights" : {

      },
      "Nx" : 1,
      "pad_mode" : 0,
      "pad_value" : 0,
      "Ny" : 1,
      "n_parallel" : 1,
      "blob_weights_f16" : 223
    },
    {
      "bottom" : "355",
      "weights" : {

      },
      "mode" : 3,
      "debug_info" : "Sigmoid_186",
      "top" : "356",
      "type" : "activation",
      "name" : "Sigmoid_186"
    },
    {
      "bottom" : "355,356",
      "alpha" : 1,
      "operation" : 1,
      "weights" : {

      },
      "fused_relu" : 0,
      "debug_info" : "Mul_187",
      "top" : "357",
      "type" : "elementwise",
      "name" : "Mul_187",
      "beta" : 0
    },
    {
      "pad_r" : 1,
      "fused_relu" : 0,
      "fused_tanh" : 0,
      "debug_info" : "Conv_188",
      "pad_fill_mode" : 0,
      "pad_b" : 1,
      "pad_l" : 1,
      "top" : "358",
      "K" : 64,
      "blob_biases" : 225,
      "name" : "Conv_188",
      "has_batch_norm" : 0,
      "type" : "convolution",
      "n_groups" : 64,
      "pad_t" : 1,
      "has_biases" : 1,
      "C" : 64,
      "bottom" : "357",
      "weights" : {

      },
      "Nx" : 3,
      "pad_mode" : 0,
      "pad_value" : 0,
      "Ny" : 3,
      "n_parallel" : 1,
      "blob_weights_f16" : 227
    },
    {
      "bottom" : "358",
      "weights" : {

      },
      "mode" : 3,
      "debug_info" : "Sigmoid_189",
      "top" : "359",
      "type" : "activation",
      "name" : "Sigmoid_189"
    },
    {
      "bottom" : "358,359",
      "alpha" : 1,
      "operation" : 1,
      "weights" : {

      },
      "fused_relu" : 0,
      "debug_info" : "Mul_190",
      "top" : "360",
      "type" : "elementwise",
      "name" : "Mul_190",
      "beta" : 0
    },
    {
      "pad_r" : 0,
      "fused_relu" : 0,
      "fused_tanh" : 0,
      "debug_info" : "Conv_191",
      "pad_fill_mode" : 0,
      "pad_b" : 0,
      "pad_l" : 0,
      "top" : "361",
      "K" : 64,
      "blob_biases" : 229,
      "name" : "Conv_191",
      "has_batch_norm" : 0,
      "type" : "convolution",
      "n_groups" : 1,
      "pad_t" : 0,
      "has_biases" : 1,
      "C" : 32,
      "bottom" : "360",
      "weights" : {

      },
      "Nx" : 1,
      "pad_mode" : 0,
      "pad_value" : 0,
      "Ny" : 1,
      "n_parallel" : 1,
      "blob_weights_f16" : 231
    },
    {
      "bottom" : "361",
      "weights" : {

      },
      "mode" : 3,
      "debug_info" : "Sigmoid_192",
      "top" : "362",
      "type" : "activation",
      "name" : "Sigmoid_192"
    },
    {
      "bottom" : "361,362",
      "alpha" : 1,
      "operation" : 1,
      "weights" : {

      },
      "fused_relu" : 0,
      "debug_info" : "Mul_193",
      "top" : "363",
      "type" : "elementwise",
      "name" : "Mul_193",
      "beta" : 0
    },
    {
      "pad_r" : 0,
      "fused_relu" : 0,
      "fused_tanh" : 0,
      "debug_info" : "Conv_194",
      "pad_fill_mode" : 0,
      "pad_b" : 0,
      "pad_l" : 0,
      "top" : "364",
      "K" : 128,
      "blob_biases" : 233,
      "name" : "Conv_194",
      "has_batch_norm" : 0,
      "type" : "convolution",
      "n_groups" : 1,
      "pad_t" : 0,
      "has_biases" : 1,
      "C" : 32,
      "bottom" : "351",
      "weights" : {

      },
      "Nx" : 1,
      "pad_mode" : 0,
      "pad_value" : 0,
      "Ny" : 1,
      "n_parallel" : 1,
      "blob_weights_f16" : 235
    },
    {
      "bottom" : "364",
      "weights" : {

      },
      "mode" : 3,
      "debug_info" : "Sigmoid_195",
      "top" : "365",
      "type" : "activation",
      "name" : "Sigmoid_195"
    },
    {
      "bottom" : "364,365",
      "alpha" : 1,
      "operation" : 1,
      "weights" : {

      },
      "fused_relu" : 0,
      "debug_info" : "Mul_196",
      "top" : "366",
      "type" : "elementwise",
      "name" : "Mul_196",
      "beta" : 0
    },
    {
      "weights" : {

      },
      "debug_info" : "Concat_197",
      "top" : "367",
      "type" : "concat",
      "name" : "Concat_197",
      "bottom" : "363,366"
    },
    {
      "pad_r" : 0,
      "fused_relu" : 0,
      "fused_tanh" : 0,
      "debug_info" : "Conv_198",
      "pad_fill_mode" : 0,
      "pad_b" : 0,
      "pad_l" : 0,
      "top" : "368",
      "K" : 64,
      "blob_biases" : 237,
      "name" : "Conv_198",
      "has_batch_norm" : 0,
      "type" : "convolution",
      "n_groups" : 1,
      "pad_t" : 0,
      "has_biases" : 1,
      "C" : 64,
      "bottom" : "367",
      "weights" : {

      },
      "Nx" : 1,
      "pad_mode" : 0,
      "pad_value" : 0,
      "Ny" : 1,
      "n_parallel" : 1,
      "blob_weights_f16" : 239
    },
    {
      "bottom" : "368",
      "weights" : {

      },
      "mode" : 3,
      "debug_info" : "Sigmoid_199",
      "top" : "369",
      "type" : "activation",
      "name" : "Sigmoid_199"
    },
    {
      "bottom" : "368,369",
      "alpha" : 1,
      "operation" : 1,
      "weights" : {

      },
      "fused_relu" : 0,
      "debug_info" : "Mul_200",
      "top" : "370",
      "type" : "elementwise",
      "name" : "Mul_200",
      "beta" : 0
    },
    {
      "pad_r" : 0,
      "fused_relu" : 0,
      "fused_tanh" : 0,
      "debug_info" : "Conv_201",
      "pad_fill_mode" : 0,
      "pad_b" : 0,
      "pad_l" : 0,
      "top" : "371",
      "K" : 64,
      "blob_biases" : 241,
      "name" : "Conv_201",
      "has_batch_norm" : 0,
      "type" : "convolution",
      "n_groups" : 1,
      "pad_t" : 0,
      "has_biases" : 1,
      "C" : 128,
      "bottom" : "370",
      "weights" : {

      },
      "Nx" : 1,
      "pad_mode" : 0,
      "pad_value" : 0,
      "Ny" : 1,
      "n_parallel" : 1,
      "blob_weights_f16" : 243
    },
    {
      "bottom" : "371",
      "weights" : {

      },
      "mode" : 3,
      "debug_info" : "Sigmoid_202",
      "top" : "372",
      "type" : "activation",
      "name" : "Sigmoid_202"
    },
    {
      "bottom" : "371,372",
      "alpha" : 1,
      "operation" : 1,
      "weights" : {

      },
      "fused_relu" : 0,
      "debug_info" : "Mul_203",
      "top" : "373",
      "type" : "elementwise",
      "name" : "Mul_203",
      "beta" : 0
    },
    {
      "pad_r" : 1,
      "fused_relu" : 0,
      "fused_tanh" : 0,
      "debug_info" : "Conv_204",
      "pad_fill_mode" : 0,
      "pad_b" : 1,
      "pad_l" : 1,
      "top" : "374",
      "K" : 128,
      "blob_biases" : 245,
      "stride_x" : 2,
      "name" : "Conv_204",
      "has_batch_norm" : 0,
      "type" : "convolution",
      "n_groups" : 128,
      "pad_t" : 1,
      "stride_y" : 2,
      "has_biases" : 1,
      "C" : 128,
      "bottom" : "373",
      "weights" : {

      },
      "Nx" : 3,
      "pad_mode" : 0,
      "pad_value" : 0,
      "Ny" : 3,
      "n_parallel" : 1,
      "blob_weights_f16" : 247
    },
    {
      "bottom" : "374",
      "weights" : {

      },
      "mode" : 3,
      "debug_info" : "Sigmoid_205",
      "top" : "375",
      "type" : "activation",
      "name" : "Sigmoid_205"
    },
    {
      "bottom" : "374,375",
      "alpha" : 1,
      "operation" : 1,
      "weights" : {

      },
      "fused_relu" : 0,
      "debug_info" : "Mul_206",
      "top" : "376",
      "type" : "elementwise",
      "name" : "Mul_206",
      "beta" : 0
    },
    {
      "pad_r" : 0,
      "fused_relu" : 0,
      "fused_tanh" : 0,
      "debug_info" : "Conv_207",
      "pad_fill_mode" : 0,
      "pad_b" : 0,
      "pad_l" : 0,
      "top" : "377",
      "K" : 128,
      "blob_biases" : 249,
      "name" : "Conv_207",
      "has_batch_norm" : 0,
      "type" : "convolution",
      "n_groups" : 1,
      "pad_t" : 0,
      "has_biases" : 1,
      "C" : 64,
      "bottom" : "376",
      "weights" : {

      },
      "Nx" : 1,
      "pad_mode" : 0,
      "pad_value" : 0,
      "Ny" : 1,
      "n_parallel" : 1,
      "blob_weights_f16" : 251
    },
    {
      "bottom" : "377",
      "weights" : {

      },
      "mode" : 3,
      "debug_info" : "Sigmoid_208",
      "top" : "378",
      "type" : "activation",
      "name" : "Sigmoid_208"
    },
    {
      "bottom" : "377,378",
      "alpha" : 1,
      "operation" : 1,
      "weights" : {

      },
      "fused_relu" : 0,
      "debug_info" : "Mul_209",
      "top" : "379",
      "type" : "elementwise",
      "name" : "Mul_209",
      "beta" : 0
    },
    {
      "weights" : {

      },
      "debug_info" : "Concat_210",
      "top" : "380",
      "type" : "concat",
      "name" : "Concat_210",
      "bottom" : "379,346"
    },
    {
      "pad_r" : 0,
      "fused_relu" : 0,
      "fused_tanh" : 0,
      "debug_info" : "Conv_211",
      "pad_fill_mode" : 0,
      "pad_b" : 0,
      "pad_l" : 0,
      "top" : "381",
      "K" : 128,
      "blob_biases" : 253,
      "name" : "Conv_211",
      "has_batch_norm" : 0,
      "type" : "convolution",
      "n_groups" : 1,
      "pad_t" : 0,
      "has_biases" : 1,
      "C" : 64,
      "bottom" : "380",
      "weights" : {

      },
      "Nx" : 1,
      "pad_mode" : 0,
      "pad_value" : 0,
      "Ny" : 1,
      "n_parallel" : 1,
      "blob_weights_f16" : 255
    },
    {
      "bottom" : "381",
      "weights" : {

      },
      "mode" : 3,
      "debug_info" : "Sigmoid_212",
      "top" : "382",
      "type" : "activation",
      "name" : "Sigmoid_212"
    },
    {
      "bottom" : "381,382",
      "alpha" : 1,
      "operation" : 1,
      "weights" : {

      },
      "fused_relu" : 0,
      "debug_info" : "Mul_213",
      "top" : "383",
      "type" : "elementwise",
      "name" : "Mul_213",
      "beta" : 0
    },
    {
      "pad_r" : 0,
      "fused_relu" : 0,
      "fused_tanh" : 0,
      "debug_info" : "Conv_214",
      "pad_fill_mode" : 0,
      "pad_b" : 0,
      "pad_l" : 0,
      "top" : "384",
      "K" : 64,
      "blob_biases" : 257,
      "name" : "Conv_214",
      "has_batch_norm" : 0,
      "type" : "convolution",
      "n_groups" : 1,
      "pad_t" : 0,
      "has_biases" : 1,
      "C" : 128,
      "bottom" : "383",
      "weights" : {

      },
      "Nx" : 1,
      "pad_mode" : 0,
      "pad_value" : 0,
      "Ny" : 1,
      "n_parallel" : 1,
      "blob_weights_f16" : 259
    },
    {
      "bottom" : "384",
      "weights" : {

      },
      "mode" : 3,
      "debug_info" : "Sigmoid_215",
      "top" : "385",
      "type" : "activation",
      "name" : "Sigmoid_215"
    },
    {
      "bottom" : "384,385",
      "alpha" : 1,
      "operation" : 1,
      "weights" : {

      },
      "fused_relu" : 0,
      "debug_info" : "Mul_216",
      "top" : "386",
      "type" : "elementwise",
      "name" : "Mul_216",
      "beta" : 0
    },
    {
      "pad_r" : 1,
      "fused_relu" : 0,
      "fused_tanh" : 0,
      "debug_info" : "Conv_217",
      "pad_fill_mode" : 0,
      "pad_b" : 1,
      "pad_l" : 1,
      "top" : "387",
      "K" : 128,
      "blob_biases" : 261,
      "name" : "Conv_217",
      "has_batch_norm" : 0,
      "type" : "convolution",
      "n_groups" : 128,
      "pad_t" : 1,
      "has_biases" : 1,
      "C" : 128,
      "bottom" : "386",
      "weights" : {

      },
      "Nx" : 3,
      "pad_mode" : 0,
      "pad_value" : 0,
      "Ny" : 3,
      "n_parallel" : 1,
      "blob_weights_f16" : 263
    },
    {
      "bottom" : "387",
      "weights" : {

      },
      "mode" : 3,
      "debug_info" : "Sigmoid_218",
      "top" : "388",
      "type" : "activation",
      "name" : "Sigmoid_218"
    },
    {
      "bottom" : "387,388",
      "alpha" : 1,
      "operation" : 1,
      "weights" : {

      },
      "fused_relu" : 0,
      "debug_info" : "Mul_219",
      "top" : "389",
      "type" : "elementwise",
      "name" : "Mul_219",
      "beta" : 0
    },
    {
      "pad_r" : 0,
      "fused_relu" : 0,
      "fused_tanh" : 0,
      "debug_info" : "Conv_220",
      "pad_fill_mode" : 0,
      "pad_b" : 0,
      "pad_l" : 0,
      "top" : "390",
      "K" : 128,
      "blob_biases" : 265,
      "name" : "Conv_220",
      "has_batch_norm" : 0,
      "type" : "convolution",
      "n_groups" : 1,
      "pad_t" : 0,
      "has_biases" : 1,
      "C" : 64,
      "bottom" : "389",
      "weights" : {

      },
      "Nx" : 1,
      "pad_mode" : 0,
      "pad_value" : 0,
      "Ny" : 1,
      "n_parallel" : 1,
      "blob_weights_f16" : 267
    },
    {
      "bottom" : "390",
      "weights" : {

      },
      "mode" : 3,
      "debug_info" : "Sigmoid_221",
      "top" : "391",
      "type" : "activation",
      "name" : "Sigmoid_221"
    },
    {
      "bottom" : "390,391",
      "alpha" : 1,
      "operation" : 1,
      "weights" : {

      },
      "fused_relu" : 0,
      "debug_info" : "Mul_222",
      "top" : "392",
      "type" : "elementwise",
      "name" : "Mul_222",
      "beta" : 0
    },
    {
      "pad_r" : 0,
      "fused_relu" : 0,
      "fused_tanh" : 0,
      "debug_info" : "Conv_223",
      "pad_fill_mode" : 0,
      "pad_b" : 0,
      "pad_l" : 0,
      "top" : "393",
      "K" : 128,
      "blob_biases" : 269,
      "name" : "Conv_223",
      "has_batch_norm" : 0,
      "type" : "convolution",
      "n_groups" : 1,
      "pad_t" : 0,
      "has_biases" : 1,
      "C" : 64,
      "bottom" : "380",
      "weights" : {

      },
      "Nx" : 1,
      "pad_mode" : 0,
      "pad_value" : 0,
      "Ny" : 1,
      "n_parallel" : 1,
      "blob_weights_f16" : 271
    },
    {
      "bottom" : "393",
      "weights" : {

      },
      "mode" : 3,
      "debug_info" : "Sigmoid_224",
      "top" : "394",
      "type" : "activation",
      "name" : "Sigmoid_224"
    },
    {
      "bottom" : "393,394",
      "alpha" : 1,
      "operation" : 1,
      "weights" : {

      },
      "fused_relu" : 0,
      "debug_info" : "Mul_225",
      "top" : "395",
      "type" : "elementwise",
      "name" : "Mul_225",
      "beta" : 0
    },
    {
      "weights" : {

      },
      "debug_info" : "Concat_226",
      "top" : "396",
      "type" : "concat",
      "name" : "Concat_226",
      "bottom" : "392,395"
    },
    {
      "pad_r" : 0,
      "fused_relu" : 0,
      "fused_tanh" : 0,
      "debug_info" : "Conv_227",
      "pad_fill_mode" : 0,
      "pad_b" : 0,
      "pad_l" : 0,
      "top" : "397",
      "K" : 128,
      "blob_biases" : 273,
      "name" : "Conv_227",
      "has_batch_norm" : 0,
      "type" : "convolution",
      "n_groups" : 1,
      "pad_t" : 0,
      "has_biases" : 1,
      "C" : 128,
      "bottom" : "396",
      "weights" : {

      },
      "Nx" : 1,
      "pad_mode" : 0,
      "pad_value" : 0,
      "Ny" : 1,
      "n_parallel" : 1,
      "blob_weights_f16" : 275
    },
    {
      "bottom" : "397",
      "weights" : {

      },
      "mode" : 3,
      "debug_info" : "Sigmoid_228",
      "top" : "398",
      "type" : "activation",
      "name" : "Sigmoid_228"
    },
    {
      "bottom" : "397,398",
      "alpha" : 1,
      "operation" : 1,
      "weights" : {

      },
      "fused_relu" : 0,
      "debug_info" : "Mul_229",
      "top" : "399",
      "type" : "elementwise",
      "name" : "Mul_229",
      "beta" : 0
    },
    {
      "pad_r" : 0,
      "fused_relu" : 0,
      "fused_tanh" : 0,
      "debug_info" : "Conv_230",
      "pad_fill_mode" : 0,
      "pad_b" : 0,
      "pad_l" : 0,
      "top" : "400",
      "K" : 128,
      "blob_biases" : 277,
      "name" : "Conv_230",
      "has_batch_norm" : 0,
      "type" : "convolution",
      "n_groups" : 1,
      "pad_t" : 0,
      "has_biases" : 1,
      "C" : 256,
      "bottom" : "399",
      "weights" : {

      },
      "Nx" : 1,
      "pad_mode" : 0,
      "pad_value" : 0,
      "Ny" : 1,
      "n_parallel" : 1,
      "blob_weights_f16" : 279
    },
    {
      "bottom" : "400",
      "weights" : {

      },
      "mode" : 3,
      "debug_info" : "Sigmoid_231",
      "top" : "401",
      "type" : "activation",
      "name" : "Sigmoid_231"
    },
    {
      "bottom" : "400,401",
      "alpha" : 1,
      "operation" : 1,
      "weights" : {

      },
      "fused_relu" : 0,
      "debug_info" : "Mul_232",
      "top" : "402",
      "type" : "elementwise",
      "name" : "Mul_232",
      "beta" : 0
    },
    {
      "pad_r" : 1,
      "fused_relu" : 0,
      "fused_tanh" : 0,
      "debug_info" : "Conv_233",
      "pad_fill_mode" : 0,
      "pad_b" : 1,
      "pad_l" : 1,
      "top" : "403",
      "K" : 256,
      "blob_biases" : 281,
      "stride_x" : 2,
      "name" : "Conv_233",
      "has_batch_norm" : 0,
      "type" : "convolution",
      "n_groups" : 256,
      "pad_t" : 1,
      "stride_y" : 2,
      "has_biases" : 1,
      "C" : 256,
      "bottom" : "402",
      "weights" : {

      },
      "Nx" : 3,
      "pad_mode" : 0,
      "pad_value" : 0,
      "Ny" : 3,
      "n_parallel" : 1,
      "blob_weights_f16" : 283
    },
    {
      "bottom" : "403",
      "weights" : {

      },
      "mode" : 3,
      "debug_info" : "Sigmoid_234",
      "top" : "404",
      "type" : "activation",
      "name" : "Sigmoid_234"
    },
    {
      "bottom" : "403,404",
      "alpha" : 1,
      "operation" : 1,
      "weights" : {

      },
      "fused_relu" : 0,
      "debug_info" : "Mul_235",
      "top" : "405",
      "type" : "elementwise",
      "name" : "Mul_235",
      "beta" : 0
    },
    {
      "pad_r" : 0,
      "fused_relu" : 0,
      "fused_tanh" : 0,
      "debug_info" : "Conv_236",
      "pad_fill_mode" : 0,
      "pad_b" : 0,
      "pad_l" : 0,
      "top" : "406",
      "K" : 256,
      "blob_biases" : 285,
      "name" : "Conv_236",
      "has_batch_norm" : 0,
      "type" : "convolution",
      "n_groups" : 1,
      "pad_t" : 0,
      "has_biases" : 1,
      "C" : 128,
      "bottom" : "405",
      "weights" : {

      },
      "Nx" : 1,
      "pad_mode" : 0,
      "pad_value" : 0,
      "Ny" : 1,
      "n_parallel" : 1,
      "blob_weights_f16" : 287
    },
    {
      "bottom" : "406",
      "weights" : {

      },
      "mode" : 3,
      "debug_info" : "Sigmoid_237",
      "top" : "407",
      "type" : "activation",
      "name" : "Sigmoid_237"
    },
    {
      "bottom" : "406,407",
      "alpha" : 1,
      "operation" : 1,
      "weights" : {

      },
      "fused_relu" : 0,
      "debug_info" : "Mul_238",
      "top" : "408",
      "type" : "elementwise",
      "name" : "Mul_238",
      "beta" : 0
    },
    {
      "weights" : {

      },
      "debug_info" : "Concat_239",
      "top" : "409",
      "type" : "concat",
      "name" : "Concat_239",
      "bottom" : "408,319"
    },
    {
      "pad_r" : 0,
      "fused_relu" : 0,
      "fused_tanh" : 0,
      "debug_info" : "Conv_240",
      "pad_fill_mode" : 0,
      "pad_b" : 0,
      "pad_l" : 0,
      "top" : "410",
      "K" : 256,
      "blob_biases" : 289,
      "name" : "Conv_240",
      "has_batch_norm" : 0,
      "type" : "convolution",
      "n_groups" : 1,
      "pad_t" : 0,
      "has_biases" : 1,
      "C" : 128,
      "bottom" : "409",
      "weights" : {

      },
      "Nx" : 1,
      "pad_mode" : 0,
      "pad_value" : 0,
      "Ny" : 1,
      "n_parallel" : 1,
      "blob_weights_f16" : 291
    },
    {
      "bottom" : "410",
      "weights" : {

      },
      "mode" : 3,
      "debug_info" : "Sigmoid_241",
      "top" : "411",
      "type" : "activation",
      "name" : "Sigmoid_241"
    },
    {
      "bottom" : "410,411",
      "alpha" : 1,
      "operation" : 1,
      "weights" : {

      },
      "fused_relu" : 0,
      "debug_info" : "Mul_242",
      "top" : "412",
      "type" : "elementwise",
      "name" : "Mul_242",
      "beta" : 0
    },
    {
      "pad_r" : 0,
      "fused_relu" : 0,
      "fused_tanh" : 0,
      "debug_info" : "Conv_243",
      "pad_fill_mode" : 0,
      "pad_b" : 0,
      "pad_l" : 0,
      "top" : "413",
      "K" : 128,
      "blob_biases" : 293,
      "name" : "Conv_243",
      "has_batch_norm" : 0,
      "type" : "convolution",
      "n_groups" : 1,
      "pad_t" : 0,
      "has_biases" : 1,
      "C" : 256,
      "bottom" : "412",
      "weights" : {

      },
      "Nx" : 1,
      "pad_mode" : 0,
      "pad_value" : 0,
      "Ny" : 1,
      "n_parallel" : 1,
      "blob_weights_f16" : 295
    },
    {
      "bottom" : "413",
      "weights" : {

      },
      "mode" : 3,
      "debug_info" : "Sigmoid_244",
      "top" : "414",
      "type" : "activation",
      "name" : "Sigmoid_244"
    },
    {
      "bottom" : "413,414",
      "alpha" : 1,
      "operation" : 1,
      "weights" : {

      },
      "fused_relu" : 0,
      "debug_info" : "Mul_245",
      "top" : "415",
      "type" : "elementwise",
      "name" : "Mul_245",
      "beta" : 0
    },
    {
      "pad_r" : 1,
      "fused_relu" : 0,
      "fused_tanh" : 0,
      "debug_info" : "Conv_246",
      "pad_fill_mode" : 0,
      "pad_b" : 1,
      "pad_l" : 1,
      "top" : "416",
      "K" : 256,
      "blob_biases" : 297,
      "name" : "Conv_246",
      "has_batch_norm" : 0,
      "type" : "convolution",
      "n_groups" : 256,
      "pad_t" : 1,
      "has_biases" : 1,
      "C" : 256,
      "bottom" : "415",
      "weights" : {

      },
      "Nx" : 3,
      "pad_mode" : 0,
      "pad_value" : 0,
      "Ny" : 3,
      "n_parallel" : 1,
      "blob_weights_f16" : 299
    },
    {
      "bottom" : "416",
      "weights" : {

      },
      "mode" : 3,
      "debug_info" : "Sigmoid_247",
      "top" : "417",
      "type" : "activation",
      "name" : "Sigmoid_247"
    },
    {
      "bottom" : "416,417",
      "alpha" : 1,
      "operation" : 1,
      "weights" : {

      },
      "fused_relu" : 0,
      "debug_info" : "Mul_248",
      "top" : "418",
      "type" : "elementwise",
      "name" : "Mul_248",
      "beta" : 0
    },
    {
      "pad_r" : 0,
      "fused_relu" : 0,
      "fused_tanh" : 0,
      "debug_info" : "Conv_249",
      "pad_fill_mode" : 0,
      "pad_b" : 0,
      "pad_l" : 0,
      "top" : "419",
      "K" : 256,
      "blob_biases" : 301,
      "name" : "Conv_249",
      "has_batch_norm" : 0,
      "type" : "convolution",
      "n_groups" : 1,
      "pad_t" : 0,
      "has_biases" : 1,
      "C" : 128,
      "bottom" : "418",
      "weights" : {

      },
      "Nx" : 1,
      "pad_mode" : 0,
      "pad_value" : 0,
      "Ny" : 1,
      "n_parallel" : 1,
      "blob_weights_f16" : 303
    },
    {
      "bottom" : "419",
      "weights" : {

      },
      "mode" : 3,
      "debug_info" : "Sigmoid_250",
      "top" : "420",
      "type" : "activation",
      "name" : "Sigmoid_250"
    },
    {
      "bottom" : "419,420",
      "alpha" : 1,
      "operation" : 1,
      "weights" : {

      },
      "fused_relu" : 0,
      "debug_info" : "Mul_251",
      "top" : "421",
      "type" : "elementwise",
      "name" : "Mul_251",
      "beta" : 0
    },
    {
      "pad_r" : 0,
      "fused_relu" : 0,
      "fused_tanh" : 0,
      "debug_info" : "Conv_252",
      "pad_fill_mode" : 0,
      "pad_b" : 0,
      "pad_l" : 0,
      "top" : "422",
      "K" : 256,
      "blob_biases" : 305,
      "name" : "Conv_252",
      "has_batch_norm" : 0,
      "type" : "convolution",
      "n_groups" : 1,
      "pad_t" : 0,
      "has_biases" : 1,
      "C" : 128,
      "bottom" : "409",
      "weights" : {

      },
      "Nx" : 1,
      "pad_mode" : 0,
      "pad_value" : 0,
      "Ny" : 1,
      "n_parallel" : 1,
      "blob_weights_f16" : 307
    },
    {
      "bottom" : "422",
      "weights" : {

      },
      "mode" : 3,
      "debug_info" : "Sigmoid_253",
      "top" : "423",
      "type" : "activation",
      "name" : "Sigmoid_253"
    },
    {
      "bottom" : "422,423",
      "alpha" : 1,
      "operation" : 1,
      "weights" : {

      },
      "fused_relu" : 0,
      "debug_info" : "Mul_254",
      "top" : "424",
      "type" : "elementwise",
      "name" : "Mul_254",
      "beta" : 0
    },
    {
      "weights" : {

      },
      "debug_info" : "Concat_255",
      "top" : "425",
      "type" : "concat",
      "name" : "Concat_255",
      "bottom" : "421,424"
    },
    {
      "pad_r" : 0,
      "fused_relu" : 0,
      "fused_tanh" : 0,
      "debug_info" : "Conv_256",
      "pad_fill_mode" : 0,
      "pad_b" : 0,
      "pad_l" : 0,
      "top" : "426",
      "K" : 256,
      "blob_biases" : 309,
      "name" : "Conv_256",
      "has_batch_norm" : 0,
      "type" : "convolution",
      "n_groups" : 1,
      "pad_t" : 0,
      "has_biases" : 1,
      "C" : 256,
      "bottom" : "425",
      "weights" : {

      },
      "Nx" : 1,
      "pad_mode" : 0,
      "pad_value" : 0,
      "Ny" : 1,
      "n_parallel" : 1,
      "blob_weights_f16" : 311
    },
    {
      "bottom" : "426",
      "weights" : {

      },
      "mode" : 3,
      "debug_info" : "Sigmoid_257",
      "top" : "427",
      "type" : "activation",
      "name" : "Sigmoid_257"
    },
    {
      "bottom" : "426,427",
      "alpha" : 1,
      "operation" : 1,
      "weights" : {

      },
      "fused_relu" : 0,
      "debug_info" : "Mul_258",
      "top" : "428",
      "type" : "elementwise",
      "name" : "Mul_258",
      "beta" : 0
    },
    {
      "pad_r" : 0,
      "fused_relu" : 0,
      "fused_tanh" : 0,
      "debug_info" : "Conv_259",
      "pad_fill_mode" : 0,
      "pad_b" : 0,
      "pad_l" : 0,
      "top" : "429",
      "K" : 64,
      "blob_biases" : 313,
      "name" : "Conv_259",
      "has_batch_norm" : 0,
      "type" : "convolution",
      "n_groups" : 1,
      "pad_t" : 0,
      "has_biases" : 1,
      "C" : 18,
      "bottom" : "370",
      "weights" : {

      },
      "Nx" : 1,
      "pad_mode" : 0,
      "pad_value" : 0,
      "Ny" : 1,
      "n_parallel" : 1,
      "blob_weights_f16" : 315
    },
    {
      "name" : "Reshape_260",
      "weights" : {

      },
      "dst_w" : 64,
      "version" : 1,
      "dst_n" : 0,
      "type" : "reshape",
      "dst_h" : 64,
      "mode" : 0,
      "bottom" : "429",
      "debug_info" : "Reshape_260",
      "dst_seq" : 3,
      "dst_k" : 6,
      "top" : "441"
    },
    {
      "axis_h" : 0,
      "axis_w" : 2,
      "bottom" : "441",
      "axis_k" : 1,
      "axis_n" : 3,
      "axis_seq" : 4,
      "weights" : {

      },
      "debug_info" : "Transpose_261",
      "top" : "442",
      "type" : "transpose",
      "name" : "Transpose_261"
    },
    {
      "bottom" : "442",
      "weights" : {

      },
      "mode" : 3,
      "debug_info" : "Sigmoid_296",
      "top" : "487",
      "type" : "activation",
      "name" : "Sigmoid_296"
    },
    {
      "axis_h" : 1,
      "axis_w" : 2,
      "bottom" : "487",
      "axis_k" : 0,
      "axis_n" : 3,
      "axis_seq" : 4,
      "weights" : {

      },
      "debug_info" : "Split_297_input_transpose0",
      "top" : "Split_297_487_transpose",
      "type" : "transpose",
      "name" : "Split_297_input_transpose0"
    },
    {
      "bottom" : "Split_297_487_transpose",
      "cut" : 0,
      "weights" : {

      },
      "debug_info" : "Split_297",
      "n_outputs" : 3,
      "top" : "488_transpose,489_transpose,490_transpose",
      "type" : "split",
      "name" : "Split_297"
    },
    {
      "axis_h" : 1,
      "axis_w" : 2,
      "bottom" : "488_transpose",
      "axis_k" : 0,
      "axis_n" : 3,
      "axis_seq" : 4,
      "weights" : {

      },
      "debug_info" : "Split_297_output_transpose0",
      "top" : "488",
      "type" : "transpose",
      "name" : "Split_297_output_transpose0"
    },
    {
      "axis_h" : 1,
      "axis_w" : 2,
      "bottom" : "489_transpose",
      "axis_k" : 0,
      "axis_n" : 3,
      "axis_seq" : 4,
      "weights" : {

      },
      "debug_info" : "Split_297_output_transpose1",
      "top" : "489",
      "type" : "transpose",
      "name" : "Split_297_output_transpose1"
    },
    {
      "axis_h" : 1,
      "axis_w" : 2,
      "bottom" : "490_transpose",
      "axis_k" : 0,
      "axis_n" : 3,
      "axis_seq" : 4,
      "weights" : {

      },
      "debug_info" : "Split_297_output_transpose2",
      "top" : "490",
      "type" : "transpose",
      "name" : "Split_297_output_transpose2"
    },
    {
      "bottom" : "",
      "k" : 1,
      "n" : 1,
      "weights" : {

      },
      "h" : 1,
      "debug_info" : "694",
      "constant_blob" : 317,
      "top" : "694",
      "w" : 1,
      "type" : "load_constant",
      "name" : "694"
    },
    {
      "bottom" : "488,694",
      "alpha" : 1,
      "operation" : 1,
      "weights" : {

      },
      "fused_relu" : 0,
      "debug_info" : "Mul_299",
      "top" : "492",
      "type" : "elementwise",
      "name" : "Mul_299",
      "beta" : 0
    },
    {
      "bottom" : "",
      "k" : 64,
      "n" : 1,
      "weights" : {

      },
      "h" : 64,
      "debug_info" : "480",
      "constant_blob" : 319,
      "top" : "480",
      "w" : 2,
      "type" : "load_constant",
      "name" : "480"
    },
    {
      "bottom" : "492,480",
      "alpha" : 1,
      "operation" : 0,
      "weights" : {

      },
      "fused_relu" : 0,
      "debug_info" : "Add_300",
      "top" : "493",
      "type" : "elementwise",
      "name" : "Add_300",
      "beta" : 0
    },
    {
      "bottom" : "",
      "k" : 1,
      "n" : 1,
      "weights" : {

      },
      "h" : 1,
      "debug_info" : "494",
      "constant_blob" : 321,
      "top" : "494",
      "w" : 1,
      "type" : "load_constant",
      "name" : "494"
    },
    {
      "bottom" : "493,494",
      "alpha" : 1,
      "operation" : 1,
      "weights" : {

      },
      "fused_relu" : 0,
      "debug_info" : "Mul_302",
      "top" : "495",
      "type" : "elementwise",
      "name" : "Mul_302",
      "beta" : 0
    },
    {
      "axis_h" : 4,
      "axis_w" : 0,
      "bottom" : "489",
      "axis_k" : 1,
      "axis_n" : 3,
      "axis_seq" : 2,
      "weights" : {

      },
      "debug_info" : "Transpose_303",
      "top" : "496",
      "type" : "transpose",
      "name" : "Transpose_303"
    },
    {
      "bottom" : "496,694",
      "alpha" : 1,
      "operation" : 1,
      "weights" : {

      },
      "fused_relu" : 0,
      "debug_info" : "Mul_305",
      "top" : "498",
      "type" : "elementwise",
      "name" : "Mul_305",
      "beta" : 0
    },
    {
      "bottom" : "498",
      "alpha" : 2,
      "operation" : 13,
      "weights" : {

      },
      "fused_relu" : 0,
      "debug_info" : "Pow_306",
      "top" : "501",
      "type" : "elementwise",
      "name" : "Pow_306",
      "beta" : 0
    },
    {
      "bottom" : "",
      "k" : 1,
      "n" : 1,
      "weights" : {

      },
      "h" : 3,
      "debug_info" : "693",
      "constant_blob" : 323,
      "top" : "693",
      "w" : 2,
      "type" : "load_constant",
      "name" : "693"
    },
    {
      "bottom" : "501,693",
      "alpha" : 1,
      "operation" : 1,
      "weights" : {

      },
      "fused_relu" : 0,
      "debug_info" : "Mul_307",
      "top" : "502",
      "type" : "elementwise",
      "name" : "Mul_307",
      "beta" : 0
    },
    {
      "axis_h" : 2,
      "axis_w" : 0,
      "bottom" : "502",
      "axis_k" : 4,
      "axis_n" : 3,
      "axis_seq" : 1,
      "weights" : {

      },
      "debug_info" : "Transpose_308",
      "top" : "503",
      "type" : "transpose",
      "name" : "Transpose_308"
    },
    {
      "axis_h" : 1,
      "axis_w" : 2,
      "bottom" : "495",
      "axis_k" : 0,
      "axis_n" : 3,
      "axis_seq" : 4,
      "weights" : {

      },
      "debug_info" : "Concat_309_input_transpose0",
      "top" : "Concat_309_495_transpose",
      "type" : "transpose",
      "name" : "Concat_309_input_transpose0"
    },
    {
      "axis_h" : 1,
      "axis_w" : 2,
      "bottom" : "503",
      "axis_k" : 0,
      "axis_n" : 3,
      "axis_seq" : 4,
      "weights" : {

      },
      "debug_info" : "Concat_309_input_transpose1",
      "top" : "Concat_309_503_transpose",
      "type" : "transpose",
      "name" : "Concat_309_input_transpose1"
    },
    {
      "axis_h" : 1,
      "axis_w" : 2,
      "bottom" : "490",
      "axis_k" : 0,
      "axis_n" : 3,
      "axis_seq" : 4,
      "weights" : {

      },
      "debug_info" : "Concat_309_input_transpose2",
      "top" : "Concat_309_490_transpose",
      "type" : "transpose",
      "name" : "Concat_309_input_transpose2"
    },
    {
      "weights" : {

      },
      "debug_info" : "Concat_309",
      "top" : "504_transpose",
      "type" : "concat",
      "name" : "Concat_309",
      "bottom" : "Concat_309_495_transpose,Concat_309_503_transpose,Concat_309_490_transpose"
    },
    {
      "axis_h" : 1,
      "axis_w" : 2,
      "bottom" : "504_transpose",
      "axis_k" : 0,
      "axis_n" : 3,
      "axis_seq" : 4,
      "weights" : {

      },
      "debug_info" : "Concat_309_output_transpose0",
      "top" : "504",
      "type" : "transpose",
      "name" : "Concat_309_output_transpose0"
    },
    {
      "name" : "Reshape_310",
      "weights" : {

      },
      "dst_w" : 6,
      "version" : 1,
      "dst_n" : 0,
      "type" : "reshape",
      "dst_h" : -1,
      "mode" : 0,
      "bottom" : "504",
      "debug_info" : "Reshape_310",
      "dst_seq" : 1,
      "dst_k" : 1,
      "top" : "511"
    },
    {
      "pad_r" : 0,
      "fused_relu" : 0,
      "fused_tanh" : 0,
      "debug_info" : "Conv_311",
      "pad_fill_mode" : 0,
      "pad_b" : 0,
      "pad_l" : 0,
      "top" : "512",
      "K" : 128,
      "blob_biases" : 325,
      "name" : "Conv_311",
      "has_batch_norm" : 0,
      "type" : "convolution",
      "n_groups" : 1,
      "pad_t" : 0,
      "has_biases" : 1,
      "C" : 18,
      "bottom" : "399",
      "weights" : {

      },
      "Nx" : 1,
      "pad_mode" : 0,
      "pad_value" : 0,
      "Ny" : 1,
      "n_parallel" : 1,
      "blob_weights_f16" : 327
    },
    {
      "name" : "Reshape_312",
      "weights" : {

      },
      "dst_w" : 32,
      "version" : 1,
      "dst_n" : 0,
      "type" : "reshape",
      "dst_h" : 32,
      "mode" : 0,
      "bottom" : "512",
      "debug_info" : "Reshape_312",
      "dst_seq" : 3,
      "dst_k" : 6,
      "top" : "524"
    },
    {
      "axis_h" : 0,
      "axis_w" : 2,
      "bottom" : "524",
      "axis_k" : 1,
      "axis_n" : 3,
      "axis_seq" : 4,
      "weights" : {

      },
      "debug_info" : "Transpose_313",
      "top" : "525",
      "type" : "transpose",
      "name" : "Transpose_313"
    },
    {
      "bottom" : "525",
      "weights" : {

      },
      "mode" : 3,
      "debug_info" : "Sigmoid_348",
      "top" : "570",
      "type" : "activation",
      "name" : "Sigmoid_348"
    },
    {
      "axis_h" : 1,
      "axis_w" : 2,
      "bottom" : "570",
      "axis_k" : 0,
      "axis_n" : 3,
      "axis_seq" : 4,
      "weights" : {

      },
      "debug_info" : "Split_349_input_transpose0",
      "top" : "Split_349_570_transpose",
      "type" : "transpose",
      "name" : "Split_349_input_transpose0"
    },
    {
      "bottom" : "Split_349_570_transpose",
      "cut" : 0,
      "weights" : {

      },
      "debug_info" : "Split_349",
      "n_outputs" : 3,
      "top" : "571_transpose,572_transpose,573_transpose",
      "type" : "split",
      "name" : "Split_349"
    },
    {
      "axis_h" : 1,
      "axis_w" : 2,
      "bottom" : "571_transpose",
      "axis_k" : 0,
      "axis_n" : 3,
      "axis_seq" : 4,
      "weights" : {

      },
      "debug_info" : "Split_349_output_transpose0",
      "top" : "571",
      "type" : "transpose",
      "name" : "Split_349_output_transpose0"
    },
    {
      "axis_h" : 1,
      "axis_w" : 2,
      "bottom" : "572_transpose",
      "axis_k" : 0,
      "axis_n" : 3,
      "axis_seq" : 4,
      "weights" : {

      },
      "debug_info" : "Split_349_output_transpose1",
      "top" : "572",
      "type" : "transpose",
      "name" : "Split_349_output_transpose1"
    },
    {
      "axis_h" : 1,
      "axis_w" : 2,
      "bottom" : "573_transpose",
      "axis_k" : 0,
      "axis_n" : 3,
      "axis_seq" : 4,
      "weights" : {

      },
      "debug_info" : "Split_349_output_transpose2",
      "top" : "573",
      "type" : "transpose",
      "name" : "Split_349_output_transpose2"
    },
    {
      "bottom" : "571,694",
      "alpha" : 1,
      "operation" : 1,
      "weights" : {

      },
      "fused_relu" : 0,
      "debug_info" : "Mul_351",
      "top" : "575",
      "type" : "elementwise",
      "name" : "Mul_351",
      "beta" : 0
    },
    {
      "bottom" : "",
      "k" : 32,
      "n" : 1,
      "weights" : {

      },
      "h" : 32,
      "debug_info" : "563",
      "constant_blob" : 329,
      "top" : "563",
      "w" : 2,
      "type" : "load_constant",
      "name" : "563"
    },
    {
      "bottom" : "575,563",
      "alpha" : 1,
      "operation" : 0,
      "weights" : {

      },
      "fused_relu" : 0,
      "debug_info" : "Add_352",
      "top" : "576",
      "type" : "elementwise",
      "name" : "Add_352",
      "beta" : 0
    },
    {
      "bottom" : "",
      "k" : 1,
      "n" : 1,
      "weights" : {

      },
      "h" : 1,
      "debug_info" : "577",
      "constant_blob" : 331,
      "top" : "577",
      "w" : 1,
      "type" : "load_constant",
      "name" : "577"
    },
    {
      "bottom" : "576,577",
      "alpha" : 1,
      "operation" : 1,
      "weights" : {

      },
      "fused_relu" : 0,
      "debug_info" : "Mul_354",
      "top" : "578",
      "type" : "elementwise",
      "name" : "Mul_354",
      "beta" : 0
    },
    {
      "axis_h" : 4,
      "axis_w" : 0,
      "bottom" : "572",
      "axis_k" : 1,
      "axis_n" : 3,
      "axis_seq" : 2,
      "weights" : {

      },
      "debug_info" : "Transpose_355",
      "top" : "579",
      "type" : "transpose",
      "name" : "Transpose_355"
    },
    {
      "bottom" : "579,694",
      "alpha" : 1,
      "operation" : 1,
      "weights" : {

      },
      "fused_relu" : 0,
      "debug_info" : "Mul_357",
      "top" : "581",
      "type" : "elementwise",
      "name" : "Mul_357",
      "beta" : 0
    },
    {
      "bottom" : "581",
      "alpha" : 2,
      "operation" : 13,
      "weights" : {

      },
      "fused_relu" : 0,
      "debug_info" : "Pow_358",
      "top" : "584",
      "type" : "elementwise",
      "name" : "Pow_358",
      "beta" : 0
    },
    {
      "bottom" : "",
      "k" : 1,
      "n" : 1,
      "weights" : {

      },
      "h" : 3,
      "debug_info" : "711",
      "constant_blob" : 333,
      "top" : "711",
      "w" : 2,
      "type" : "load_constant",
      "name" : "711"
    },
    {
      "bottom" : "584,711",
      "alpha" : 1,
      "operation" : 1,
      "weights" : {

      },
      "fused_relu" : 0,
      "debug_info" : "Mul_359",
      "top" : "585",
      "type" : "elementwise",
      "name" : "Mul_359",
      "beta" : 0
    },
    {
      "axis_h" : 2,
      "axis_w" : 0,
      "bottom" : "585",
      "axis_k" : 4,
      "axis_n" : 3,
      "axis_seq" : 1,
      "weights" : {

      },
      "debug_info" : "Transpose_360",
      "top" : "586",
      "type" : "transpose",
      "name" : "Transpose_360"
    },
    {
      "axis_h" : 1,
      "axis_w" : 2,
      "bottom" : "578",
      "axis_k" : 0,
      "axis_n" : 3,
      "axis_seq" : 4,
      "weights" : {

      },
      "debug_info" : "Concat_361_input_transpose0",
      "top" : "Concat_361_578_transpose",
      "type" : "transpose",
      "name" : "Concat_361_input_transpose0"
    },
    {
      "axis_h" : 1,
      "axis_w" : 2,
      "bottom" : "586",
      "axis_k" : 0,
      "axis_n" : 3,
      "axis_seq" : 4,
      "weights" : {

      },
      "debug_info" : "Concat_361_input_transpose1",
      "top" : "Concat_361_586_transpose",
      "type" : "transpose",
      "name" : "Concat_361_input_transpose1"
    },
    {
      "axis_h" : 1,
      "axis_w" : 2,
      "bottom" : "573",
      "axis_k" : 0,
      "axis_n" : 3,
      "axis_seq" : 4,
      "weights" : {

      },
      "debug_info" : "Concat_361_input_transpose2",
      "top" : "Concat_361_573_transpose",
      "type" : "transpose",
      "name" : "Concat_361_input_transpose2"
    },
    {
      "weights" : {

      },
      "debug_info" : "Concat_361",
      "top" : "587_transpose",
      "type" : "concat",
      "name" : "Concat_361",
      "bottom" : "Concat_361_578_transpose,Concat_361_586_transpose,Concat_361_573_transpose"
    },
    {
      "axis_h" : 1,
      "axis_w" : 2,
      "bottom" : "587_transpose",
      "axis_k" : 0,
      "axis_n" : 3,
      "axis_seq" : 4,
      "weights" : {

      },
      "debug_info" : "Concat_361_output_transpose0",
      "top" : "587",
      "type" : "transpose",
      "name" : "Concat_361_output_transpose0"
    },
    {
      "name" : "Reshape_362",
      "weights" : {

      },
      "dst_w" : 6,
      "version" : 1,
      "dst_n" : 0,
      "type" : "reshape",
      "dst_h" : -1,
      "mode" : 0,
      "bottom" : "587",
      "debug_info" : "Reshape_362",
      "dst_seq" : 1,
      "dst_k" : 1,
      "top" : "594"
    },
    {
      "pad_r" : 0,
      "fused_relu" : 0,
      "fused_tanh" : 0,
      "debug_info" : "Conv_363",
      "pad_fill_mode" : 0,
      "pad_b" : 0,
      "pad_l" : 0,
      "top" : "595",
      "K" : 256,
      "blob_biases" : 335,
      "name" : "Conv_363",
      "has_batch_norm" : 0,
      "type" : "convolution",
      "n_groups" : 1,
      "pad_t" : 0,
      "has_biases" : 1,
      "C" : 18,
      "bottom" : "428",
      "weights" : {

      },
      "Nx" : 1,
      "pad_mode" : 0,
      "pad_value" : 0,
      "Ny" : 1,
      "n_parallel" : 1,
      "blob_weights_f16" : 337
    },
    {
      "name" : "Reshape_364",
      "weights" : {

      },
      "dst_w" : 16,
      "version" : 1,
      "dst_n" : 0,
      "type" : "reshape",
      "dst_h" : 16,
      "mode" : 0,
      "bottom" : "595",
      "debug_info" : "Reshape_364",
      "dst_seq" : 3,
      "dst_k" : 6,
      "top" : "607"
    },
    {
      "axis_h" : 0,
      "axis_w" : 2,
      "bottom" : "607",
      "axis_k" : 1,
      "axis_n" : 3,
      "axis_seq" : 4,
      "weights" : {

      },
      "debug_info" : "Transpose_365",
      "top" : "608",
      "type" : "transpose",
      "name" : "Transpose_365"
    },
    {
      "bottom" : "608",
      "weights" : {

      },
      "mode" : 3,
      "debug_info" : "Sigmoid_400",
      "top" : "653",
      "type" : "activation",
      "name" : "Sigmoid_400"
    },
    {
      "axis_h" : 1,
      "axis_w" : 2,
      "bottom" : "653",
      "axis_k" : 0,
      "axis_n" : 3,
      "axis_seq" : 4,
      "weights" : {

      },
      "debug_info" : "Split_401_input_transpose0",
      "top" : "Split_401_653_transpose",
      "type" : "transpose",
      "name" : "Split_401_input_transpose0"
    },
    {
      "bottom" : "Split_401_653_transpose",
      "cut" : 0,
      "weights" : {

      },
      "debug_info" : "Split_401",
      "n_outputs" : 3,
      "top" : "654_transpose,655_transpose,656_transpose",
      "type" : "split",
      "name" : "Split_401"
    },
    {
      "axis_h" : 1,
      "axis_w" : 2,
      "bottom" : "654_transpose",
      "axis_k" : 0,
      "axis_n" : 3,
      "axis_seq" : 4,
      "weights" : {

      },
      "debug_info" : "Split_401_output_transpose0",
      "top" : "654",
      "type" : "transpose",
      "name" : "Split_401_output_transpose0"
    },
    {
      "axis_h" : 1,
      "axis_w" : 2,
      "bottom" : "655_transpose",
      "axis_k" : 0,
      "axis_n" : 3,
      "axis_seq" : 4,
      "weights" : {

      },
      "debug_info" : "Split_401_output_transpose1",
      "top" : "655",
      "type" : "transpose",
      "name" : "Split_401_output_transpose1"
    },
    {
      "axis_h" : 1,
      "axis_w" : 2,
      "bottom" : "656_transpose",
      "axis_k" : 0,
      "axis_n" : 3,
      "axis_seq" : 4,
      "weights" : {

      },
      "debug_info" : "Split_401_output_transpose2",
      "top" : "656",
      "type" : "transpose",
      "name" : "Split_401_output_transpose2"
    },
    {
      "bottom" : "654,694",
      "alpha" : 1,
      "operation" : 1,
      "weights" : {

      },
      "fused_relu" : 0,
      "debug_info" : "Mul_403",
      "top" : "658",
      "type" : "elementwise",
      "name" : "Mul_403",
      "beta" : 0
    },
    {
      "bottom" : "",
      "k" : 16,
      "n" : 1,
      "weights" : {

      },
      "h" : 16,
      "debug_info" : "646",
      "constant_blob" : 339,
      "top" : "646",
      "w" : 2,
      "type" : "load_constant",
      "name" : "646"
    },
    {
      "bottom" : "658,646",
      "alpha" : 1,
      "operation" : 0,
      "weights" : {

      },
      "fused_relu" : 0,
      "debug_info" : "Add_404",
      "top" : "659",
      "type" : "elementwise",
      "name" : "Add_404",
      "beta" : 0
    },
    {
      "bottom" : "",
      "k" : 1,
      "n" : 1,
      "weights" : {

      },
      "h" : 1,
      "debug_info" : "660",
      "constant_blob" : 341,
      "top" : "660",
      "w" : 1,
      "type" : "load_constant",
      "name" : "660"
    },
    {
      "bottom" : "659,660",
      "alpha" : 1,
      "operation" : 1,
      "weights" : {

      },
      "fused_relu" : 0,
      "debug_info" : "Mul_406",
      "top" : "661",
      "type" : "elementwise",
      "name" : "Mul_406",
      "beta" : 0
    },
    {
      "axis_h" : 4,
      "axis_w" : 0,
      "bottom" : "655",
      "axis_k" : 1,
      "axis_n" : 3,
      "axis_seq" : 2,
      "weights" : {

      },
      "debug_info" : "Transpose_407",
      "top" : "662",
      "type" : "transpose",
      "name" : "Transpose_407"
    },
    {
      "bottom" : "662,694",
      "alpha" : 1,
      "operation" : 1,
      "weights" : {

      },
      "fused_relu" : 0,
      "debug_info" : "Mul_409",
      "top" : "664",
      "type" : "elementwise",
      "name" : "Mul_409",
      "beta" : 0
    },
    {
      "bottom" : "664",
      "alpha" : 2,
      "operation" : 13,
      "weights" : {

      },
      "fused_relu" : 0,
      "debug_info" : "Pow_410",
      "top" : "667",
      "type" : "elementwise",
      "name" : "Pow_410",
      "beta" : 0
    },
    {
      "bottom" : "",
      "k" : 1,
      "n" : 1,
      "weights" : {

      },
      "h" : 3,
      "debug_info" : "729",
      "constant_blob" : 343,
      "top" : "729",
      "w" : 2,
      "type" : "load_constant",
      "name" : "729"
    },
    {
      "bottom" : "667,729",
      "alpha" : 1,
      "operation" : 1,
      "weights" : {

      },
      "fused_relu" : 0,
      "debug_info" : "Mul_411",
      "top" : "668",
      "type" : "elementwise",
      "name" : "Mul_411",
      "beta" : 0
    },
    {
      "axis_h" : 2,
      "axis_w" : 0,
      "bottom" : "668",
      "axis_k" : 4,
      "axis_n" : 3,
      "axis_seq" : 1,
      "weights" : {

      },
      "debug_info" : "Transpose_412",
      "top" : "669",
      "type" : "transpose",
      "name" : "Transpose_412"
    },
    {
      "axis_h" : 1,
      "axis_w" : 2,
      "bottom" : "661",
      "axis_k" : 0,
      "axis_n" : 3,
      "axis_seq" : 4,
      "weights" : {

      },
      "debug_info" : "Concat_413_input_transpose0",
      "top" : "Concat_413_661_transpose",
      "type" : "transpose",
      "name" : "Concat_413_input_transpose0"
    },
    {
      "axis_h" : 1,
      "axis_w" : 2,
      "bottom" : "669",
      "axis_k" : 0,
      "axis_n" : 3,
      "axis_seq" : 4,
      "weights" : {

      },
      "debug_info" : "Concat_413_input_transpose1",
      "top" : "Concat_413_669_transpose",
      "type" : "transpose",
      "name" : "Concat_413_input_transpose1"
    },
    {
      "axis_h" : 1,
      "axis_w" : 2,
      "bottom" : "656",
      "axis_k" : 0,
      "axis_n" : 3,
      "axis_seq" : 4,
      "weights" : {

      },
      "debug_info" : "Concat_413_input_transpose2",
      "top" : "Concat_413_656_transpose",
      "type" : "transpose",
      "name" : "Concat_413_input_transpose2"
    },
    {
      "weights" : {

      },
      "debug_info" : "Concat_413",
      "top" : "670_transpose",
      "type" : "concat",
      "name" : "Concat_413",
      "bottom" : "Concat_413_661_transpose,Concat_413_669_transpose,Concat_413_656_transpose"
    },
    {
      "axis_h" : 1,
      "axis_w" : 2,
      "bottom" : "670_transpose",
      "axis_k" : 0,
      "axis_n" : 3,
      "axis_seq" : 4,
      "weights" : {

      },
      "debug_info" : "Concat_413_output_transpose0",
      "top" : "670",
      "type" : "transpose",
      "name" : "Concat_413_output_transpose0"
    },
    {
      "name" : "Reshape_414",
      "weights" : {

      },
      "dst_w" : 6,
      "version" : 1,
      "dst_n" : 0,
      "type" : "reshape",
      "dst_h" : -1,
      "mode" : 0,
      "bottom" : "670",
      "debug_info" : "Reshape_414",
      "dst_seq" : 1,
      "dst_k" : 1,
      "top" : "677"
    },
    {
      "axis_seq" : 4,
      "top" : "Concat_415_511_transpose",
      "name" : "Concat_415_input_transpose0",
      "axis_n" : 3,
      "axis_h" : 2,
      "type" : "transpose",
      "bottom" : "511",
      "axis_w" : 0,
      "axis_k" : 1,
      "hint_fallback_from_metal" : 1,
      "debug_info" : "Concat_415_input_transpose0",
      "weights" : {

      }
    },
    {
      "axis_h" : 2,
      "axis_w" : 0,
      "bottom" : "594",
      "axis_k" : 1,
      "axis_n" : 3,
      "axis_seq" : 4,
      "weights" : {

      },
      "debug_info" : "Concat_415_input_transpose1",
      "top" : "Concat_415_594_transpose",
      "type" : "transpose",
      "name" : "Concat_415_input_transpose1"
    },
    {
      "axis_h" : 2,
      "axis_w" : 0,
      "bottom" : "677",
      "axis_k" : 1,
      "axis_n" : 3,
      "axis_seq" : 4,
      "weights" : {

      },
      "debug_info" : "Concat_415_input_transpose2",
      "top" : "Concat_415_677_transpose",
      "type" : "transpose",
      "name" : "Concat_415_input_transpose2"
    },
    {
      "bottom" : "Concat_415_511_transpose,Concat_415_594_transpose,Concat_415_677_transpose",
      "weights" : {

      },
      "hint_fallback_from_metal" : 1,
      "debug_info" : "Concat_415",
      "top" : "output_transpose",
      "type" : "concat",
      "name" : "Concat_415"
    },
    {
      "axis_seq" : 4,
      "name" : "Concat_415_output_transpose0",
      "weights" : {

      },
      "axis_n" : 3,
      "axis_h" : 2,
      "type" : "transpose",
      "attributes" : {
        "is_output" : 1
      },
      "bottom" : "output_transpose",
      "axis_w" : 0,
      "axis_k" : 1,
      "hint_fallback_from_metal" : 1,
      "debug_info" : "Concat_415_output_transpose0",
      "top" : "output"
    }
  ]
}