{
  "storage" : "model.espresso.weights",
  "analyses" : {

  },
  "properties" : {

  },
  "format_version" : 200,
  "metadata_in_weights" : [

  ],
  "layers" : [
    {
      "pad_r" : 0,
      "fused_relu" : 1,
      "fused_tanh" : 0,
      "debug_info" : "model\/bn_Conv1\/FusedBatchNormV3_nchw",
      "pad_fill_mode" : 0,
      "pad_b" : 0,
      "pad_l" : 0,
      "top" : "model\/Conv1_relu\/Relu6__relu6_relu__",
      "K" : 4,
      "blob_biases" : 1,
      "stride_x" : 2,
      "name" : "model\/bn_Conv1\/FusedBatchNormV3_nchw",
      "has_batch_norm" : 0,
      "type" : "convolution",
      "n_groups" : 1,
      "pad_t" : 0,
      "stride_y" : 2,
      "has_biases" : 1,
      "C" : 32,
      "bottom" : "input1",
      "weights" : {

      },
      "Nx" : 3,
      "pad_mode" : 1,
      "pad_value" : 0,
      "Ny" : 3,
      "n_parallel" : 1,
      "blob_weights_f16" : 3
    },
    {
      "alpha" : -1,
      "bottom" : "model\/Conv1_relu\/Relu6__relu6_relu__",
      "weights" : {

      },
      "mode" : 6,
      "debug_info" : "model\/Conv1_relu\/Relu6__relu6_neg__",
      "top" : "model\/Conv1_relu\/Relu6__relu6_neg__",
      "type" : "activation",
      "name" : "model\/Conv1_relu\/Relu6__relu6_neg__",
      "beta" : 0
    },
    {
      "bottom" : "model\/Conv1_relu\/Relu6__relu6_neg__",
      "alpha" : -6,
      "operation" : 25,
      "weights" : {

      },
      "fused_relu" : 0,
      "debug_info" : "model\/Conv1_relu\/Relu6__relu6_threshold6__",
      "top" : "model\/Conv1_relu\/Relu6__relu6_threshold6__",
      "type" : "elementwise",
      "name" : "model\/Conv1_relu\/Relu6__relu6_threshold6__",
      "beta" : 0
    },
    {
      "alpha" : -1,
      "bottom" : "model\/Conv1_relu\/Relu6__relu6_threshold6__",
      "weights" : {

      },
      "mode" : 6,
      "debug_info" : "model\/Conv1_relu\/Relu6",
      "top" : "model\/Conv1_relu\/Relu6",
      "type" : "activation",
      "name" : "model\/Conv1_relu\/Relu6",
      "beta" : 0
    },
    {
      "pad_r" : 0,
      "fused_relu" : 1,
      "fused_tanh" : 0,
      "debug_info" : "model\/expanded_conv_depthwise_BN\/FusedBatchNormV3_nchw",
      "pad_fill_mode" : 0,
      "pad_b" : 0,
      "pad_l" : 0,
      "top" : "model\/expanded_conv_depthwise_relu\/Relu6__relu6_relu__",
      "K" : 32,
      "blob_biases" : 5,
      "name" : "model\/expanded_conv_depthwise_BN\/FusedBatchNormV3_nchw",
      "has_batch_norm" : 0,
      "type" : "convolution",
      "n_groups" : 32,
      "pad_t" : 0,
      "has_biases" : 1,
      "C" : 32,
      "bottom" : "model\/Conv1_relu\/Relu6",
      "weights" : {

      },
      "Nx" : 3,
      "pad_mode" : 1,
      "pad_value" : 0,
      "Ny" : 3,
      "n_parallel" : 1,
      "blob_weights_f16" : 7
    },
    {
      "alpha" : -1,
      "bottom" : "model\/expanded_conv_depthwise_relu\/Relu6__relu6_relu__",
      "weights" : {

      },
      "mode" : 6,
      "debug_info" : "model\/expanded_conv_depthwise_relu\/Relu6__relu6_neg__",
      "top" : "model\/expanded_conv_depthwise_relu\/Relu6__relu6_neg__",
      "type" : "activation",
      "name" : "model\/expanded_conv_depthwise_relu\/Relu6__relu6_neg__",
      "beta" : 0
    },
    {
      "bottom" : "model\/expanded_conv_depthwise_relu\/Relu6__relu6_neg__",
      "alpha" : -6,
      "operation" : 25,
      "weights" : {

      },
      "fused_relu" : 0,
      "debug_info" : "model\/expanded_conv_depthwise_relu\/Relu6__relu6_threshold6__",
      "top" : "model\/expanded_conv_depthwise_relu\/Relu6__relu6_threshold6__",
      "type" : "elementwise",
      "name" : "model\/expanded_conv_depthwise_relu\/Relu6__relu6_threshold6__",
      "beta" : 0
    },
    {
      "alpha" : -1,
      "bottom" : "model\/expanded_conv_depthwise_relu\/Relu6__relu6_threshold6__",
      "weights" : {

      },
      "mode" : 6,
      "debug_info" : "model\/expanded_conv_depthwise_relu\/Relu6",
      "top" : "model\/expanded_conv_depthwise_relu\/Relu6",
      "type" : "activation",
      "name" : "model\/expanded_conv_depthwise_relu\/Relu6",
      "beta" : 0
    },
    {
      "pad_r" : 0,
      "fused_relu" : 0,
      "fused_tanh" : 0,
      "debug_info" : "model\/expanded_conv_project_BN\/FusedBatchNormV3_nchw",
      "pad_fill_mode" : 0,
      "pad_b" : 0,
      "pad_l" : 0,
      "top" : "model\/expanded_conv_project_BN\/FusedBatchNormV3_nchw",
      "K" : 32,
      "blob_biases" : 9,
      "name" : "model\/expanded_conv_project_BN\/FusedBatchNormV3_nchw",
      "has_batch_norm" : 0,
      "type" : "convolution",
      "n_groups" : 1,
      "pad_t" : 0,
      "has_biases" : 1,
      "C" : 16,
      "bottom" : "model\/expanded_conv_depthwise_relu\/Relu6",
      "weights" : {

      },
      "Nx" : 1,
      "pad_mode" : 1,
      "pad_value" : 0,
      "Ny" : 1,
      "n_parallel" : 1,
      "blob_weights_f16" : 11
    },
    {
      "pad_r" : 0,
      "fused_relu" : 1,
      "fused_tanh" : 0,
      "debug_info" : "model\/block_1_expand_BN\/FusedBatchNormV3_nchw",
      "pad_fill_mode" : 0,
      "pad_b" : 0,
      "pad_l" : 0,
      "top" : "model\/block_1_expand_relu\/Relu6__relu6_relu__",
      "K" : 16,
      "blob_biases" : 13,
      "name" : "model\/block_1_expand_BN\/FusedBatchNormV3_nchw",
      "has_batch_norm" : 0,
      "type" : "convolution",
      "n_groups" : 1,
      "pad_t" : 0,
      "has_biases" : 1,
      "C" : 96,
      "bottom" : "model\/expanded_conv_project_BN\/FusedBatchNormV3_nchw",
      "weights" : {

      },
      "Nx" : 1,
      "pad_mode" : 1,
      "pad_value" : 0,
      "Ny" : 1,
      "n_parallel" : 1,
      "blob_weights_f16" : 15
    },
    {
      "alpha" : -1,
      "bottom" : "model\/block_1_expand_relu\/Relu6__relu6_relu__",
      "weights" : {

      },
      "mode" : 6,
      "debug_info" : "model\/block_1_expand_relu\/Relu6__relu6_neg__",
      "top" : "model\/block_1_expand_relu\/Relu6__relu6_neg__",
      "type" : "activation",
      "name" : "model\/block_1_expand_relu\/Relu6__relu6_neg__",
      "beta" : 0
    },
    {
      "bottom" : "model\/block_1_expand_relu\/Relu6__relu6_neg__",
      "alpha" : -6,
      "operation" : 25,
      "weights" : {

      },
      "fused_relu" : 0,
      "debug_info" : "model\/block_1_expand_relu\/Relu6__relu6_threshold6__",
      "top" : "model\/block_1_expand_relu\/Relu6__relu6_threshold6__",
      "type" : "elementwise",
      "name" : "model\/block_1_expand_relu\/Relu6__relu6_threshold6__",
      "beta" : 0
    },
    {
      "alpha" : -1,
      "bottom" : "model\/block_1_expand_relu\/Relu6__relu6_threshold6__",
      "weights" : {

      },
      "mode" : 6,
      "debug_info" : "model\/block_1_expand_relu\/Relu6",
      "top" : "model\/block_1_expand_relu\/Relu6",
      "type" : "activation",
      "name" : "model\/block_1_expand_relu\/Relu6",
      "beta" : 0
    },
    {
      "pad_r" : 1,
      "fused_relu" : 1,
      "fused_tanh" : 0,
      "debug_info" : "model\/block_1_depthwise_BN\/FusedBatchNormV3_nchw",
      "pad_fill_mode" : 0,
      "pad_b" : 1,
      "pad_l" : 0,
      "top" : "model\/block_1_depthwise_relu\/Relu6__relu6_relu__",
      "K" : 96,
      "blob_biases" : 17,
      "stride_x" : 2,
      "name" : "model\/block_1_depthwise_BN\/FusedBatchNormV3_nchw",
      "has_batch_norm" : 0,
      "type" : "convolution",
      "n_groups" : 96,
      "pad_t" : 0,
      "stride_y" : 2,
      "has_biases" : 1,
      "C" : 96,
      "bottom" : "model\/block_1_expand_relu\/Relu6",
      "weights" : {

      },
      "Nx" : 3,
      "pad_mode" : 0,
      "pad_value" : 0,
      "Ny" : 3,
      "n_parallel" : 1,
      "blob_weights_f16" : 19
    },
    {
      "alpha" : -1,
      "bottom" : "model\/block_1_depthwise_relu\/Relu6__relu6_relu__",
      "weights" : {

      },
      "mode" : 6,
      "debug_info" : "model\/block_1_depthwise_relu\/Relu6__relu6_neg__",
      "top" : "model\/block_1_depthwise_relu\/Relu6__relu6_neg__",
      "type" : "activation",
      "name" : "model\/block_1_depthwise_relu\/Relu6__relu6_neg__",
      "beta" : 0
    },
    {
      "bottom" : "model\/block_1_depthwise_relu\/Relu6__relu6_neg__",
      "alpha" : -6,
      "operation" : 25,
      "weights" : {

      },
      "fused_relu" : 0,
      "debug_info" : "model\/block_1_depthwise_relu\/Relu6__relu6_threshold6__",
      "top" : "model\/block_1_depthwise_relu\/Relu6__relu6_threshold6__",
      "type" : "elementwise",
      "name" : "model\/block_1_depthwise_relu\/Relu6__relu6_threshold6__",
      "beta" : 0
    },
    {
      "alpha" : -1,
      "bottom" : "model\/block_1_depthwise_relu\/Relu6__relu6_threshold6__",
      "weights" : {

      },
      "mode" : 6,
      "debug_info" : "model\/block_1_depthwise_relu\/Relu6",
      "top" : "model\/block_1_depthwise_relu\/Relu6",
      "type" : "activation",
      "name" : "model\/block_1_depthwise_relu\/Relu6",
      "beta" : 0
    },
    {
      "pad_r" : 0,
      "fused_relu" : 0,
      "fused_tanh" : 0,
      "debug_info" : "model\/block_1_project_BN\/FusedBatchNormV3_nchw",
      "pad_fill_mode" : 0,
      "pad_b" : 0,
      "pad_l" : 0,
      "top" : "model\/block_1_project_BN\/FusedBatchNormV3_nchw",
      "K" : 96,
      "blob_biases" : 21,
      "name" : "model\/block_1_project_BN\/FusedBatchNormV3_nchw",
      "has_batch_norm" : 0,
      "type" : "convolution",
      "n_groups" : 1,
      "pad_t" : 0,
      "has_biases" : 1,
      "C" : 24,
      "bottom" : "model\/block_1_depthwise_relu\/Relu6",
      "weights" : {

      },
      "Nx" : 1,
      "pad_mode" : 1,
      "pad_value" : 0,
      "Ny" : 1,
      "n_parallel" : 1,
      "blob_weights_f16" : 23
    },
    {
      "pad_r" : 0,
      "fused_relu" : 1,
      "fused_tanh" : 0,
      "debug_info" : "model\/block_2_expand_BN\/FusedBatchNormV3_nchw",
      "pad_fill_mode" : 0,
      "pad_b" : 0,
      "pad_l" : 0,
      "top" : "model\/block_2_expand_relu\/Relu6__relu6_relu__",
      "K" : 24,
      "blob_biases" : 25,
      "name" : "model\/block_2_expand_BN\/FusedBatchNormV3_nchw",
      "has_batch_norm" : 0,
      "type" : "convolution",
      "n_groups" : 1,
      "pad_t" : 0,
      "has_biases" : 1,
      "C" : 144,
      "bottom" : "model\/block_1_project_BN\/FusedBatchNormV3_nchw",
      "weights" : {

      },
      "Nx" : 1,
      "pad_mode" : 1,
      "pad_value" : 0,
      "Ny" : 1,
      "n_parallel" : 1,
      "blob_weights_f16" : 27
    },
    {
      "alpha" : -1,
      "bottom" : "model\/block_2_expand_relu\/Relu6__relu6_relu__",
      "weights" : {

      },
      "mode" : 6,
      "debug_info" : "model\/block_2_expand_relu\/Relu6__relu6_neg__",
      "top" : "model\/block_2_expand_relu\/Relu6__relu6_neg__",
      "type" : "activation",
      "name" : "model\/block_2_expand_relu\/Relu6__relu6_neg__",
      "beta" : 0
    },
    {
      "bottom" : "model\/block_2_expand_relu\/Relu6__relu6_neg__",
      "alpha" : -6,
      "operation" : 25,
      "weights" : {

      },
      "fused_relu" : 0,
      "debug_info" : "model\/block_2_expand_relu\/Relu6__relu6_threshold6__",
      "top" : "model\/block_2_expand_relu\/Relu6__relu6_threshold6__",
      "type" : "elementwise",
      "name" : "model\/block_2_expand_relu\/Relu6__relu6_threshold6__",
      "beta" : 0
    },
    {
      "alpha" : -1,
      "bottom" : "model\/block_2_expand_relu\/Relu6__relu6_threshold6__",
      "weights" : {

      },
      "mode" : 6,
      "debug_info" : "model\/block_2_expand_relu\/Relu6",
      "top" : "model\/block_2_expand_relu\/Relu6",
      "type" : "activation",
      "name" : "model\/block_2_expand_relu\/Relu6",
      "beta" : 0
    },
    {
      "pad_r" : 0,
      "fused_relu" : 1,
      "fused_tanh" : 0,
      "debug_info" : "model\/block_2_depthwise_BN\/FusedBatchNormV3_nchw",
      "pad_fill_mode" : 0,
      "pad_b" : 0,
      "pad_l" : 0,
      "top" : "model\/block_2_depthwise_relu\/Relu6__relu6_relu__",
      "K" : 144,
      "blob_biases" : 29,
      "name" : "model\/block_2_depthwise_BN\/FusedBatchNormV3_nchw",
      "has_batch_norm" : 0,
      "type" : "convolution",
      "n_groups" : 144,
      "pad_t" : 0,
      "has_biases" : 1,
      "C" : 144,
      "bottom" : "model\/block_2_expand_relu\/Relu6",
      "weights" : {

      },
      "Nx" : 3,
      "pad_mode" : 1,
      "pad_value" : 0,
      "Ny" : 3,
      "n_parallel" : 1,
      "blob_weights_f16" : 31
    },
    {
      "alpha" : -1,
      "bottom" : "model\/block_2_depthwise_relu\/Relu6__relu6_relu__",
      "weights" : {

      },
      "mode" : 6,
      "debug_info" : "model\/block_2_depthwise_relu\/Relu6__relu6_neg__",
      "top" : "model\/block_2_depthwise_relu\/Relu6__relu6_neg__",
      "type" : "activation",
      "name" : "model\/block_2_depthwise_relu\/Relu6__relu6_neg__",
      "beta" : 0
    },
    {
      "bottom" : "model\/block_2_depthwise_relu\/Relu6__relu6_neg__",
      "alpha" : -6,
      "operation" : 25,
      "weights" : {

      },
      "fused_relu" : 0,
      "debug_info" : "model\/block_2_depthwise_relu\/Relu6__relu6_threshold6__",
      "top" : "model\/block_2_depthwise_relu\/Relu6__relu6_threshold6__",
      "type" : "elementwise",
      "name" : "model\/block_2_depthwise_relu\/Relu6__relu6_threshold6__",
      "beta" : 0
    },
    {
      "alpha" : -1,
      "bottom" : "model\/block_2_depthwise_relu\/Relu6__relu6_threshold6__",
      "weights" : {

      },
      "mode" : 6,
      "debug_info" : "model\/block_2_depthwise_relu\/Relu6",
      "top" : "model\/block_2_depthwise_relu\/Relu6",
      "type" : "activation",
      "name" : "model\/block_2_depthwise_relu\/Relu6",
      "beta" : 0
    },
    {
      "pad_r" : 0,
      "fused_relu" : 0,
      "fused_tanh" : 0,
      "debug_info" : "model\/block_2_project_BN\/FusedBatchNormV3_nchw",
      "pad_fill_mode" : 0,
      "pad_b" : 0,
      "pad_l" : 0,
      "top" : "model\/block_2_project_BN\/FusedBatchNormV3_nchw",
      "K" : 144,
      "blob_biases" : 33,
      "name" : "model\/block_2_project_BN\/FusedBatchNormV3_nchw",
      "has_batch_norm" : 0,
      "type" : "convolution",
      "n_groups" : 1,
      "pad_t" : 0,
      "has_biases" : 1,
      "C" : 24,
      "bottom" : "model\/block_2_depthwise_relu\/Relu6",
      "weights" : {

      },
      "Nx" : 1,
      "pad_mode" : 1,
      "pad_value" : 0,
      "Ny" : 1,
      "n_parallel" : 1,
      "blob_weights_f16" : 35
    },
    {
      "bottom" : "model\/block_1_project_BN\/FusedBatchNormV3_nchw,model\/block_2_project_BN\/FusedBatchNormV3_nchw",
      "alpha" : 1,
      "operation" : 0,
      "weights" : {

      },
      "fused_relu" : 0,
      "debug_info" : "model\/block_2_add\/add",
      "top" : "model\/block_2_add\/add",
      "type" : "elementwise",
      "name" : "model\/block_2_add\/add",
      "beta" : 0
    },
    {
      "pad_r" : 0,
      "fused_relu" : 1,
      "fused_tanh" : 0,
      "debug_info" : "model\/block_3_expand_BN\/FusedBatchNormV3_nchw",
      "pad_fill_mode" : 0,
      "pad_b" : 0,
      "pad_l" : 0,
      "top" : "model\/block_3_expand_relu\/Relu6__relu6_relu__",
      "K" : 24,
      "blob_biases" : 37,
      "name" : "model\/block_3_expand_BN\/FusedBatchNormV3_nchw",
      "has_batch_norm" : 0,
      "type" : "convolution",
      "n_groups" : 1,
      "pad_t" : 0,
      "has_biases" : 1,
      "C" : 144,
      "bottom" : "model\/block_2_add\/add",
      "weights" : {

      },
      "Nx" : 1,
      "pad_mode" : 1,
      "pad_value" : 0,
      "Ny" : 1,
      "n_parallel" : 1,
      "blob_weights_f16" : 39
    },
    {
      "alpha" : -1,
      "bottom" : "model\/block_3_expand_relu\/Relu6__relu6_relu__",
      "weights" : {

      },
      "mode" : 6,
      "debug_info" : "model\/block_3_expand_relu\/Relu6__relu6_neg__",
      "top" : "model\/block_3_expand_relu\/Relu6__relu6_neg__",
      "type" : "activation",
      "name" : "model\/block_3_expand_relu\/Relu6__relu6_neg__",
      "beta" : 0
    },
    {
      "bottom" : "model\/block_3_expand_relu\/Relu6__relu6_neg__",
      "alpha" : -6,
      "operation" : 25,
      "weights" : {

      },
      "fused_relu" : 0,
      "debug_info" : "model\/block_3_expand_relu\/Relu6__relu6_threshold6__",
      "top" : "model\/block_3_expand_relu\/Relu6__relu6_threshold6__",
      "type" : "elementwise",
      "name" : "model\/block_3_expand_relu\/Relu6__relu6_threshold6__",
      "beta" : 0
    },
    {
      "alpha" : -1,
      "bottom" : "model\/block_3_expand_relu\/Relu6__relu6_threshold6__",
      "weights" : {

      },
      "mode" : 6,
      "debug_info" : "model\/block_3_expand_relu\/Relu6",
      "top" : "model\/block_3_expand_relu\/Relu6",
      "type" : "activation",
      "name" : "model\/block_3_expand_relu\/Relu6",
      "beta" : 0
    },
    {
      "pad_r" : 1,
      "fused_relu" : 1,
      "fused_tanh" : 0,
      "debug_info" : "model\/block_3_depthwise_BN\/FusedBatchNormV3_nchw",
      "pad_fill_mode" : 0,
      "pad_b" : 1,
      "pad_l" : 0,
      "top" : "model\/block_3_depthwise_relu\/Relu6__relu6_relu__",
      "K" : 144,
      "blob_biases" : 41,
      "stride_x" : 2,
      "name" : "model\/block_3_depthwise_BN\/FusedBatchNormV3_nchw",
      "has_batch_norm" : 0,
      "type" : "convolution",
      "n_groups" : 144,
      "pad_t" : 0,
      "stride_y" : 2,
      "has_biases" : 1,
      "C" : 144,
      "bottom" : "model\/block_3_expand_relu\/Relu6",
      "weights" : {

      },
      "Nx" : 3,
      "pad_mode" : 0,
      "pad_value" : 0,
      "Ny" : 3,
      "n_parallel" : 1,
      "blob_weights_f16" : 43
    },
    {
      "alpha" : -1,
      "bottom" : "model\/block_3_depthwise_relu\/Relu6__relu6_relu__",
      "weights" : {

      },
      "mode" : 6,
      "debug_info" : "model\/block_3_depthwise_relu\/Relu6__relu6_neg__",
      "top" : "model\/block_3_depthwise_relu\/Relu6__relu6_neg__",
      "type" : "activation",
      "name" : "model\/block_3_depthwise_relu\/Relu6__relu6_neg__",
      "beta" : 0
    },
    {
      "bottom" : "model\/block_3_depthwise_relu\/Relu6__relu6_neg__",
      "alpha" : -6,
      "operation" : 25,
      "weights" : {

      },
      "fused_relu" : 0,
      "debug_info" : "model\/block_3_depthwise_relu\/Relu6__relu6_threshold6__",
      "top" : "model\/block_3_depthwise_relu\/Relu6__relu6_threshold6__",
      "type" : "elementwise",
      "name" : "model\/block_3_depthwise_relu\/Relu6__relu6_threshold6__",
      "beta" : 0
    },
    {
      "alpha" : -1,
      "bottom" : "model\/block_3_depthwise_relu\/Relu6__relu6_threshold6__",
      "weights" : {

      },
      "mode" : 6,
      "debug_info" : "model\/block_3_depthwise_relu\/Relu6",
      "top" : "model\/block_3_depthwise_relu\/Relu6",
      "type" : "activation",
      "name" : "model\/block_3_depthwise_relu\/Relu6",
      "beta" : 0
    },
    {
      "pad_r" : 0,
      "fused_relu" : 0,
      "fused_tanh" : 0,
      "debug_info" : "model\/block_3_project_BN\/FusedBatchNormV3_nchw",
      "pad_fill_mode" : 0,
      "pad_b" : 0,
      "pad_l" : 0,
      "top" : "model\/block_3_project_BN\/FusedBatchNormV3_nchw",
      "K" : 144,
      "blob_biases" : 45,
      "name" : "model\/block_3_project_BN\/FusedBatchNormV3_nchw",
      "has_batch_norm" : 0,
      "type" : "convolution",
      "n_groups" : 1,
      "pad_t" : 0,
      "has_biases" : 1,
      "C" : 32,
      "bottom" : "model\/block_3_depthwise_relu\/Relu6",
      "weights" : {

      },
      "Nx" : 1,
      "pad_mode" : 1,
      "pad_value" : 0,
      "Ny" : 1,
      "n_parallel" : 1,
      "blob_weights_f16" : 47
    },
    {
      "pad_r" : 0,
      "fused_relu" : 1,
      "fused_tanh" : 0,
      "debug_info" : "model\/block_4_expand_BN\/FusedBatchNormV3_nchw",
      "pad_fill_mode" : 0,
      "pad_b" : 0,
      "pad_l" : 0,
      "top" : "model\/block_4_expand_relu\/Relu6__relu6_relu__",
      "K" : 32,
      "blob_biases" : 49,
      "name" : "model\/block_4_expand_BN\/FusedBatchNormV3_nchw",
      "has_batch_norm" : 0,
      "type" : "convolution",
      "n_groups" : 1,
      "pad_t" : 0,
      "has_biases" : 1,
      "C" : 192,
      "bottom" : "model\/block_3_project_BN\/FusedBatchNormV3_nchw",
      "weights" : {

      },
      "Nx" : 1,
      "pad_mode" : 1,
      "pad_value" : 0,
      "Ny" : 1,
      "n_parallel" : 1,
      "blob_weights_f16" : 51
    },
    {
      "alpha" : -1,
      "bottom" : "model\/block_4_expand_relu\/Relu6__relu6_relu__",
      "weights" : {

      },
      "mode" : 6,
      "debug_info" : "model\/block_4_expand_relu\/Relu6__relu6_neg__",
      "top" : "model\/block_4_expand_relu\/Relu6__relu6_neg__",
      "type" : "activation",
      "name" : "model\/block_4_expand_relu\/Relu6__relu6_neg__",
      "beta" : 0
    },
    {
      "bottom" : "model\/block_4_expand_relu\/Relu6__relu6_neg__",
      "alpha" : -6,
      "operation" : 25,
      "weights" : {

      },
      "fused_relu" : 0,
      "debug_info" : "model\/block_4_expand_relu\/Relu6__relu6_threshold6__",
      "top" : "model\/block_4_expand_relu\/Relu6__relu6_threshold6__",
      "type" : "elementwise",
      "name" : "model\/block_4_expand_relu\/Relu6__relu6_threshold6__",
      "beta" : 0
    },
    {
      "alpha" : -1,
      "bottom" : "model\/block_4_expand_relu\/Relu6__relu6_threshold6__",
      "weights" : {

      },
      "mode" : 6,
      "debug_info" : "model\/block_4_expand_relu\/Relu6",
      "top" : "model\/block_4_expand_relu\/Relu6",
      "type" : "activation",
      "name" : "model\/block_4_expand_relu\/Relu6",
      "beta" : 0
    },
    {
      "pad_r" : 0,
      "fused_relu" : 1,
      "fused_tanh" : 0,
      "debug_info" : "model\/block_4_depthwise_BN\/FusedBatchNormV3_nchw",
      "pad_fill_mode" : 0,
      "pad_b" : 0,
      "pad_l" : 0,
      "top" : "model\/block_4_depthwise_relu\/Relu6__relu6_relu__",
      "K" : 192,
      "blob_biases" : 53,
      "name" : "model\/block_4_depthwise_BN\/FusedBatchNormV3_nchw",
      "has_batch_norm" : 0,
      "type" : "convolution",
      "n_groups" : 192,
      "pad_t" : 0,
      "has_biases" : 1,
      "C" : 192,
      "bottom" : "model\/block_4_expand_relu\/Relu6",
      "weights" : {

      },
      "Nx" : 3,
      "pad_mode" : 1,
      "pad_value" : 0,
      "Ny" : 3,
      "n_parallel" : 1,
      "blob_weights_f16" : 55
    },
    {
      "alpha" : -1,
      "bottom" : "model\/block_4_depthwise_relu\/Relu6__relu6_relu__",
      "weights" : {

      },
      "mode" : 6,
      "debug_info" : "model\/block_4_depthwise_relu\/Relu6__relu6_neg__",
      "top" : "model\/block_4_depthwise_relu\/Relu6__relu6_neg__",
      "type" : "activation",
      "name" : "model\/block_4_depthwise_relu\/Relu6__relu6_neg__",
      "beta" : 0
    },
    {
      "bottom" : "model\/block_4_depthwise_relu\/Relu6__relu6_neg__",
      "alpha" : -6,
      "operation" : 25,
      "weights" : {

      },
      "fused_relu" : 0,
      "debug_info" : "model\/block_4_depthwise_relu\/Relu6__relu6_threshold6__",
      "top" : "model\/block_4_depthwise_relu\/Relu6__relu6_threshold6__",
      "type" : "elementwise",
      "name" : "model\/block_4_depthwise_relu\/Relu6__relu6_threshold6__",
      "beta" : 0
    },
    {
      "alpha" : -1,
      "bottom" : "model\/block_4_depthwise_relu\/Relu6__relu6_threshold6__",
      "weights" : {

      },
      "mode" : 6,
      "debug_info" : "model\/block_4_depthwise_relu\/Relu6",
      "top" : "model\/block_4_depthwise_relu\/Relu6",
      "type" : "activation",
      "name" : "model\/block_4_depthwise_relu\/Relu6",
      "beta" : 0
    },
    {
      "pad_r" : 0,
      "fused_relu" : 0,
      "fused_tanh" : 0,
      "debug_info" : "model\/block_4_project_BN\/FusedBatchNormV3_nchw",
      "pad_fill_mode" : 0,
      "pad_b" : 0,
      "pad_l" : 0,
      "top" : "model\/block_4_project_BN\/FusedBatchNormV3_nchw",
      "K" : 192,
      "blob_biases" : 57,
      "name" : "model\/block_4_project_BN\/FusedBatchNormV3_nchw",
      "has_batch_norm" : 0,
      "type" : "convolution",
      "n_groups" : 1,
      "pad_t" : 0,
      "has_biases" : 1,
      "C" : 32,
      "bottom" : "model\/block_4_depthwise_relu\/Relu6",
      "weights" : {

      },
      "Nx" : 1,
      "pad_mode" : 1,
      "pad_value" : 0,
      "Ny" : 1,
      "n_parallel" : 1,
      "blob_weights_f16" : 59
    },
    {
      "bottom" : "model\/block_3_project_BN\/FusedBatchNormV3_nchw,model\/block_4_project_BN\/FusedBatchNormV3_nchw",
      "alpha" : 1,
      "operation" : 0,
      "weights" : {

      },
      "fused_relu" : 0,
      "debug_info" : "model\/block_4_add\/add",
      "top" : "model\/block_4_add\/add",
      "type" : "elementwise",
      "name" : "model\/block_4_add\/add",
      "beta" : 0
    },
    {
      "pad_r" : 0,
      "fused_relu" : 1,
      "fused_tanh" : 0,
      "debug_info" : "model\/block_5_expand_BN\/FusedBatchNormV3_nchw",
      "pad_fill_mode" : 0,
      "pad_b" : 0,
      "pad_l" : 0,
      "top" : "model\/block_5_expand_relu\/Relu6__relu6_relu__",
      "K" : 32,
      "blob_biases" : 61,
      "name" : "model\/block_5_expand_BN\/FusedBatchNormV3_nchw",
      "has_batch_norm" : 0,
      "type" : "convolution",
      "n_groups" : 1,
      "pad_t" : 0,
      "has_biases" : 1,
      "C" : 192,
      "bottom" : "model\/block_4_add\/add",
      "weights" : {

      },
      "Nx" : 1,
      "pad_mode" : 1,
      "pad_value" : 0,
      "Ny" : 1,
      "n_parallel" : 1,
      "blob_weights_f16" : 63
    },
    {
      "alpha" : -1,
      "bottom" : "model\/block_5_expand_relu\/Relu6__relu6_relu__",
      "weights" : {

      },
      "mode" : 6,
      "debug_info" : "model\/block_5_expand_relu\/Relu6__relu6_neg__",
      "top" : "model\/block_5_expand_relu\/Relu6__relu6_neg__",
      "type" : "activation",
      "name" : "model\/block_5_expand_relu\/Relu6__relu6_neg__",
      "beta" : 0
    },
    {
      "bottom" : "model\/block_5_expand_relu\/Relu6__relu6_neg__",
      "alpha" : -6,
      "operation" : 25,
      "weights" : {

      },
      "fused_relu" : 0,
      "debug_info" : "model\/block_5_expand_relu\/Relu6__relu6_threshold6__",
      "top" : "model\/block_5_expand_relu\/Relu6__relu6_threshold6__",
      "type" : "elementwise",
      "name" : "model\/block_5_expand_relu\/Relu6__relu6_threshold6__",
      "beta" : 0
    },
    {
      "alpha" : -1,
      "bottom" : "model\/block_5_expand_relu\/Relu6__relu6_threshold6__",
      "weights" : {

      },
      "mode" : 6,
      "debug_info" : "model\/block_5_expand_relu\/Relu6",
      "top" : "model\/block_5_expand_relu\/Relu6",
      "type" : "activation",
      "name" : "model\/block_5_expand_relu\/Relu6",
      "beta" : 0
    },
    {
      "pad_r" : 0,
      "fused_relu" : 1,
      "fused_tanh" : 0,
      "debug_info" : "model\/block_5_depthwise_BN\/FusedBatchNormV3_nchw",
      "pad_fill_mode" : 0,
      "pad_b" : 0,
      "pad_l" : 0,
      "top" : "model\/block_5_depthwise_relu\/Relu6__relu6_relu__",
      "K" : 192,
      "blob_biases" : 65,
      "name" : "model\/block_5_depthwise_BN\/FusedBatchNormV3_nchw",
      "has_batch_norm" : 0,
      "type" : "convolution",
      "n_groups" : 192,
      "pad_t" : 0,
      "has_biases" : 1,
      "C" : 192,
      "bottom" : "model\/block_5_expand_relu\/Relu6",
      "weights" : {

      },
      "Nx" : 3,
      "pad_mode" : 1,
      "pad_value" : 0,
      "Ny" : 3,
      "n_parallel" : 1,
      "blob_weights_f16" : 67
    },
    {
      "alpha" : -1,
      "bottom" : "model\/block_5_depthwise_relu\/Relu6__relu6_relu__",
      "weights" : {

      },
      "mode" : 6,
      "debug_info" : "model\/block_5_depthwise_relu\/Relu6__relu6_neg__",
      "top" : "model\/block_5_depthwise_relu\/Relu6__relu6_neg__",
      "type" : "activation",
      "name" : "model\/block_5_depthwise_relu\/Relu6__relu6_neg__",
      "beta" : 0
    },
    {
      "bottom" : "model\/block_5_depthwise_relu\/Relu6__relu6_neg__",
      "alpha" : -6,
      "operation" : 25,
      "weights" : {

      },
      "fused_relu" : 0,
      "debug_info" : "model\/block_5_depthwise_relu\/Relu6__relu6_threshold6__",
      "top" : "model\/block_5_depthwise_relu\/Relu6__relu6_threshold6__",
      "type" : "elementwise",
      "name" : "model\/block_5_depthwise_relu\/Relu6__relu6_threshold6__",
      "beta" : 0
    },
    {
      "alpha" : -1,
      "bottom" : "model\/block_5_depthwise_relu\/Relu6__relu6_threshold6__",
      "weights" : {

      },
      "mode" : 6,
      "debug_info" : "model\/block_5_depthwise_relu\/Relu6",
      "top" : "model\/block_5_depthwise_relu\/Relu6",
      "type" : "activation",
      "name" : "model\/block_5_depthwise_relu\/Relu6",
      "beta" : 0
    },
    {
      "pad_r" : 0,
      "fused_relu" : 0,
      "fused_tanh" : 0,
      "debug_info" : "model\/block_5_project_BN\/FusedBatchNormV3_nchw",
      "pad_fill_mode" : 0,
      "pad_b" : 0,
      "pad_l" : 0,
      "top" : "model\/block_5_project_BN\/FusedBatchNormV3_nchw",
      "K" : 192,
      "blob_biases" : 69,
      "name" : "model\/block_5_project_BN\/FusedBatchNormV3_nchw",
      "has_batch_norm" : 0,
      "type" : "convolution",
      "n_groups" : 1,
      "pad_t" : 0,
      "has_biases" : 1,
      "C" : 32,
      "bottom" : "model\/block_5_depthwise_relu\/Relu6",
      "weights" : {

      },
      "Nx" : 1,
      "pad_mode" : 1,
      "pad_value" : 0,
      "Ny" : 1,
      "n_parallel" : 1,
      "blob_weights_f16" : 71
    },
    {
      "bottom" : "model\/block_4_add\/add,model\/block_5_project_BN\/FusedBatchNormV3_nchw",
      "alpha" : 1,
      "operation" : 0,
      "weights" : {

      },
      "fused_relu" : 0,
      "debug_info" : "model\/block_5_add\/add",
      "top" : "model\/block_5_add\/add",
      "type" : "elementwise",
      "name" : "model\/block_5_add\/add",
      "beta" : 0
    },
    {
      "pad_r" : 0,
      "fused_relu" : 1,
      "fused_tanh" : 0,
      "debug_info" : "model\/block_6_expand_BN\/FusedBatchNormV3_nchw",
      "pad_fill_mode" : 0,
      "pad_b" : 0,
      "pad_l" : 0,
      "top" : "model\/block_6_expand_relu\/Relu6__relu6_relu__",
      "K" : 32,
      "blob_biases" : 73,
      "name" : "model\/block_6_expand_BN\/FusedBatchNormV3_nchw",
      "has_batch_norm" : 0,
      "type" : "convolution",
      "n_groups" : 1,
      "pad_t" : 0,
      "has_biases" : 1,
      "C" : 192,
      "bottom" : "model\/block_5_add\/add",
      "weights" : {

      },
      "Nx" : 1,
      "pad_mode" : 1,
      "pad_value" : 0,
      "Ny" : 1,
      "n_parallel" : 1,
      "blob_weights_f16" : 75
    },
    {
      "alpha" : -1,
      "bottom" : "model\/block_6_expand_relu\/Relu6__relu6_relu__",
      "weights" : {

      },
      "mode" : 6,
      "debug_info" : "model\/block_6_expand_relu\/Relu6__relu6_neg__",
      "top" : "model\/block_6_expand_relu\/Relu6__relu6_neg__",
      "type" : "activation",
      "name" : "model\/block_6_expand_relu\/Relu6__relu6_neg__",
      "beta" : 0
    },
    {
      "bottom" : "model\/block_6_expand_relu\/Relu6__relu6_neg__",
      "alpha" : -6,
      "operation" : 25,
      "weights" : {

      },
      "fused_relu" : 0,
      "debug_info" : "model\/block_6_expand_relu\/Relu6__relu6_threshold6__",
      "top" : "model\/block_6_expand_relu\/Relu6__relu6_threshold6__",
      "type" : "elementwise",
      "name" : "model\/block_6_expand_relu\/Relu6__relu6_threshold6__",
      "beta" : 0
    },
    {
      "alpha" : -1,
      "bottom" : "model\/block_6_expand_relu\/Relu6__relu6_threshold6__",
      "weights" : {

      },
      "mode" : 6,
      "debug_info" : "model\/block_6_expand_relu\/Relu6",
      "top" : "model\/block_6_expand_relu\/Relu6",
      "type" : "activation",
      "name" : "model\/block_6_expand_relu\/Relu6",
      "beta" : 0
    },
    {
      "pad_r" : 1,
      "fused_relu" : 1,
      "fused_tanh" : 0,
      "debug_info" : "model\/block_6_depthwise_BN\/FusedBatchNormV3_nchw",
      "pad_fill_mode" : 0,
      "pad_b" : 1,
      "pad_l" : 0,
      "top" : "model\/block_6_depthwise_relu\/Relu6__relu6_relu__",
      "K" : 192,
      "blob_biases" : 77,
      "stride_x" : 2,
      "name" : "model\/block_6_depthwise_BN\/FusedBatchNormV3_nchw",
      "has_batch_norm" : 0,
      "type" : "convolution",
      "n_groups" : 192,
      "pad_t" : 0,
      "stride_y" : 2,
      "has_biases" : 1,
      "C" : 192,
      "bottom" : "model\/block_6_expand_relu\/Relu6",
      "weights" : {

      },
      "Nx" : 3,
      "pad_mode" : 0,
      "pad_value" : 0,
      "Ny" : 3,
      "n_parallel" : 1,
      "blob_weights_f16" : 79
    },
    {
      "alpha" : -1,
      "bottom" : "model\/block_6_depthwise_relu\/Relu6__relu6_relu__",
      "weights" : {

      },
      "mode" : 6,
      "debug_info" : "model\/block_6_depthwise_relu\/Relu6__relu6_neg__",
      "top" : "model\/block_6_depthwise_relu\/Relu6__relu6_neg__",
      "type" : "activation",
      "name" : "model\/block_6_depthwise_relu\/Relu6__relu6_neg__",
      "beta" : 0
    },
    {
      "bottom" : "model\/block_6_depthwise_relu\/Relu6__relu6_neg__",
      "alpha" : -6,
      "operation" : 25,
      "weights" : {

      },
      "fused_relu" : 0,
      "debug_info" : "model\/block_6_depthwise_relu\/Relu6__relu6_threshold6__",
      "top" : "model\/block_6_depthwise_relu\/Relu6__relu6_threshold6__",
      "type" : "elementwise",
      "name" : "model\/block_6_depthwise_relu\/Relu6__relu6_threshold6__",
      "beta" : 0
    },
    {
      "alpha" : -1,
      "bottom" : "model\/block_6_depthwise_relu\/Relu6__relu6_threshold6__",
      "weights" : {

      },
      "mode" : 6,
      "debug_info" : "model\/block_6_depthwise_relu\/Relu6",
      "top" : "model\/block_6_depthwise_relu\/Relu6",
      "type" : "activation",
      "name" : "model\/block_6_depthwise_relu\/Relu6",
      "beta" : 0
    },
    {
      "pad_r" : 0,
      "fused_relu" : 0,
      "fused_tanh" : 0,
      "debug_info" : "model\/block_6_project_BN\/FusedBatchNormV3_nchw",
      "pad_fill_mode" : 0,
      "pad_b" : 0,
      "pad_l" : 0,
      "top" : "model\/block_6_project_BN\/FusedBatchNormV3_nchw",
      "K" : 192,
      "blob_biases" : 81,
      "name" : "model\/block_6_project_BN\/FusedBatchNormV3_nchw",
      "has_batch_norm" : 0,
      "type" : "convolution",
      "n_groups" : 1,
      "pad_t" : 0,
      "has_biases" : 1,
      "C" : 64,
      "bottom" : "model\/block_6_depthwise_relu\/Relu6",
      "weights" : {

      },
      "Nx" : 1,
      "pad_mode" : 1,
      "pad_value" : 0,
      "Ny" : 1,
      "n_parallel" : 1,
      "blob_weights_f16" : 83
    },
    {
      "pad_r" : 0,
      "fused_relu" : 1,
      "fused_tanh" : 0,
      "debug_info" : "model\/block_7_expand_BN\/FusedBatchNormV3_nchw",
      "pad_fill_mode" : 0,
      "pad_b" : 0,
      "pad_l" : 0,
      "top" : "model\/block_7_expand_relu\/Relu6__relu6_relu__",
      "K" : 64,
      "blob_biases" : 85,
      "name" : "model\/block_7_expand_BN\/FusedBatchNormV3_nchw",
      "has_batch_norm" : 0,
      "type" : "convolution",
      "n_groups" : 1,
      "pad_t" : 0,
      "has_biases" : 1,
      "C" : 384,
      "bottom" : "model\/block_6_project_BN\/FusedBatchNormV3_nchw",
      "weights" : {

      },
      "Nx" : 1,
      "pad_mode" : 1,
      "pad_value" : 0,
      "Ny" : 1,
      "n_parallel" : 1,
      "blob_weights_f16" : 87
    },
    {
      "alpha" : -1,
      "bottom" : "model\/block_7_expand_relu\/Relu6__relu6_relu__",
      "weights" : {

      },
      "mode" : 6,
      "debug_info" : "model\/block_7_expand_relu\/Relu6__relu6_neg__",
      "top" : "model\/block_7_expand_relu\/Relu6__relu6_neg__",
      "type" : "activation",
      "name" : "model\/block_7_expand_relu\/Relu6__relu6_neg__",
      "beta" : 0
    },
    {
      "bottom" : "model\/block_7_expand_relu\/Relu6__relu6_neg__",
      "alpha" : -6,
      "operation" : 25,
      "weights" : {

      },
      "fused_relu" : 0,
      "debug_info" : "model\/block_7_expand_relu\/Relu6__relu6_threshold6__",
      "top" : "model\/block_7_expand_relu\/Relu6__relu6_threshold6__",
      "type" : "elementwise",
      "name" : "model\/block_7_expand_relu\/Relu6__relu6_threshold6__",
      "beta" : 0
    },
    {
      "alpha" : -1,
      "bottom" : "model\/block_7_expand_relu\/Relu6__relu6_threshold6__",
      "weights" : {

      },
      "mode" : 6,
      "debug_info" : "model\/block_7_expand_relu\/Relu6",
      "top" : "model\/block_7_expand_relu\/Relu6",
      "type" : "activation",
      "name" : "model\/block_7_expand_relu\/Relu6",
      "beta" : 0
    },
    {
      "pad_r" : 0,
      "fused_relu" : 1,
      "fused_tanh" : 0,
      "debug_info" : "model\/block_7_depthwise_BN\/FusedBatchNormV3_nchw",
      "pad_fill_mode" : 0,
      "pad_b" : 0,
      "pad_l" : 0,
      "top" : "model\/block_7_depthwise_relu\/Relu6__relu6_relu__",
      "K" : 384,
      "blob_biases" : 89,
      "name" : "model\/block_7_depthwise_BN\/FusedBatchNormV3_nchw",
      "has_batch_norm" : 0,
      "type" : "convolution",
      "n_groups" : 384,
      "pad_t" : 0,
      "has_biases" : 1,
      "C" : 384,
      "bottom" : "model\/block_7_expand_relu\/Relu6",
      "weights" : {

      },
      "Nx" : 3,
      "pad_mode" : 1,
      "pad_value" : 0,
      "Ny" : 3,
      "n_parallel" : 1,
      "blob_weights_f16" : 91
    },
    {
      "alpha" : -1,
      "bottom" : "model\/block_7_depthwise_relu\/Relu6__relu6_relu__",
      "weights" : {

      },
      "mode" : 6,
      "debug_info" : "model\/block_7_depthwise_relu\/Relu6__relu6_neg__",
      "top" : "model\/block_7_depthwise_relu\/Relu6__relu6_neg__",
      "type" : "activation",
      "name" : "model\/block_7_depthwise_relu\/Relu6__relu6_neg__",
      "beta" : 0
    },
    {
      "bottom" : "model\/block_7_depthwise_relu\/Relu6__relu6_neg__",
      "alpha" : -6,
      "operation" : 25,
      "weights" : {

      },
      "fused_relu" : 0,
      "debug_info" : "model\/block_7_depthwise_relu\/Relu6__relu6_threshold6__",
      "top" : "model\/block_7_depthwise_relu\/Relu6__relu6_threshold6__",
      "type" : "elementwise",
      "name" : "model\/block_7_depthwise_relu\/Relu6__relu6_threshold6__",
      "beta" : 0
    },
    {
      "alpha" : -1,
      "bottom" : "model\/block_7_depthwise_relu\/Relu6__relu6_threshold6__",
      "weights" : {

      },
      "mode" : 6,
      "debug_info" : "model\/block_7_depthwise_relu\/Relu6",
      "top" : "model\/block_7_depthwise_relu\/Relu6",
      "type" : "activation",
      "name" : "model\/block_7_depthwise_relu\/Relu6",
      "beta" : 0
    },
    {
      "pad_r" : 0,
      "fused_relu" : 0,
      "fused_tanh" : 0,
      "debug_info" : "model\/block_7_project_BN\/FusedBatchNormV3_nchw",
      "pad_fill_mode" : 0,
      "pad_b" : 0,
      "pad_l" : 0,
      "top" : "model\/block_7_project_BN\/FusedBatchNormV3_nchw",
      "K" : 384,
      "blob_biases" : 93,
      "name" : "model\/block_7_project_BN\/FusedBatchNormV3_nchw",
      "has_batch_norm" : 0,
      "type" : "convolution",
      "n_groups" : 1,
      "pad_t" : 0,
      "has_biases" : 1,
      "C" : 64,
      "bottom" : "model\/block_7_depthwise_relu\/Relu6",
      "weights" : {

      },
      "Nx" : 1,
      "pad_mode" : 1,
      "pad_value" : 0,
      "Ny" : 1,
      "n_parallel" : 1,
      "blob_weights_f16" : 95
    },
    {
      "bottom" : "model\/block_6_project_BN\/FusedBatchNormV3_nchw,model\/block_7_project_BN\/FusedBatchNormV3_nchw",
      "alpha" : 1,
      "operation" : 0,
      "weights" : {

      },
      "fused_relu" : 0,
      "debug_info" : "model\/block_7_add\/add",
      "top" : "model\/block_7_add\/add",
      "type" : "elementwise",
      "name" : "model\/block_7_add\/add",
      "beta" : 0
    },
    {
      "pad_r" : 0,
      "fused_relu" : 1,
      "fused_tanh" : 0,
      "debug_info" : "model\/block_8_expand_BN\/FusedBatchNormV3_nchw",
      "pad_fill_mode" : 0,
      "pad_b" : 0,
      "pad_l" : 0,
      "top" : "model\/block_8_expand_relu\/Relu6__relu6_relu__",
      "K" : 64,
      "blob_biases" : 97,
      "name" : "model\/block_8_expand_BN\/FusedBatchNormV3_nchw",
      "has_batch_norm" : 0,
      "type" : "convolution",
      "n_groups" : 1,
      "pad_t" : 0,
      "has_biases" : 1,
      "C" : 384,
      "bottom" : "model\/block_7_add\/add",
      "weights" : {

      },
      "Nx" : 1,
      "pad_mode" : 1,
      "pad_value" : 0,
      "Ny" : 1,
      "n_parallel" : 1,
      "blob_weights_f16" : 99
    },
    {
      "alpha" : -1,
      "bottom" : "model\/block_8_expand_relu\/Relu6__relu6_relu__",
      "weights" : {

      },
      "mode" : 6,
      "debug_info" : "model\/block_8_expand_relu\/Relu6__relu6_neg__",
      "top" : "model\/block_8_expand_relu\/Relu6__relu6_neg__",
      "type" : "activation",
      "name" : "model\/block_8_expand_relu\/Relu6__relu6_neg__",
      "beta" : 0
    },
    {
      "bottom" : "model\/block_8_expand_relu\/Relu6__relu6_neg__",
      "alpha" : -6,
      "operation" : 25,
      "weights" : {

      },
      "fused_relu" : 0,
      "debug_info" : "model\/block_8_expand_relu\/Relu6__relu6_threshold6__",
      "top" : "model\/block_8_expand_relu\/Relu6__relu6_threshold6__",
      "type" : "elementwise",
      "name" : "model\/block_8_expand_relu\/Relu6__relu6_threshold6__",
      "beta" : 0
    },
    {
      "alpha" : -1,
      "bottom" : "model\/block_8_expand_relu\/Relu6__relu6_threshold6__",
      "weights" : {

      },
      "mode" : 6,
      "debug_info" : "model\/block_8_expand_relu\/Relu6",
      "top" : "model\/block_8_expand_relu\/Relu6",
      "type" : "activation",
      "name" : "model\/block_8_expand_relu\/Relu6",
      "beta" : 0
    },
    {
      "pad_r" : 0,
      "fused_relu" : 1,
      "fused_tanh" : 0,
      "debug_info" : "model\/block_8_depthwise_BN\/FusedBatchNormV3_nchw",
      "pad_fill_mode" : 0,
      "pad_b" : 0,
      "pad_l" : 0,
      "top" : "model\/block_8_depthwise_relu\/Relu6__relu6_relu__",
      "K" : 384,
      "blob_biases" : 101,
      "name" : "model\/block_8_depthwise_BN\/FusedBatchNormV3_nchw",
      "has_batch_norm" : 0,
      "type" : "convolution",
      "n_groups" : 384,
      "pad_t" : 0,
      "has_biases" : 1,
      "C" : 384,
      "bottom" : "model\/block_8_expand_relu\/Relu6",
      "weights" : {

      },
      "Nx" : 3,
      "pad_mode" : 1,
      "pad_value" : 0,
      "Ny" : 3,
      "n_parallel" : 1,
      "blob_weights_f16" : 103
    },
    {
      "alpha" : -1,
      "bottom" : "model\/block_8_depthwise_relu\/Relu6__relu6_relu__",
      "weights" : {

      },
      "mode" : 6,
      "debug_info" : "model\/block_8_depthwise_relu\/Relu6__relu6_neg__",
      "top" : "model\/block_8_depthwise_relu\/Relu6__relu6_neg__",
      "type" : "activation",
      "name" : "model\/block_8_depthwise_relu\/Relu6__relu6_neg__",
      "beta" : 0
    },
    {
      "bottom" : "model\/block_8_depthwise_relu\/Relu6__relu6_neg__",
      "alpha" : -6,
      "operation" : 25,
      "weights" : {

      },
      "fused_relu" : 0,
      "debug_info" : "model\/block_8_depthwise_relu\/Relu6__relu6_threshold6__",
      "top" : "model\/block_8_depthwise_relu\/Relu6__relu6_threshold6__",
      "type" : "elementwise",
      "name" : "model\/block_8_depthwise_relu\/Relu6__relu6_threshold6__",
      "beta" : 0
    },
    {
      "alpha" : -1,
      "bottom" : "model\/block_8_depthwise_relu\/Relu6__relu6_threshold6__",
      "weights" : {

      },
      "mode" : 6,
      "debug_info" : "model\/block_8_depthwise_relu\/Relu6",
      "top" : "model\/block_8_depthwise_relu\/Relu6",
      "type" : "activation",
      "name" : "model\/block_8_depthwise_relu\/Relu6",
      "beta" : 0
    },
    {
      "pad_r" : 0,
      "fused_relu" : 0,
      "fused_tanh" : 0,
      "debug_info" : "model\/block_8_project_BN\/FusedBatchNormV3_nchw",
      "pad_fill_mode" : 0,
      "pad_b" : 0,
      "pad_l" : 0,
      "top" : "model\/block_8_project_BN\/FusedBatchNormV3_nchw",
      "K" : 384,
      "blob_biases" : 105,
      "name" : "model\/block_8_project_BN\/FusedBatchNormV3_nchw",
      "has_batch_norm" : 0,
      "type" : "convolution",
      "n_groups" : 1,
      "pad_t" : 0,
      "has_biases" : 1,
      "C" : 64,
      "bottom" : "model\/block_8_depthwise_relu\/Relu6",
      "weights" : {

      },
      "Nx" : 1,
      "pad_mode" : 1,
      "pad_value" : 0,
      "Ny" : 1,
      "n_parallel" : 1,
      "blob_weights_f16" : 107
    },
    {
      "bottom" : "model\/block_7_add\/add,model\/block_8_project_BN\/FusedBatchNormV3_nchw",
      "alpha" : 1,
      "operation" : 0,
      "weights" : {

      },
      "fused_relu" : 0,
      "debug_info" : "model\/block_8_add\/add",
      "top" : "model\/block_8_add\/add",
      "type" : "elementwise",
      "name" : "model\/block_8_add\/add",
      "beta" : 0
    },
    {
      "pad_r" : 0,
      "fused_relu" : 1,
      "fused_tanh" : 0,
      "debug_info" : "model\/block_9_expand_BN\/FusedBatchNormV3_nchw",
      "pad_fill_mode" : 0,
      "pad_b" : 0,
      "pad_l" : 0,
      "top" : "model\/block_9_expand_relu\/Relu6__relu6_relu__",
      "K" : 64,
      "blob_biases" : 109,
      "name" : "model\/block_9_expand_BN\/FusedBatchNormV3_nchw",
      "has_batch_norm" : 0,
      "type" : "convolution",
      "n_groups" : 1,
      "pad_t" : 0,
      "has_biases" : 1,
      "C" : 384,
      "bottom" : "model\/block_8_add\/add",
      "weights" : {

      },
      "Nx" : 1,
      "pad_mode" : 1,
      "pad_value" : 0,
      "Ny" : 1,
      "n_parallel" : 1,
      "blob_weights_f16" : 111
    },
    {
      "alpha" : -1,
      "bottom" : "model\/block_9_expand_relu\/Relu6__relu6_relu__",
      "weights" : {

      },
      "mode" : 6,
      "debug_info" : "model\/block_9_expand_relu\/Relu6__relu6_neg__",
      "top" : "model\/block_9_expand_relu\/Relu6__relu6_neg__",
      "type" : "activation",
      "name" : "model\/block_9_expand_relu\/Relu6__relu6_neg__",
      "beta" : 0
    },
    {
      "bottom" : "model\/block_9_expand_relu\/Relu6__relu6_neg__",
      "alpha" : -6,
      "operation" : 25,
      "weights" : {

      },
      "fused_relu" : 0,
      "debug_info" : "model\/block_9_expand_relu\/Relu6__relu6_threshold6__",
      "top" : "model\/block_9_expand_relu\/Relu6__relu6_threshold6__",
      "type" : "elementwise",
      "name" : "model\/block_9_expand_relu\/Relu6__relu6_threshold6__",
      "beta" : 0
    },
    {
      "alpha" : -1,
      "bottom" : "model\/block_9_expand_relu\/Relu6__relu6_threshold6__",
      "weights" : {

      },
      "mode" : 6,
      "debug_info" : "model\/block_9_expand_relu\/Relu6",
      "top" : "model\/block_9_expand_relu\/Relu6",
      "type" : "activation",
      "name" : "model\/block_9_expand_relu\/Relu6",
      "beta" : 0
    },
    {
      "pad_r" : 0,
      "fused_relu" : 1,
      "fused_tanh" : 0,
      "debug_info" : "model\/block_9_depthwise_BN\/FusedBatchNormV3_nchw",
      "pad_fill_mode" : 0,
      "pad_b" : 0,
      "pad_l" : 0,
      "top" : "model\/block_9_depthwise_relu\/Relu6__relu6_relu__",
      "K" : 384,
      "blob_biases" : 113,
      "name" : "model\/block_9_depthwise_BN\/FusedBatchNormV3_nchw",
      "has_batch_norm" : 0,
      "type" : "convolution",
      "n_groups" : 384,
      "pad_t" : 0,
      "has_biases" : 1,
      "C" : 384,
      "bottom" : "model\/block_9_expand_relu\/Relu6",
      "weights" : {

      },
      "Nx" : 3,
      "pad_mode" : 1,
      "pad_value" : 0,
      "Ny" : 3,
      "n_parallel" : 1,
      "blob_weights_f16" : 115
    },
    {
      "alpha" : -1,
      "bottom" : "model\/block_9_depthwise_relu\/Relu6__relu6_relu__",
      "weights" : {

      },
      "mode" : 6,
      "debug_info" : "model\/block_9_depthwise_relu\/Relu6__relu6_neg__",
      "top" : "model\/block_9_depthwise_relu\/Relu6__relu6_neg__",
      "type" : "activation",
      "name" : "model\/block_9_depthwise_relu\/Relu6__relu6_neg__",
      "beta" : 0
    },
    {
      "bottom" : "model\/block_9_depthwise_relu\/Relu6__relu6_neg__",
      "alpha" : -6,
      "operation" : 25,
      "weights" : {

      },
      "fused_relu" : 0,
      "debug_info" : "model\/block_9_depthwise_relu\/Relu6__relu6_threshold6__",
      "top" : "model\/block_9_depthwise_relu\/Relu6__relu6_threshold6__",
      "type" : "elementwise",
      "name" : "model\/block_9_depthwise_relu\/Relu6__relu6_threshold6__",
      "beta" : 0
    },
    {
      "alpha" : -1,
      "bottom" : "model\/block_9_depthwise_relu\/Relu6__relu6_threshold6__",
      "weights" : {

      },
      "mode" : 6,
      "debug_info" : "model\/block_9_depthwise_relu\/Relu6",
      "top" : "model\/block_9_depthwise_relu\/Relu6",
      "type" : "activation",
      "name" : "model\/block_9_depthwise_relu\/Relu6",
      "beta" : 0
    },
    {
      "pad_r" : 0,
      "fused_relu" : 0,
      "fused_tanh" : 0,
      "debug_info" : "model\/block_9_project_BN\/FusedBatchNormV3_nchw",
      "pad_fill_mode" : 0,
      "pad_b" : 0,
      "pad_l" : 0,
      "top" : "model\/block_9_project_BN\/FusedBatchNormV3_nchw",
      "K" : 384,
      "blob_biases" : 117,
      "name" : "model\/block_9_project_BN\/FusedBatchNormV3_nchw",
      "has_batch_norm" : 0,
      "type" : "convolution",
      "n_groups" : 1,
      "pad_t" : 0,
      "has_biases" : 1,
      "C" : 64,
      "bottom" : "model\/block_9_depthwise_relu\/Relu6",
      "weights" : {

      },
      "Nx" : 1,
      "pad_mode" : 1,
      "pad_value" : 0,
      "Ny" : 1,
      "n_parallel" : 1,
      "blob_weights_f16" : 119
    },
    {
      "bottom" : "model\/block_8_add\/add,model\/block_9_project_BN\/FusedBatchNormV3_nchw",
      "alpha" : 1,
      "operation" : 0,
      "weights" : {

      },
      "fused_relu" : 0,
      "debug_info" : "model\/block_9_add\/add",
      "top" : "model\/block_9_add\/add",
      "type" : "elementwise",
      "name" : "model\/block_9_add\/add",
      "beta" : 0
    },
    {
      "pad_r" : 0,
      "fused_relu" : 1,
      "fused_tanh" : 0,
      "debug_info" : "model\/block_10_expand_BN\/FusedBatchNormV3_nchw",
      "pad_fill_mode" : 0,
      "pad_b" : 0,
      "pad_l" : 0,
      "top" : "model\/block_10_expand_relu\/Relu6__relu6_relu__",
      "K" : 64,
      "blob_biases" : 121,
      "name" : "model\/block_10_expand_BN\/FusedBatchNormV3_nchw",
      "has_batch_norm" : 0,
      "type" : "convolution",
      "n_groups" : 1,
      "pad_t" : 0,
      "has_biases" : 1,
      "C" : 384,
      "bottom" : "model\/block_9_add\/add",
      "weights" : {

      },
      "Nx" : 1,
      "pad_mode" : 1,
      "pad_value" : 0,
      "Ny" : 1,
      "n_parallel" : 1,
      "blob_weights_f16" : 123
    },
    {
      "alpha" : -1,
      "bottom" : "model\/block_10_expand_relu\/Relu6__relu6_relu__",
      "weights" : {

      },
      "mode" : 6,
      "debug_info" : "model\/block_10_expand_relu\/Relu6__relu6_neg__",
      "top" : "model\/block_10_expand_relu\/Relu6__relu6_neg__",
      "type" : "activation",
      "name" : "model\/block_10_expand_relu\/Relu6__relu6_neg__",
      "beta" : 0
    },
    {
      "bottom" : "model\/block_10_expand_relu\/Relu6__relu6_neg__",
      "alpha" : -6,
      "operation" : 25,
      "weights" : {

      },
      "fused_relu" : 0,
      "debug_info" : "model\/block_10_expand_relu\/Relu6__relu6_threshold6__",
      "top" : "model\/block_10_expand_relu\/Relu6__relu6_threshold6__",
      "type" : "elementwise",
      "name" : "model\/block_10_expand_relu\/Relu6__relu6_threshold6__",
      "beta" : 0
    },
    {
      "alpha" : -1,
      "bottom" : "model\/block_10_expand_relu\/Relu6__relu6_threshold6__",
      "weights" : {

      },
      "mode" : 6,
      "debug_info" : "model\/block_10_expand_relu\/Relu6",
      "top" : "model\/block_10_expand_relu\/Relu6",
      "type" : "activation",
      "name" : "model\/block_10_expand_relu\/Relu6",
      "beta" : 0
    },
    {
      "pad_r" : 0,
      "fused_relu" : 1,
      "fused_tanh" : 0,
      "debug_info" : "model\/block_10_depthwise_BN\/FusedBatchNormV3_nchw",
      "pad_fill_mode" : 0,
      "pad_b" : 0,
      "pad_l" : 0,
      "top" : "model\/block_10_depthwise_relu\/Relu6__relu6_relu__",
      "K" : 384,
      "blob_biases" : 125,
      "name" : "model\/block_10_depthwise_BN\/FusedBatchNormV3_nchw",
      "has_batch_norm" : 0,
      "type" : "convolution",
      "n_groups" : 384,
      "pad_t" : 0,
      "has_biases" : 1,
      "C" : 384,
      "bottom" : "model\/block_10_expand_relu\/Relu6",
      "weights" : {

      },
      "Nx" : 3,
      "pad_mode" : 1,
      "pad_value" : 0,
      "Ny" : 3,
      "n_parallel" : 1,
      "blob_weights_f16" : 127
    },
    {
      "alpha" : -1,
      "bottom" : "model\/block_10_depthwise_relu\/Relu6__relu6_relu__",
      "weights" : {

      },
      "mode" : 6,
      "debug_info" : "model\/block_10_depthwise_relu\/Relu6__relu6_neg__",
      "top" : "model\/block_10_depthwise_relu\/Relu6__relu6_neg__",
      "type" : "activation",
      "name" : "model\/block_10_depthwise_relu\/Relu6__relu6_neg__",
      "beta" : 0
    },
    {
      "bottom" : "model\/block_10_depthwise_relu\/Relu6__relu6_neg__",
      "alpha" : -6,
      "operation" : 25,
      "weights" : {

      },
      "fused_relu" : 0,
      "debug_info" : "model\/block_10_depthwise_relu\/Relu6__relu6_threshold6__",
      "top" : "model\/block_10_depthwise_relu\/Relu6__relu6_threshold6__",
      "type" : "elementwise",
      "name" : "model\/block_10_depthwise_relu\/Relu6__relu6_threshold6__",
      "beta" : 0
    },
    {
      "alpha" : -1,
      "bottom" : "model\/block_10_depthwise_relu\/Relu6__relu6_threshold6__",
      "weights" : {

      },
      "mode" : 6,
      "debug_info" : "model\/block_10_depthwise_relu\/Relu6",
      "top" : "model\/block_10_depthwise_relu\/Relu6",
      "type" : "activation",
      "name" : "model\/block_10_depthwise_relu\/Relu6",
      "beta" : 0
    },
    {
      "pad_r" : 0,
      "fused_relu" : 0,
      "fused_tanh" : 0,
      "debug_info" : "model\/block_10_project_BN\/FusedBatchNormV3_nchw",
      "pad_fill_mode" : 0,
      "pad_b" : 0,
      "pad_l" : 0,
      "top" : "model\/block_10_project_BN\/FusedBatchNormV3_nchw",
      "K" : 384,
      "blob_biases" : 129,
      "name" : "model\/block_10_project_BN\/FusedBatchNormV3_nchw",
      "has_batch_norm" : 0,
      "type" : "convolution",
      "n_groups" : 1,
      "pad_t" : 0,
      "has_biases" : 1,
      "C" : 96,
      "bottom" : "model\/block_10_depthwise_relu\/Relu6",
      "weights" : {

      },
      "Nx" : 1,
      "pad_mode" : 1,
      "pad_value" : 0,
      "Ny" : 1,
      "n_parallel" : 1,
      "blob_weights_f16" : 131
    },
    {
      "pad_r" : 0,
      "fused_relu" : 1,
      "fused_tanh" : 0,
      "debug_info" : "model\/block_11_expand_BN\/FusedBatchNormV3_nchw",
      "pad_fill_mode" : 0,
      "pad_b" : 0,
      "pad_l" : 0,
      "top" : "model\/block_11_expand_relu\/Relu6__relu6_relu__",
      "K" : 96,
      "blob_biases" : 133,
      "name" : "model\/block_11_expand_BN\/FusedBatchNormV3_nchw",
      "has_batch_norm" : 0,
      "type" : "convolution",
      "n_groups" : 1,
      "pad_t" : 0,
      "has_biases" : 1,
      "C" : 576,
      "bottom" : "model\/block_10_project_BN\/FusedBatchNormV3_nchw",
      "weights" : {

      },
      "Nx" : 1,
      "pad_mode" : 1,
      "pad_value" : 0,
      "Ny" : 1,
      "n_parallel" : 1,
      "blob_weights_f16" : 135
    },
    {
      "alpha" : -1,
      "bottom" : "model\/block_11_expand_relu\/Relu6__relu6_relu__",
      "weights" : {

      },
      "mode" : 6,
      "debug_info" : "model\/block_11_expand_relu\/Relu6__relu6_neg__",
      "top" : "model\/block_11_expand_relu\/Relu6__relu6_neg__",
      "type" : "activation",
      "name" : "model\/block_11_expand_relu\/Relu6__relu6_neg__",
      "beta" : 0
    },
    {
      "bottom" : "model\/block_11_expand_relu\/Relu6__relu6_neg__",
      "alpha" : -6,
      "operation" : 25,
      "weights" : {

      },
      "fused_relu" : 0,
      "debug_info" : "model\/block_11_expand_relu\/Relu6__relu6_threshold6__",
      "top" : "model\/block_11_expand_relu\/Relu6__relu6_threshold6__",
      "type" : "elementwise",
      "name" : "model\/block_11_expand_relu\/Relu6__relu6_threshold6__",
      "beta" : 0
    },
    {
      "alpha" : -1,
      "bottom" : "model\/block_11_expand_relu\/Relu6__relu6_threshold6__",
      "weights" : {

      },
      "mode" : 6,
      "debug_info" : "model\/block_11_expand_relu\/Relu6",
      "top" : "model\/block_11_expand_relu\/Relu6",
      "type" : "activation",
      "name" : "model\/block_11_expand_relu\/Relu6",
      "beta" : 0
    },
    {
      "pad_r" : 0,
      "fused_relu" : 1,
      "fused_tanh" : 0,
      "debug_info" : "model\/block_11_depthwise_BN\/FusedBatchNormV3_nchw",
      "pad_fill_mode" : 0,
      "pad_b" : 0,
      "pad_l" : 0,
      "top" : "model\/block_11_depthwise_relu\/Relu6__relu6_relu__",
      "K" : 576,
      "blob_biases" : 137,
      "name" : "model\/block_11_depthwise_BN\/FusedBatchNormV3_nchw",
      "has_batch_norm" : 0,
      "type" : "convolution",
      "n_groups" : 576,
      "pad_t" : 0,
      "has_biases" : 1,
      "C" : 576,
      "bottom" : "model\/block_11_expand_relu\/Relu6",
      "weights" : {

      },
      "Nx" : 3,
      "pad_mode" : 1,
      "pad_value" : 0,
      "Ny" : 3,
      "n_parallel" : 1,
      "blob_weights_f16" : 139
    },
    {
      "alpha" : -1,
      "bottom" : "model\/block_11_depthwise_relu\/Relu6__relu6_relu__",
      "weights" : {

      },
      "mode" : 6,
      "debug_info" : "model\/block_11_depthwise_relu\/Relu6__relu6_neg__",
      "top" : "model\/block_11_depthwise_relu\/Relu6__relu6_neg__",
      "type" : "activation",
      "name" : "model\/block_11_depthwise_relu\/Relu6__relu6_neg__",
      "beta" : 0
    },
    {
      "bottom" : "model\/block_11_depthwise_relu\/Relu6__relu6_neg__",
      "alpha" : -6,
      "operation" : 25,
      "weights" : {

      },
      "fused_relu" : 0,
      "debug_info" : "model\/block_11_depthwise_relu\/Relu6__relu6_threshold6__",
      "top" : "model\/block_11_depthwise_relu\/Relu6__relu6_threshold6__",
      "type" : "elementwise",
      "name" : "model\/block_11_depthwise_relu\/Relu6__relu6_threshold6__",
      "beta" : 0
    },
    {
      "alpha" : -1,
      "bottom" : "model\/block_11_depthwise_relu\/Relu6__relu6_threshold6__",
      "weights" : {

      },
      "mode" : 6,
      "debug_info" : "model\/block_11_depthwise_relu\/Relu6",
      "top" : "model\/block_11_depthwise_relu\/Relu6",
      "type" : "activation",
      "name" : "model\/block_11_depthwise_relu\/Relu6",
      "beta" : 0
    },
    {
      "pad_r" : 0,
      "fused_relu" : 0,
      "fused_tanh" : 0,
      "debug_info" : "model\/block_11_project_BN\/FusedBatchNormV3_nchw",
      "pad_fill_mode" : 0,
      "pad_b" : 0,
      "pad_l" : 0,
      "top" : "model\/block_11_project_BN\/FusedBatchNormV3_nchw",
      "K" : 576,
      "blob_biases" : 141,
      "name" : "model\/block_11_project_BN\/FusedBatchNormV3_nchw",
      "has_batch_norm" : 0,
      "type" : "convolution",
      "n_groups" : 1,
      "pad_t" : 0,
      "has_biases" : 1,
      "C" : 96,
      "bottom" : "model\/block_11_depthwise_relu\/Relu6",
      "weights" : {

      },
      "Nx" : 1,
      "pad_mode" : 1,
      "pad_value" : 0,
      "Ny" : 1,
      "n_parallel" : 1,
      "blob_weights_f16" : 143
    },
    {
      "bottom" : "model\/block_10_project_BN\/FusedBatchNormV3_nchw,model\/block_11_project_BN\/FusedBatchNormV3_nchw",
      "alpha" : 1,
      "operation" : 0,
      "weights" : {

      },
      "fused_relu" : 0,
      "debug_info" : "model\/block_11_add\/add",
      "top" : "model\/block_11_add\/add",
      "type" : "elementwise",
      "name" : "model\/block_11_add\/add",
      "beta" : 0
    },
    {
      "pad_r" : 0,
      "fused_relu" : 1,
      "fused_tanh" : 0,
      "debug_info" : "model\/block_12_expand_BN\/FusedBatchNormV3_nchw",
      "pad_fill_mode" : 0,
      "pad_b" : 0,
      "pad_l" : 0,
      "top" : "model\/block_12_expand_relu\/Relu6__relu6_relu__",
      "K" : 96,
      "blob_biases" : 145,
      "name" : "model\/block_12_expand_BN\/FusedBatchNormV3_nchw",
      "has_batch_norm" : 0,
      "type" : "convolution",
      "n_groups" : 1,
      "pad_t" : 0,
      "has_biases" : 1,
      "C" : 576,
      "bottom" : "model\/block_11_add\/add",
      "weights" : {

      },
      "Nx" : 1,
      "pad_mode" : 1,
      "pad_value" : 0,
      "Ny" : 1,
      "n_parallel" : 1,
      "blob_weights_f16" : 147
    },
    {
      "alpha" : -1,
      "bottom" : "model\/block_12_expand_relu\/Relu6__relu6_relu__",
      "weights" : {

      },
      "mode" : 6,
      "debug_info" : "model\/block_12_expand_relu\/Relu6__relu6_neg__",
      "top" : "model\/block_12_expand_relu\/Relu6__relu6_neg__",
      "type" : "activation",
      "name" : "model\/block_12_expand_relu\/Relu6__relu6_neg__",
      "beta" : 0
    },
    {
      "bottom" : "model\/block_12_expand_relu\/Relu6__relu6_neg__",
      "alpha" : -6,
      "operation" : 25,
      "weights" : {

      },
      "fused_relu" : 0,
      "debug_info" : "model\/block_12_expand_relu\/Relu6__relu6_threshold6__",
      "top" : "model\/block_12_expand_relu\/Relu6__relu6_threshold6__",
      "type" : "elementwise",
      "name" : "model\/block_12_expand_relu\/Relu6__relu6_threshold6__",
      "beta" : 0
    },
    {
      "alpha" : -1,
      "bottom" : "model\/block_12_expand_relu\/Relu6__relu6_threshold6__",
      "weights" : {

      },
      "mode" : 6,
      "debug_info" : "model\/block_12_expand_relu\/Relu6",
      "top" : "model\/block_12_expand_relu\/Relu6",
      "type" : "activation",
      "name" : "model\/block_12_expand_relu\/Relu6",
      "beta" : 0
    },
    {
      "pad_r" : 0,
      "fused_relu" : 1,
      "fused_tanh" : 0,
      "debug_info" : "model\/block_12_depthwise_BN\/FusedBatchNormV3_nchw",
      "pad_fill_mode" : 0,
      "pad_b" : 0,
      "pad_l" : 0,
      "top" : "model\/block_12_depthwise_relu\/Relu6__relu6_relu__",
      "K" : 576,
      "blob_biases" : 149,
      "name" : "model\/block_12_depthwise_BN\/FusedBatchNormV3_nchw",
      "has_batch_norm" : 0,
      "type" : "convolution",
      "n_groups" : 576,
      "pad_t" : 0,
      "has_biases" : 1,
      "C" : 576,
      "bottom" : "model\/block_12_expand_relu\/Relu6",
      "weights" : {

      },
      "Nx" : 3,
      "pad_mode" : 1,
      "pad_value" : 0,
      "Ny" : 3,
      "n_parallel" : 1,
      "blob_weights_f16" : 151
    },
    {
      "alpha" : -1,
      "bottom" : "model\/block_12_depthwise_relu\/Relu6__relu6_relu__",
      "weights" : {

      },
      "mode" : 6,
      "debug_info" : "model\/block_12_depthwise_relu\/Relu6__relu6_neg__",
      "top" : "model\/block_12_depthwise_relu\/Relu6__relu6_neg__",
      "type" : "activation",
      "name" : "model\/block_12_depthwise_relu\/Relu6__relu6_neg__",
      "beta" : 0
    },
    {
      "bottom" : "model\/block_12_depthwise_relu\/Relu6__relu6_neg__",
      "alpha" : -6,
      "operation" : 25,
      "weights" : {

      },
      "fused_relu" : 0,
      "debug_info" : "model\/block_12_depthwise_relu\/Relu6__relu6_threshold6__",
      "top" : "model\/block_12_depthwise_relu\/Relu6__relu6_threshold6__",
      "type" : "elementwise",
      "name" : "model\/block_12_depthwise_relu\/Relu6__relu6_threshold6__",
      "beta" : 0
    },
    {
      "alpha" : -1,
      "bottom" : "model\/block_12_depthwise_relu\/Relu6__relu6_threshold6__",
      "weights" : {

      },
      "mode" : 6,
      "debug_info" : "model\/block_12_depthwise_relu\/Relu6",
      "top" : "model\/block_12_depthwise_relu\/Relu6",
      "type" : "activation",
      "name" : "model\/block_12_depthwise_relu\/Relu6",
      "beta" : 0
    },
    {
      "pad_r" : 0,
      "fused_relu" : 0,
      "fused_tanh" : 0,
      "debug_info" : "model\/block_12_project_BN\/FusedBatchNormV3_nchw",
      "pad_fill_mode" : 0,
      "pad_b" : 0,
      "pad_l" : 0,
      "top" : "model\/block_12_project_BN\/FusedBatchNormV3_nchw",
      "K" : 576,
      "blob_biases" : 153,
      "name" : "model\/block_12_project_BN\/FusedBatchNormV3_nchw",
      "has_batch_norm" : 0,
      "type" : "convolution",
      "n_groups" : 1,
      "pad_t" : 0,
      "has_biases" : 1,
      "C" : 96,
      "bottom" : "model\/block_12_depthwise_relu\/Relu6",
      "weights" : {

      },
      "Nx" : 1,
      "pad_mode" : 1,
      "pad_value" : 0,
      "Ny" : 1,
      "n_parallel" : 1,
      "blob_weights_f16" : 155
    },
    {
      "bottom" : "model\/block_11_add\/add,model\/block_12_project_BN\/FusedBatchNormV3_nchw",
      "alpha" : 1,
      "operation" : 0,
      "weights" : {

      },
      "fused_relu" : 0,
      "debug_info" : "model\/block_12_add\/add",
      "top" : "model\/block_12_add\/add",
      "type" : "elementwise",
      "name" : "model\/block_12_add\/add",
      "beta" : 0
    },
    {
      "top" : "model\/up_sampling2d\/resize\/ResizeNearestNeighbor_channel_first_resize",
      "use_fractional_scale_factors" : false,
      "weights" : {

      },
      "fractional_scaling_factor_y" : 1,
      "type" : "upsample",
      "scaling_factor_x" : 2,
      "mode" : 0,
      "align_corners" : 0,
      "bottom" : "model\/block_12_add\/add",
      "debug_info" : "model\/up_sampling2d\/resize\/ResizeNearestNeighbor_channel_first_resize",
      "fractional_scaling_factor_x" : 1,
      "is_legacy_mode" : 1,
      "name" : "model\/up_sampling2d\/resize\/ResizeNearestNeighbor_channel_first_resize",
      "scaling_factor_y" : 2
    },
    {
      "weights" : {

      },
      "debug_info" : "model\/concatenate\/concat",
      "top" : "model\/concatenate\/concat",
      "type" : "concat",
      "name" : "model\/concatenate\/concat",
      "bottom" : "model\/up_sampling2d\/resize\/ResizeNearestNeighbor_channel_first_resize,model\/block_5_add\/add"
    },
    {
      "pad_r" : 0,
      "fused_relu" : 0,
      "fused_tanh" : 0,
      "debug_info" : "model\/batch_normalization\/FusedBatchNormV3_nchw",
      "pad_fill_mode" : 0,
      "pad_b" : 0,
      "pad_l" : 0,
      "top" : "model\/batch_normalization\/FusedBatchNormV3_nchw",
      "K" : 128,
      "blob_biases" : 157,
      "name" : "model\/batch_normalization\/FusedBatchNormV3_nchw",
      "has_batch_norm" : 0,
      "type" : "convolution",
      "n_groups" : 1,
      "pad_t" : 0,
      "has_biases" : 1,
      "C" : 128,
      "bottom" : "model\/concatenate\/concat",
      "weights" : {

      },
      "Nx" : 1,
      "pad_mode" : 0,
      "pad_value" : 0,
      "Ny" : 1,
      "n_parallel" : 1,
      "blob_weights_f16" : 159
    },
    {
      "pad_r" : 0,
      "fused_relu" : 1,
      "fused_tanh" : 0,
      "debug_info" : "model\/batch_normalization_1\/FusedBatchNormV3_nchw",
      "pad_fill_mode" : 0,
      "pad_b" : 0,
      "pad_l" : 0,
      "top" : "model\/activation\/Relu",
      "K" : 128,
      "blob_biases" : 161,
      "name" : "model\/batch_normalization_1\/FusedBatchNormV3_nchw",
      "has_batch_norm" : 0,
      "type" : "convolution",
      "n_groups" : 128,
      "pad_t" : 0,
      "has_biases" : 1,
      "C" : 128,
      "bottom" : "model\/batch_normalization\/FusedBatchNormV3_nchw",
      "weights" : {

      },
      "Nx" : 3,
      "pad_mode" : 1,
      "pad_value" : 0,
      "Ny" : 3,
      "n_parallel" : 1,
      "blob_weights_f16" : 163
    },
    {
      "pad_r" : 0,
      "fused_relu" : 1,
      "fused_tanh" : 0,
      "debug_info" : "model\/batch_normalization_2\/FusedBatchNormV3_nchw",
      "pad_fill_mode" : 0,
      "pad_b" : 0,
      "pad_l" : 0,
      "top" : "model\/activation_1\/Relu",
      "K" : 128,
      "blob_biases" : 165,
      "name" : "model\/batch_normalization_2\/FusedBatchNormV3_nchw",
      "has_batch_norm" : 0,
      "type" : "convolution",
      "n_groups" : 1,
      "pad_t" : 0,
      "has_biases" : 1,
      "C" : 128,
      "bottom" : "model\/activation\/Relu",
      "weights" : {

      },
      "Nx" : 1,
      "pad_mode" : 0,
      "pad_value" : 0,
      "Ny" : 1,
      "n_parallel" : 1,
      "blob_weights_f16" : 167
    },
    {
      "pad_r" : 0,
      "fused_relu" : 1,
      "fused_tanh" : 0,
      "debug_info" : "model\/batch_normalization_3\/FusedBatchNormV3_nchw",
      "pad_fill_mode" : 0,
      "pad_b" : 0,
      "pad_l" : 0,
      "top" : "model\/activation_2\/Relu",
      "K" : 128,
      "blob_biases" : 169,
      "name" : "model\/batch_normalization_3\/FusedBatchNormV3_nchw",
      "has_batch_norm" : 0,
      "type" : "convolution",
      "n_groups" : 128,
      "pad_t" : 0,
      "has_biases" : 1,
      "C" : 128,
      "bottom" : "model\/activation_1\/Relu",
      "weights" : {

      },
      "Nx" : 3,
      "pad_mode" : 1,
      "pad_value" : 0,
      "Ny" : 3,
      "n_parallel" : 1,
      "blob_weights_f16" : 171
    },
    {
      "bottom" : "model\/batch_normalization\/FusedBatchNormV3_nchw,model\/activation_2\/Relu",
      "alpha" : 1,
      "operation" : 0,
      "weights" : {

      },
      "fused_relu" : 0,
      "debug_info" : "model\/add\/add",
      "top" : "model\/add\/add",
      "type" : "elementwise",
      "name" : "model\/add\/add",
      "beta" : 0
    },
    {
      "pad_r" : 0,
      "fused_relu" : 1,
      "fused_tanh" : 0,
      "debug_info" : "model\/batch_normalization_12\/FusedBatchNormV3_nchw",
      "pad_fill_mode" : 0,
      "pad_b" : 0,
      "pad_l" : 0,
      "top" : "model\/activation_13\/Relu",
      "K" : 128,
      "blob_biases" : 173,
      "name" : "model\/batch_normalization_12\/FusedBatchNormV3_nchw",
      "has_batch_norm" : 0,
      "type" : "convolution",
      "n_groups" : 1,
      "pad_t" : 0,
      "has_biases" : 1,
      "C" : 4,
      "bottom" : "model\/add\/add",
      "weights" : {

      },
      "Nx" : 1,
      "pad_mode" : 0,
      "pad_value" : 0,
      "Ny" : 1,
      "n_parallel" : 1,
      "blob_weights_f16" : 175
    },
    {
      "top" : "model\/up_sampling2d_1\/resize\/ResizeNearestNeighbor_channel_first_resize",
      "use_fractional_scale_factors" : false,
      "weights" : {

      },
      "fractional_scaling_factor_y" : 1,
      "type" : "upsample",
      "scaling_factor_x" : 2,
      "mode" : 0,
      "align_corners" : 0,
      "bottom" : "model\/add\/add",
      "debug_info" : "model\/up_sampling2d_1\/resize\/ResizeNearestNeighbor_channel_first_resize",
      "fractional_scaling_factor_x" : 1,
      "is_legacy_mode" : 1,
      "name" : "model\/up_sampling2d_1\/resize\/ResizeNearestNeighbor_channel_first_resize",
      "scaling_factor_y" : 2
    },
    {
      "pad_r" : 0,
      "fused_relu" : 0,
      "fused_tanh" : 0,
      "debug_info" : "model\/conv2d_2\/BiasAdd",
      "pad_fill_mode" : 0,
      "pad_b" : 0,
      "pad_l" : 0,
      "top" : "model\/conv2d_2\/BiasAdd",
      "K" : 128,
      "blob_biases" : 177,
      "name" : "model\/conv2d_2\/BiasAdd",
      "has_batch_norm" : 0,
      "type" : "convolution",
      "n_groups" : 1,
      "pad_t" : 0,
      "has_biases" : 1,
      "C" : 24,
      "bottom" : "model\/up_sampling2d_1\/resize\/ResizeNearestNeighbor_channel_first_resize",
      "weights" : {

      },
      "Nx" : 1,
      "pad_mode" : 0,
      "pad_value" : 0,
      "Ny" : 1,
      "n_parallel" : 1,
      "blob_weights_f16" : 179
    },
    {
      "weights" : {

      },
      "debug_info" : "model\/concatenate_1\/concat",
      "top" : "model\/concatenate_1\/concat",
      "type" : "concat",
      "name" : "model\/concatenate_1\/concat",
      "bottom" : "model\/conv2d_2\/BiasAdd,model\/block_2_add\/add"
    },
    {
      "top" : "model\/up_sampling2d_3\/resize\/ResizeNearestNeighbor_channel_first_resize",
      "use_fractional_scale_factors" : false,
      "weights" : {

      },
      "fractional_scaling_factor_y" : 1,
      "type" : "upsample",
      "scaling_factor_x" : 4,
      "mode" : 0,
      "align_corners" : 0,
      "bottom" : "model\/activation_13\/Relu",
      "debug_info" : "model\/up_sampling2d_3\/resize\/ResizeNearestNeighbor_channel_first_resize",
      "fractional_scaling_factor_x" : 1,
      "is_legacy_mode" : 1,
      "name" : "model\/up_sampling2d_3\/resize\/ResizeNearestNeighbor_channel_first_resize",
      "scaling_factor_y" : 4
    },
    {
      "pad_r" : 0,
      "debug_info" : "model\/tf.math.reduce_mean\/Mean",
      "pad_fill_mode" : 0,
      "pad_b" : 0,
      "pad_l" : 0,
      "size_x" : 64,
      "is_global" : 1,
      "top" : "model\/tf.math.reduce_mean\/Mean",
      "top_shape_style" : 0,
      "stride_x" : 1,
      "avg_or_max" : 0,
      "average_count_exclude_padding" : 1,
      "type" : "pool",
      "name" : "model\/tf.math.reduce_mean\/Mean",
      "pad_t" : 0,
      "stride_y" : 1,
      "bottom" : "model\/concatenate_1\/concat",
      "weights" : {

      },
      "pad_mode" : 2,
      "size_y" : 36,
      "pad_value" : 0
    },
    {
      "pad_r" : 0,
      "fused_relu" : 1,
      "fused_tanh" : 0,
      "debug_info" : "model\/conv2d_3\/BiasAdd",
      "pad_fill_mode" : 0,
      "pad_b" : 0,
      "pad_l" : 0,
      "top" : "model\/activation_3\/Relu",
      "K" : 48,
      "blob_biases" : 181,
      "name" : "model\/conv2d_3\/BiasAdd",
      "has_batch_norm" : 0,
      "type" : "convolution",
      "n_groups" : 1,
      "pad_t" : 0,
      "has_biases" : 1,
      "C" : 24,
      "bottom" : "model\/tf.math.reduce_mean\/Mean",
      "weights" : {

      },
      "Nx" : 1,
      "pad_mode" : 0,
      "pad_value" : 0,
      "Ny" : 1,
      "n_parallel" : 1,
      "blob_weights_f16" : 183
    },
    {
      "pad_r" : 0,
      "fused_relu" : 0,
      "fused_tanh" : 0,
      "debug_info" : "model\/conv2d_transpose\/BiasAdd",
      "pad_fill_mode" : 0,
      "pad_b" : 0,
      "pad_l" : 0,
      "top" : "model\/conv2d_transpose\/BiasAdd",
      "K" : 4,
      "blob_biases" : 185,
      "stride_x" : 2,
      "name" : "model\/conv2d_transpose\/BiasAdd",
      "deconv_out_height" : 144,
      "has_batch_norm" : 0,
      "type" : "deconvolution",
      "n_groups" : 1,
      "pad_t" : 0,
      "stride_y" : 2,
      "has_biases" : 1,
      "C" : 1,
      "bottom" : "model\/up_sampling2d_3\/resize\/ResizeNearestNeighbor_channel_first_resize",
      "weights" : {

      },
      "Nx" : 4,
      "pad_mode" : 1,
      "deconv_out_width" : 256,
      "pad_value" : 0,
      "Ny" : 4,
      "n_parallel" : 1,
      "blob_weights_f16" : 187
    },
    {
      "pad_r" : 0,
      "fused_relu" : 0,
      "fused_tanh" : 0,
      "debug_info" : "model\/conv2d_4\/BiasAdd",
      "pad_fill_mode" : 0,
      "pad_b" : 0,
      "pad_l" : 0,
      "top" : "model\/conv2d_4\/BiasAdd",
      "K" : 24,
      "blob_biases" : 189,
      "name" : "model\/conv2d_4\/BiasAdd",
      "has_batch_norm" : 0,
      "type" : "convolution",
      "n_groups" : 1,
      "pad_t" : 0,
      "has_biases" : 1,
      "C" : 24,
      "bottom" : "model\/activation_3\/Relu",
      "weights" : {

      },
      "Nx" : 1,
      "pad_mode" : 0,
      "pad_value" : 0,
      "Ny" : 1,
      "n_parallel" : 1,
      "blob_weights_f16" : 191
    },
    {
      "bottom" : "model\/conv2d_4\/BiasAdd",
      "weights" : {

      },
      "mode" : 3,
      "debug_info" : "model\/activation_4\/Sigmoid",
      "top" : "model\/activation_4\/Sigmoid",
      "type" : "activation",
      "name" : "model\/activation_4\/Sigmoid"
    },
    {
      "bottom" : "model\/block_2_add\/add,model\/activation_4\/Sigmoid",
      "alpha" : 1,
      "operation" : 1,
      "weights" : {

      },
      "fused_relu" : 0,
      "debug_info" : "model\/multiply\/mul",
      "top" : "model\/multiply\/mul",
      "type" : "elementwise",
      "name" : "model\/multiply\/mul",
      "beta" : 0
    },
    {
      "bottom" : "model\/conv2d_2\/BiasAdd,model\/multiply\/mul",
      "alpha" : 1,
      "operation" : 0,
      "weights" : {

      },
      "fused_relu" : 0,
      "debug_info" : "model\/add_1\/add",
      "top" : "model\/add_1\/add",
      "type" : "elementwise",
      "name" : "model\/add_1\/add",
      "beta" : 0
    },
    {
      "pad_r" : 0,
      "fused_relu" : 0,
      "fused_tanh" : 0,
      "debug_info" : "model\/batch_normalization_4\/FusedBatchNormV3_nchw",
      "pad_fill_mode" : 0,
      "pad_b" : 0,
      "pad_l" : 0,
      "top" : "model\/batch_normalization_4\/FusedBatchNormV3_nchw",
      "K" : 24,
      "blob_biases" : 193,
      "name" : "model\/batch_normalization_4\/FusedBatchNormV3_nchw",
      "has_batch_norm" : 0,
      "type" : "convolution",
      "n_groups" : 1,
      "pad_t" : 0,
      "has_biases" : 1,
      "C" : 24,
      "bottom" : "model\/add_1\/add",
      "weights" : {

      },
      "Nx" : 1,
      "pad_mode" : 0,
      "pad_value" : 0,
      "Ny" : 1,
      "n_parallel" : 1,
      "blob_weights_f16" : 195
    },
    {
      "pad_r" : 0,
      "fused_relu" : 1,
      "fused_tanh" : 0,
      "debug_info" : "model\/batch_normalization_5\/FusedBatchNormV3_nchw",
      "pad_fill_mode" : 0,
      "pad_b" : 0,
      "pad_l" : 0,
      "top" : "model\/activation_5\/Relu",
      "K" : 24,
      "blob_biases" : 197,
      "name" : "model\/batch_normalization_5\/FusedBatchNormV3_nchw",
      "has_batch_norm" : 0,
      "type" : "convolution",
      "n_groups" : 24,
      "pad_t" : 0,
      "has_biases" : 1,
      "C" : 24,
      "bottom" : "model\/batch_normalization_4\/FusedBatchNormV3_nchw",
      "weights" : {

      },
      "Nx" : 3,
      "pad_mode" : 1,
      "pad_value" : 0,
      "Ny" : 3,
      "n_parallel" : 1,
      "blob_weights_f16" : 199
    },
    {
      "pad_r" : 0,
      "fused_relu" : 1,
      "fused_tanh" : 0,
      "debug_info" : "model\/batch_normalization_6\/FusedBatchNormV3_nchw",
      "pad_fill_mode" : 0,
      "pad_b" : 0,
      "pad_l" : 0,
      "top" : "model\/activation_6\/Relu",
      "K" : 24,
      "blob_biases" : 201,
      "name" : "model\/batch_normalization_6\/FusedBatchNormV3_nchw",
      "has_batch_norm" : 0,
      "type" : "convolution",
      "n_groups" : 1,
      "pad_t" : 0,
      "has_biases" : 1,
      "C" : 24,
      "bottom" : "model\/activation_5\/Relu",
      "weights" : {

      },
      "Nx" : 1,
      "pad_mode" : 0,
      "pad_value" : 0,
      "Ny" : 1,
      "n_parallel" : 1,
      "blob_weights_f16" : 203
    },
    {
      "pad_r" : 0,
      "fused_relu" : 1,
      "fused_tanh" : 0,
      "debug_info" : "model\/batch_normalization_7\/FusedBatchNormV3_nchw",
      "pad_fill_mode" : 0,
      "pad_b" : 0,
      "pad_l" : 0,
      "top" : "model\/activation_7\/Relu",
      "K" : 24,
      "blob_biases" : 205,
      "name" : "model\/batch_normalization_7\/FusedBatchNormV3_nchw",
      "has_batch_norm" : 0,
      "type" : "convolution",
      "n_groups" : 24,
      "pad_t" : 0,
      "has_biases" : 1,
      "C" : 24,
      "bottom" : "model\/activation_6\/Relu",
      "weights" : {

      },
      "Nx" : 3,
      "pad_mode" : 1,
      "pad_value" : 0,
      "Ny" : 3,
      "n_parallel" : 1,
      "blob_weights_f16" : 207
    },
    {
      "bottom" : "model\/batch_normalization_4\/FusedBatchNormV3_nchw,model\/activation_7\/Relu",
      "alpha" : 1,
      "operation" : 0,
      "weights" : {

      },
      "fused_relu" : 0,
      "debug_info" : "model\/add_2\/add",
      "top" : "model\/add_2\/add",
      "type" : "elementwise",
      "name" : "model\/add_2\/add",
      "beta" : 0
    },
    {
      "top" : "model\/up_sampling2d_2\/resize\/ResizeNearestNeighbor_channel_first_resize",
      "use_fractional_scale_factors" : false,
      "weights" : {

      },
      "fractional_scaling_factor_y" : 1,
      "type" : "upsample",
      "scaling_factor_x" : 2,
      "mode" : 0,
      "align_corners" : 0,
      "bottom" : "model\/add_2\/add",
      "debug_info" : "model\/up_sampling2d_2\/resize\/ResizeNearestNeighbor_channel_first_resize",
      "fractional_scaling_factor_x" : 1,
      "is_legacy_mode" : 1,
      "name" : "model\/up_sampling2d_2\/resize\/ResizeNearestNeighbor_channel_first_resize",
      "scaling_factor_y" : 2
    },
    {
      "pad_r" : 0,
      "fused_relu" : 0,
      "fused_tanh" : 0,
      "debug_info" : "model\/conv2d_7\/BiasAdd",
      "pad_fill_mode" : 0,
      "pad_b" : 0,
      "pad_l" : 0,
      "top" : "model\/conv2d_7\/BiasAdd",
      "K" : 24,
      "blob_biases" : 209,
      "name" : "model\/conv2d_7\/BiasAdd",
      "has_batch_norm" : 0,
      "type" : "convolution",
      "n_groups" : 1,
      "pad_t" : 0,
      "has_biases" : 1,
      "C" : 16,
      "bottom" : "model\/up_sampling2d_2\/resize\/ResizeNearestNeighbor_channel_first_resize",
      "weights" : {

      },
      "Nx" : 1,
      "pad_mode" : 0,
      "pad_value" : 0,
      "Ny" : 1,
      "n_parallel" : 1,
      "blob_weights_f16" : 211
    },
    {
      "weights" : {

      },
      "debug_info" : "model\/concatenate_2\/concat",
      "top" : "model\/concatenate_2\/concat",
      "type" : "concat",
      "name" : "model\/concatenate_2\/concat",
      "bottom" : "model\/conv2d_7\/BiasAdd,model\/expanded_conv_project_BN\/FusedBatchNormV3_nchw"
    },
    {
      "pad_r" : 0,
      "debug_info" : "model\/tf.math.reduce_mean_1\/Mean",
      "pad_fill_mode" : 0,
      "pad_b" : 0,
      "pad_l" : 0,
      "size_x" : 128,
      "is_global" : 1,
      "top" : "model\/tf.math.reduce_mean_1\/Mean",
      "top_shape_style" : 0,
      "stride_x" : 1,
      "avg_or_max" : 0,
      "average_count_exclude_padding" : 1,
      "type" : "pool",
      "name" : "model\/tf.math.reduce_mean_1\/Mean",
      "pad_t" : 0,
      "stride_y" : 1,
      "bottom" : "model\/concatenate_2\/concat",
      "weights" : {

      },
      "pad_mode" : 2,
      "size_y" : 72,
      "pad_value" : 0
    },
    {
      "pad_r" : 0,
      "fused_relu" : 1,
      "fused_tanh" : 0,
      "debug_info" : "model\/conv2d_8\/BiasAdd",
      "pad_fill_mode" : 0,
      "pad_b" : 0,
      "pad_l" : 0,
      "top" : "model\/activation_8\/Relu",
      "K" : 32,
      "blob_biases" : 213,
      "name" : "model\/conv2d_8\/BiasAdd",
      "has_batch_norm" : 0,
      "type" : "convolution",
      "n_groups" : 1,
      "pad_t" : 0,
      "has_biases" : 1,
      "C" : 16,
      "bottom" : "model\/tf.math.reduce_mean_1\/Mean",
      "weights" : {

      },
      "Nx" : 1,
      "pad_mode" : 0,
      "pad_value" : 0,
      "Ny" : 1,
      "n_parallel" : 1,
      "blob_weights_f16" : 215
    },
    {
      "pad_r" : 0,
      "fused_relu" : 0,
      "fused_tanh" : 0,
      "debug_info" : "model\/conv2d_9\/BiasAdd",
      "pad_fill_mode" : 0,
      "pad_b" : 0,
      "pad_l" : 0,
      "top" : "model\/conv2d_9\/BiasAdd",
      "K" : 16,
      "blob_biases" : 217,
      "name" : "model\/conv2d_9\/BiasAdd",
      "has_batch_norm" : 0,
      "type" : "convolution",
      "n_groups" : 1,
      "pad_t" : 0,
      "has_biases" : 1,
      "C" : 16,
      "bottom" : "model\/activation_8\/Relu",
      "weights" : {

      },
      "Nx" : 1,
      "pad_mode" : 0,
      "pad_value" : 0,
      "Ny" : 1,
      "n_parallel" : 1,
      "blob_weights_f16" : 219
    },
    {
      "bottom" : "model\/conv2d_9\/BiasAdd",
      "weights" : {

      },
      "mode" : 3,
      "debug_info" : "model\/activation_9\/Sigmoid",
      "top" : "model\/activation_9\/Sigmoid",
      "type" : "activation",
      "name" : "model\/activation_9\/Sigmoid"
    },
    {
      "bottom" : "model\/expanded_conv_project_BN\/FusedBatchNormV3_nchw,model\/activation_9\/Sigmoid",
      "alpha" : 1,
      "operation" : 1,
      "weights" : {

      },
      "fused_relu" : 0,
      "debug_info" : "model\/multiply_1\/mul",
      "top" : "model\/multiply_1\/mul",
      "type" : "elementwise",
      "name" : "model\/multiply_1\/mul",
      "beta" : 0
    },
    {
      "bottom" : "model\/conv2d_7\/BiasAdd,model\/multiply_1\/mul",
      "alpha" : 1,
      "operation" : 0,
      "weights" : {

      },
      "fused_relu" : 0,
      "debug_info" : "model\/add_3\/add",
      "top" : "model\/add_3\/add",
      "type" : "elementwise",
      "name" : "model\/add_3\/add",
      "beta" : 0
    },
    {
      "pad_r" : 0,
      "fused_relu" : 0,
      "fused_tanh" : 0,
      "debug_info" : "model\/batch_normalization_8\/FusedBatchNormV3_nchw",
      "pad_fill_mode" : 0,
      "pad_b" : 0,
      "pad_l" : 0,
      "top" : "model\/batch_normalization_8\/FusedBatchNormV3_nchw",
      "K" : 16,
      "blob_biases" : 221,
      "name" : "model\/batch_normalization_8\/FusedBatchNormV3_nchw",
      "has_batch_norm" : 0,
      "type" : "convolution",
      "n_groups" : 1,
      "pad_t" : 0,
      "has_biases" : 1,
      "C" : 16,
      "bottom" : "model\/add_3\/add",
      "weights" : {

      },
      "Nx" : 1,
      "pad_mode" : 0,
      "pad_value" : 0,
      "Ny" : 1,
      "n_parallel" : 1,
      "blob_weights_f16" : 223
    },
    {
      "pad_r" : 0,
      "fused_relu" : 1,
      "fused_tanh" : 0,
      "debug_info" : "model\/batch_normalization_9\/FusedBatchNormV3_nchw",
      "pad_fill_mode" : 0,
      "pad_b" : 0,
      "pad_l" : 0,
      "top" : "model\/activation_10\/Relu",
      "K" : 16,
      "blob_biases" : 225,
      "name" : "model\/batch_normalization_9\/FusedBatchNormV3_nchw",
      "has_batch_norm" : 0,
      "type" : "convolution",
      "n_groups" : 16,
      "pad_t" : 0,
      "has_biases" : 1,
      "C" : 16,
      "bottom" : "model\/batch_normalization_8\/FusedBatchNormV3_nchw",
      "weights" : {

      },
      "Nx" : 3,
      "pad_mode" : 1,
      "pad_value" : 0,
      "Ny" : 3,
      "n_parallel" : 1,
      "blob_weights_f16" : 227
    },
    {
      "pad_r" : 0,
      "fused_relu" : 1,
      "fused_tanh" : 0,
      "debug_info" : "model\/batch_normalization_10\/FusedBatchNormV3_nchw",
      "pad_fill_mode" : 0,
      "pad_b" : 0,
      "pad_l" : 0,
      "top" : "model\/activation_11\/Relu",
      "K" : 16,
      "blob_biases" : 229,
      "name" : "model\/batch_normalization_10\/FusedBatchNormV3_nchw",
      "has_batch_norm" : 0,
      "type" : "convolution",
      "n_groups" : 1,
      "pad_t" : 0,
      "has_biases" : 1,
      "C" : 16,
      "bottom" : "model\/activation_10\/Relu",
      "weights" : {

      },
      "Nx" : 1,
      "pad_mode" : 0,
      "pad_value" : 0,
      "Ny" : 1,
      "n_parallel" : 1,
      "blob_weights_f16" : 231
    },
    {
      "pad_r" : 0,
      "fused_relu" : 1,
      "fused_tanh" : 0,
      "debug_info" : "model\/batch_normalization_11\/FusedBatchNormV3_nchw",
      "pad_fill_mode" : 0,
      "pad_b" : 0,
      "pad_l" : 0,
      "top" : "model\/activation_12\/Relu",
      "K" : 16,
      "blob_biases" : 233,
      "name" : "model\/batch_normalization_11\/FusedBatchNormV3_nchw",
      "has_batch_norm" : 0,
      "type" : "convolution",
      "n_groups" : 16,
      "pad_t" : 0,
      "has_biases" : 1,
      "C" : 16,
      "bottom" : "model\/activation_11\/Relu",
      "weights" : {

      },
      "Nx" : 3,
      "pad_mode" : 1,
      "pad_value" : 0,
      "Ny" : 3,
      "n_parallel" : 1,
      "blob_weights_f16" : 235
    },
    {
      "bottom" : "model\/batch_normalization_8\/FusedBatchNormV3_nchw,model\/activation_12\/Relu",
      "alpha" : 1,
      "operation" : 0,
      "weights" : {

      },
      "fused_relu" : 0,
      "debug_info" : "model\/add_4\/add",
      "top" : "model\/add_4\/add",
      "type" : "elementwise",
      "name" : "model\/add_4\/add",
      "beta" : 0
    },
    {
      "pad_r" : 0,
      "fused_relu" : 0,
      "fused_tanh" : 0,
      "debug_info" : "model\/conv2d_transpose_1\/BiasAdd",
      "pad_fill_mode" : 0,
      "pad_b" : 0,
      "pad_l" : 0,
      "top" : "model\/conv2d_transpose_1\/BiasAdd",
      "K" : 16,
      "blob_biases" : 237,
      "stride_x" : 2,
      "name" : "model\/conv2d_transpose_1\/BiasAdd",
      "deconv_out_height" : 144,
      "has_batch_norm" : 0,
      "type" : "deconvolution",
      "n_groups" : 1,
      "pad_t" : 0,
      "stride_y" : 2,
      "has_biases" : 1,
      "C" : 1,
      "bottom" : "model\/add_4\/add",
      "weights" : {

      },
      "Nx" : 4,
      "pad_mode" : 1,
      "deconv_out_width" : 256,
      "pad_value" : 0,
      "Ny" : 4,
      "n_parallel" : 1,
      "blob_weights_f16" : 239
    },
    {
      "bottom" : "model\/conv2d_transpose\/BiasAdd,model\/conv2d_transpose_1\/BiasAdd",
      "alpha" : 1,
      "operation" : 0,
      "weights" : {

      },
      "fused_relu" : 0,
      "debug_info" : "model\/add_5\/add",
      "top" : "model\/add_5\/add",
      "type" : "elementwise",
      "name" : "model\/add_5\/add",
      "beta" : 0
    },
    {
      "bottom" : "model\/add_5\/add",
      "weights" : {

      },
      "mode" : 3,
      "debug_info" : "_before_transpose_op_Identity",
      "top" : "output1",
      "type" : "activation",
      "name" : "_before_transpose_op_Identity",
      "attributes" : {
        "is_output" : 1
      }
    }
  ]
}