{
  "storage" : "model.espresso.weights",
  "analyses" : {

  },
  "properties" : {

  },
  "format_version" : 200,
  "metadata_in_weights" : [

  ],
  "layers" : [
    {
      "pad_r" : 2,
      "fused_relu" : 0,
      "fused_tanh" : 0,
      "debug_info" : "Conv_0",
      "pad_fill_mode" : 0,
      "pad_b" : 2,
      "pad_l" : 2,
      "top" : "122",
      "K" : 3,
      "blob_biases" : 1,
      "stride_x" : 2,
      "name" : "Conv_0",
      "has_batch_norm" : 0,
      "type" : "convolution",
      "n_groups" : 1,
      "pad_t" : 2,
      "stride_y" : 2,
      "has_biases" : 1,
      "C" : 16,
      "bottom" : "input",
      "weights" : {

      },
      "Nx" : 6,
      "pad_mode" : 0,
      "pad_value" : 0,
      "Ny" : 6,
      "n_parallel" : 1,
      "blob_weights_f16" : 3
    },
    {
      "bottom" : "122",
      "weights" : {

      },
      "mode" : 3,
      "debug_info" : "Sigmoid_1",
      "top" : "123",
      "type" : "activation",
      "name" : "Sigmoid_1"
    },
    {
      "bottom" : "122,123",
      "alpha" : 1,
      "operation" : 1,
      "weights" : {

      },
      "fused_relu" : 0,
      "debug_info" : "Mul_2",
      "top" : "124",
      "type" : "elementwise",
      "name" : "Mul_2",
      "beta" : 0
    },
    {
      "pad_r" : 1,
      "fused_relu" : 0,
      "fused_tanh" : 0,
      "debug_info" : "Conv_3",
      "pad_fill_mode" : 0,
      "pad_b" : 1,
      "pad_l" : 1,
      "top" : "125",
      "K" : 16,
      "blob_biases" : 5,
      "stride_x" : 2,
      "name" : "Conv_3",
      "has_batch_norm" : 0,
      "type" : "convolution",
      "n_groups" : 1,
      "pad_t" : 1,
      "stride_y" : 2,
      "has_biases" : 1,
      "C" : 32,
      "bottom" : "124",
      "weights" : {

      },
      "Nx" : 3,
      "pad_mode" : 0,
      "pad_value" : 0,
      "Ny" : 3,
      "n_parallel" : 1,
      "blob_weights_f16" : 7
    },
    {
      "bottom" : "125",
      "weights" : {

      },
      "mode" : 3,
      "debug_info" : "Sigmoid_4",
      "top" : "126",
      "type" : "activation",
      "name" : "Sigmoid_4"
    },
    {
      "bottom" : "125,126",
      "alpha" : 1,
      "operation" : 1,
      "weights" : {

      },
      "fused_relu" : 0,
      "debug_info" : "Mul_5",
      "top" : "127",
      "type" : "elementwise",
      "name" : "Mul_5",
      "beta" : 0
    },
    {
      "pad_r" : 0,
      "fused_relu" : 0,
      "fused_tanh" : 0,
      "debug_info" : "Conv_6",
      "pad_fill_mode" : 0,
      "pad_b" : 0,
      "pad_l" : 0,
      "top" : "128",
      "K" : 32,
      "blob_biases" : 9,
      "name" : "Conv_6",
      "has_batch_norm" : 0,
      "type" : "convolution",
      "n_groups" : 1,
      "pad_t" : 0,
      "has_biases" : 1,
      "C" : 16,
      "bottom" : "127",
      "weights" : {

      },
      "Nx" : 1,
      "pad_mode" : 0,
      "pad_value" : 0,
      "Ny" : 1,
      "n_parallel" : 1,
      "blob_weights_f16" : 11
    },
    {
      "bottom" : "128",
      "weights" : {

      },
      "mode" : 3,
      "debug_info" : "Sigmoid_7",
      "top" : "129",
      "type" : "activation",
      "name" : "Sigmoid_7"
    },
    {
      "bottom" : "128,129",
      "alpha" : 1,
      "operation" : 1,
      "weights" : {

      },
      "fused_relu" : 0,
      "debug_info" : "Mul_8",
      "top" : "130",
      "type" : "elementwise",
      "name" : "Mul_8",
      "beta" : 0
    },
    {
      "pad_r" : 0,
      "fused_relu" : 0,
      "fused_tanh" : 0,
      "debug_info" : "Conv_9",
      "pad_fill_mode" : 0,
      "pad_b" : 0,
      "pad_l" : 0,
      "top" : "131",
      "K" : 16,
      "blob_biases" : 13,
      "name" : "Conv_9",
      "has_batch_norm" : 0,
      "type" : "convolution",
      "n_groups" : 1,
      "pad_t" : 0,
      "has_biases" : 1,
      "C" : 16,
      "bottom" : "130",
      "weights" : {

      },
      "Nx" : 1,
      "pad_mode" : 0,
      "pad_value" : 0,
      "Ny" : 1,
      "n_parallel" : 1,
      "blob_weights_f16" : 15
    },
    {
      "bottom" : "131",
      "weights" : {

      },
      "mode" : 3,
      "debug_info" : "Sigmoid_10",
      "top" : "132",
      "type" : "activation",
      "name" : "Sigmoid_10"
    },
    {
      "bottom" : "131,132",
      "alpha" : 1,
      "operation" : 1,
      "weights" : {

      },
      "fused_relu" : 0,
      "debug_info" : "Mul_11",
      "top" : "133",
      "type" : "elementwise",
      "name" : "Mul_11",
      "beta" : 0
    },
    {
      "pad_r" : 1,
      "fused_relu" : 0,
      "fused_tanh" : 0,
      "debug_info" : "Conv_12",
      "pad_fill_mode" : 0,
      "pad_b" : 1,
      "pad_l" : 1,
      "top" : "134",
      "K" : 16,
      "blob_biases" : 17,
      "name" : "Conv_12",
      "has_batch_norm" : 0,
      "type" : "convolution",
      "n_groups" : 1,
      "pad_t" : 1,
      "has_biases" : 1,
      "C" : 16,
      "bottom" : "133",
      "weights" : {

      },
      "Nx" : 3,
      "pad_mode" : 0,
      "pad_value" : 0,
      "Ny" : 3,
      "n_parallel" : 1,
      "blob_weights_f16" : 19
    },
    {
      "bottom" : "134",
      "weights" : {

      },
      "mode" : 3,
      "debug_info" : "Sigmoid_13",
      "top" : "135",
      "type" : "activation",
      "name" : "Sigmoid_13"
    },
    {
      "bottom" : "134,135",
      "alpha" : 1,
      "operation" : 1,
      "weights" : {

      },
      "fused_relu" : 0,
      "debug_info" : "Mul_14",
      "top" : "136",
      "type" : "elementwise",
      "name" : "Mul_14",
      "beta" : 0
    },
    {
      "bottom" : "130,136",
      "alpha" : 1,
      "operation" : 0,
      "weights" : {

      },
      "fused_relu" : 0,
      "debug_info" : "Add_15",
      "top" : "137",
      "type" : "elementwise",
      "name" : "Add_15",
      "beta" : 0
    },
    {
      "pad_r" : 0,
      "fused_relu" : 0,
      "fused_tanh" : 0,
      "debug_info" : "Conv_16",
      "pad_fill_mode" : 0,
      "pad_b" : 0,
      "pad_l" : 0,
      "top" : "138",
      "K" : 32,
      "blob_biases" : 21,
      "name" : "Conv_16",
      "has_batch_norm" : 0,
      "type" : "convolution",
      "n_groups" : 1,
      "pad_t" : 0,
      "has_biases" : 1,
      "C" : 16,
      "bottom" : "127",
      "weights" : {

      },
      "Nx" : 1,
      "pad_mode" : 0,
      "pad_value" : 0,
      "Ny" : 1,
      "n_parallel" : 1,
      "blob_weights_f16" : 23
    },
    {
      "bottom" : "138",
      "weights" : {

      },
      "mode" : 3,
      "debug_info" : "Sigmoid_17",
      "top" : "139",
      "type" : "activation",
      "name" : "Sigmoid_17"
    },
    {
      "bottom" : "138,139",
      "alpha" : 1,
      "operation" : 1,
      "weights" : {

      },
      "fused_relu" : 0,
      "debug_info" : "Mul_18",
      "top" : "140",
      "type" : "elementwise",
      "name" : "Mul_18",
      "beta" : 0
    },
    {
      "weights" : {

      },
      "debug_info" : "Concat_19",
      "top" : "141",
      "type" : "concat",
      "name" : "Concat_19",
      "bottom" : "137,140"
    },
    {
      "pad_r" : 0,
      "fused_relu" : 0,
      "fused_tanh" : 0,
      "debug_info" : "Conv_20",
      "pad_fill_mode" : 0,
      "pad_b" : 0,
      "pad_l" : 0,
      "top" : "142",
      "K" : 32,
      "blob_biases" : 25,
      "name" : "Conv_20",
      "has_batch_norm" : 0,
      "type" : "convolution",
      "n_groups" : 1,
      "pad_t" : 0,
      "has_biases" : 1,
      "C" : 32,
      "bottom" : "141",
      "weights" : {

      },
      "Nx" : 1,
      "pad_mode" : 0,
      "pad_value" : 0,
      "Ny" : 1,
      "n_parallel" : 1,
      "blob_weights_f16" : 27
    },
    {
      "bottom" : "142",
      "weights" : {

      },
      "mode" : 3,
      "debug_info" : "Sigmoid_21",
      "top" : "143",
      "type" : "activation",
      "name" : "Sigmoid_21"
    },
    {
      "bottom" : "142,143",
      "alpha" : 1,
      "operation" : 1,
      "weights" : {

      },
      "fused_relu" : 0,
      "debug_info" : "Mul_22",
      "top" : "144",
      "type" : "elementwise",
      "name" : "Mul_22",
      "beta" : 0
    },
    {
      "pad_r" : 1,
      "fused_relu" : 0,
      "fused_tanh" : 0,
      "debug_info" : "Conv_23",
      "pad_fill_mode" : 0,
      "pad_b" : 1,
      "pad_l" : 1,
      "top" : "145",
      "K" : 32,
      "blob_biases" : 29,
      "stride_x" : 2,
      "name" : "Conv_23",
      "has_batch_norm" : 0,
      "type" : "convolution",
      "n_groups" : 1,
      "pad_t" : 1,
      "stride_y" : 2,
      "has_biases" : 1,
      "C" : 64,
      "bottom" : "144",
      "weights" : {

      },
      "Nx" : 3,
      "pad_mode" : 0,
      "pad_value" : 0,
      "Ny" : 3,
      "n_parallel" : 1,
      "blob_weights_f16" : 31
    },
    {
      "bottom" : "145",
      "weights" : {

      },
      "mode" : 3,
      "debug_info" : "Sigmoid_24",
      "top" : "146",
      "type" : "activation",
      "name" : "Sigmoid_24"
    },
    {
      "bottom" : "145,146",
      "alpha" : 1,
      "operation" : 1,
      "weights" : {

      },
      "fused_relu" : 0,
      "debug_info" : "Mul_25",
      "top" : "147",
      "type" : "elementwise",
      "name" : "Mul_25",
      "beta" : 0
    },
    {
      "pad_r" : 0,
      "fused_relu" : 0,
      "fused_tanh" : 0,
      "debug_info" : "Conv_26",
      "pad_fill_mode" : 0,
      "pad_b" : 0,
      "pad_l" : 0,
      "top" : "148",
      "K" : 64,
      "blob_biases" : 33,
      "name" : "Conv_26",
      "has_batch_norm" : 0,
      "type" : "convolution",
      "n_groups" : 1,
      "pad_t" : 0,
      "has_biases" : 1,
      "C" : 32,
      "bottom" : "147",
      "weights" : {

      },
      "Nx" : 1,
      "pad_mode" : 0,
      "pad_value" : 0,
      "Ny" : 1,
      "n_parallel" : 1,
      "blob_weights_f16" : 35
    },
    {
      "bottom" : "148",
      "weights" : {

      },
      "mode" : 3,
      "debug_info" : "Sigmoid_27",
      "top" : "149",
      "type" : "activation",
      "name" : "Sigmoid_27"
    },
    {
      "bottom" : "148,149",
      "alpha" : 1,
      "operation" : 1,
      "weights" : {

      },
      "fused_relu" : 0,
      "debug_info" : "Mul_28",
      "top" : "150",
      "type" : "elementwise",
      "name" : "Mul_28",
      "beta" : 0
    },
    {
      "pad_r" : 0,
      "fused_relu" : 0,
      "fused_tanh" : 0,
      "debug_info" : "Conv_29",
      "pad_fill_mode" : 0,
      "pad_b" : 0,
      "pad_l" : 0,
      "top" : "151",
      "K" : 32,
      "blob_biases" : 37,
      "name" : "Conv_29",
      "has_batch_norm" : 0,
      "type" : "convolution",
      "n_groups" : 1,
      "pad_t" : 0,
      "has_biases" : 1,
      "C" : 32,
      "bottom" : "150",
      "weights" : {

      },
      "Nx" : 1,
      "pad_mode" : 0,
      "pad_value" : 0,
      "Ny" : 1,
      "n_parallel" : 1,
      "blob_weights_f16" : 39
    },
    {
      "bottom" : "151",
      "weights" : {

      },
      "mode" : 3,
      "debug_info" : "Sigmoid_30",
      "top" : "152",
      "type" : "activation",
      "name" : "Sigmoid_30"
    },
    {
      "bottom" : "151,152",
      "alpha" : 1,
      "operation" : 1,
      "weights" : {

      },
      "fused_relu" : 0,
      "debug_info" : "Mul_31",
      "top" : "153",
      "type" : "elementwise",
      "name" : "Mul_31",
      "beta" : 0
    },
    {
      "pad_r" : 1,
      "fused_relu" : 0,
      "fused_tanh" : 0,
      "debug_info" : "Conv_32",
      "pad_fill_mode" : 0,
      "pad_b" : 1,
      "pad_l" : 1,
      "top" : "154",
      "K" : 32,
      "blob_biases" : 41,
      "name" : "Conv_32",
      "has_batch_norm" : 0,
      "type" : "convolution",
      "n_groups" : 1,
      "pad_t" : 1,
      "has_biases" : 1,
      "C" : 32,
      "bottom" : "153",
      "weights" : {

      },
      "Nx" : 3,
      "pad_mode" : 0,
      "pad_value" : 0,
      "Ny" : 3,
      "n_parallel" : 1,
      "blob_weights_f16" : 43
    },
    {
      "bottom" : "154",
      "weights" : {

      },
      "mode" : 3,
      "debug_info" : "Sigmoid_33",
      "top" : "155",
      "type" : "activation",
      "name" : "Sigmoid_33"
    },
    {
      "bottom" : "154,155",
      "alpha" : 1,
      "operation" : 1,
      "weights" : {

      },
      "fused_relu" : 0,
      "debug_info" : "Mul_34",
      "top" : "156",
      "type" : "elementwise",
      "name" : "Mul_34",
      "beta" : 0
    },
    {
      "bottom" : "150,156",
      "alpha" : 1,
      "operation" : 0,
      "weights" : {

      },
      "fused_relu" : 0,
      "debug_info" : "Add_35",
      "top" : "157",
      "type" : "elementwise",
      "name" : "Add_35",
      "beta" : 0
    },
    {
      "pad_r" : 0,
      "fused_relu" : 0,
      "fused_tanh" : 0,
      "debug_info" : "Conv_36",
      "pad_fill_mode" : 0,
      "pad_b" : 0,
      "pad_l" : 0,
      "top" : "158",
      "K" : 32,
      "blob_biases" : 45,
      "name" : "Conv_36",
      "has_batch_norm" : 0,
      "type" : "convolution",
      "n_groups" : 1,
      "pad_t" : 0,
      "has_biases" : 1,
      "C" : 32,
      "bottom" : "157",
      "weights" : {

      },
      "Nx" : 1,
      "pad_mode" : 0,
      "pad_value" : 0,
      "Ny" : 1,
      "n_parallel" : 1,
      "blob_weights_f16" : 47
    },
    {
      "bottom" : "158",
      "weights" : {

      },
      "mode" : 3,
      "debug_info" : "Sigmoid_37",
      "top" : "159",
      "type" : "activation",
      "name" : "Sigmoid_37"
    },
    {
      "bottom" : "158,159",
      "alpha" : 1,
      "operation" : 1,
      "weights" : {

      },
      "fused_relu" : 0,
      "debug_info" : "Mul_38",
      "top" : "160",
      "type" : "elementwise",
      "name" : "Mul_38",
      "beta" : 0
    },
    {
      "pad_r" : 1,
      "fused_relu" : 0,
      "fused_tanh" : 0,
      "debug_info" : "Conv_39",
      "pad_fill_mode" : 0,
      "pad_b" : 1,
      "pad_l" : 1,
      "top" : "161",
      "K" : 32,
      "blob_biases" : 49,
      "name" : "Conv_39",
      "has_batch_norm" : 0,
      "type" : "convolution",
      "n_groups" : 1,
      "pad_t" : 1,
      "has_biases" : 1,
      "C" : 32,
      "bottom" : "160",
      "weights" : {

      },
      "Nx" : 3,
      "pad_mode" : 0,
      "pad_value" : 0,
      "Ny" : 3,
      "n_parallel" : 1,
      "blob_weights_f16" : 51
    },
    {
      "bottom" : "161",
      "weights" : {

      },
      "mode" : 3,
      "debug_info" : "Sigmoid_40",
      "top" : "162",
      "type" : "activation",
      "name" : "Sigmoid_40"
    },
    {
      "bottom" : "161,162",
      "alpha" : 1,
      "operation" : 1,
      "weights" : {

      },
      "fused_relu" : 0,
      "debug_info" : "Mul_41",
      "top" : "163",
      "type" : "elementwise",
      "name" : "Mul_41",
      "beta" : 0
    },
    {
      "bottom" : "157,163",
      "alpha" : 1,
      "operation" : 0,
      "weights" : {

      },
      "fused_relu" : 0,
      "debug_info" : "Add_42",
      "top" : "164",
      "type" : "elementwise",
      "name" : "Add_42",
      "beta" : 0
    },
    {
      "pad_r" : 0,
      "fused_relu" : 0,
      "fused_tanh" : 0,
      "debug_info" : "Conv_43",
      "pad_fill_mode" : 0,
      "pad_b" : 0,
      "pad_l" : 0,
      "top" : "165",
      "K" : 64,
      "blob_biases" : 53,
      "name" : "Conv_43",
      "has_batch_norm" : 0,
      "type" : "convolution",
      "n_groups" : 1,
      "pad_t" : 0,
      "has_biases" : 1,
      "C" : 32,
      "bottom" : "147",
      "weights" : {

      },
      "Nx" : 1,
      "pad_mode" : 0,
      "pad_value" : 0,
      "Ny" : 1,
      "n_parallel" : 1,
      "blob_weights_f16" : 55
    },
    {
      "bottom" : "165",
      "weights" : {

      },
      "mode" : 3,
      "debug_info" : "Sigmoid_44",
      "top" : "166",
      "type" : "activation",
      "name" : "Sigmoid_44"
    },
    {
      "bottom" : "165,166",
      "alpha" : 1,
      "operation" : 1,
      "weights" : {

      },
      "fused_relu" : 0,
      "debug_info" : "Mul_45",
      "top" : "167",
      "type" : "elementwise",
      "name" : "Mul_45",
      "beta" : 0
    },
    {
      "weights" : {

      },
      "debug_info" : "Concat_46",
      "top" : "168",
      "type" : "concat",
      "name" : "Concat_46",
      "bottom" : "164,167"
    },
    {
      "pad_r" : 0,
      "fused_relu" : 0,
      "fused_tanh" : 0,
      "debug_info" : "Conv_47",
      "pad_fill_mode" : 0,
      "pad_b" : 0,
      "pad_l" : 0,
      "top" : "169",
      "K" : 64,
      "blob_biases" : 57,
      "name" : "Conv_47",
      "has_batch_norm" : 0,
      "type" : "convolution",
      "n_groups" : 1,
      "pad_t" : 0,
      "has_biases" : 1,
      "C" : 64,
      "bottom" : "168",
      "weights" : {

      },
      "Nx" : 1,
      "pad_mode" : 0,
      "pad_value" : 0,
      "Ny" : 1,
      "n_parallel" : 1,
      "blob_weights_f16" : 59
    },
    {
      "bottom" : "169",
      "weights" : {

      },
      "mode" : 3,
      "debug_info" : "Sigmoid_48",
      "top" : "170",
      "type" : "activation",
      "name" : "Sigmoid_48"
    },
    {
      "bottom" : "169,170",
      "alpha" : 1,
      "operation" : 1,
      "weights" : {

      },
      "fused_relu" : 0,
      "debug_info" : "Mul_49",
      "top" : "171",
      "type" : "elementwise",
      "name" : "Mul_49",
      "beta" : 0
    },
    {
      "pad_r" : 1,
      "fused_relu" : 0,
      "fused_tanh" : 0,
      "debug_info" : "Conv_50",
      "pad_fill_mode" : 0,
      "pad_b" : 1,
      "pad_l" : 1,
      "top" : "172",
      "K" : 64,
      "blob_biases" : 61,
      "stride_x" : 2,
      "name" : "Conv_50",
      "has_batch_norm" : 0,
      "type" : "convolution",
      "n_groups" : 1,
      "pad_t" : 1,
      "stride_y" : 2,
      "has_biases" : 1,
      "C" : 128,
      "bottom" : "171",
      "weights" : {

      },
      "Nx" : 3,
      "pad_mode" : 0,
      "pad_value" : 0,
      "Ny" : 3,
      "n_parallel" : 1,
      "blob_weights_f16" : 63
    },
    {
      "bottom" : "172",
      "weights" : {

      },
      "mode" : 3,
      "debug_info" : "Sigmoid_51",
      "top" : "173",
      "type" : "activation",
      "name" : "Sigmoid_51"
    },
    {
      "bottom" : "172,173",
      "alpha" : 1,
      "operation" : 1,
      "weights" : {

      },
      "fused_relu" : 0,
      "debug_info" : "Mul_52",
      "top" : "174",
      "type" : "elementwise",
      "name" : "Mul_52",
      "beta" : 0
    },
    {
      "pad_r" : 0,
      "fused_relu" : 0,
      "fused_tanh" : 0,
      "debug_info" : "Conv_53",
      "pad_fill_mode" : 0,
      "pad_b" : 0,
      "pad_l" : 0,
      "top" : "175",
      "K" : 128,
      "blob_biases" : 65,
      "name" : "Conv_53",
      "has_batch_norm" : 0,
      "type" : "convolution",
      "n_groups" : 1,
      "pad_t" : 0,
      "has_biases" : 1,
      "C" : 64,
      "bottom" : "174",
      "weights" : {

      },
      "Nx" : 1,
      "pad_mode" : 0,
      "pad_value" : 0,
      "Ny" : 1,
      "n_parallel" : 1,
      "blob_weights_f16" : 67
    },
    {
      "bottom" : "175",
      "weights" : {

      },
      "mode" : 3,
      "debug_info" : "Sigmoid_54",
      "top" : "176",
      "type" : "activation",
      "name" : "Sigmoid_54"
    },
    {
      "bottom" : "175,176",
      "alpha" : 1,
      "operation" : 1,
      "weights" : {

      },
      "fused_relu" : 0,
      "debug_info" : "Mul_55",
      "top" : "177",
      "type" : "elementwise",
      "name" : "Mul_55",
      "beta" : 0
    },
    {
      "pad_r" : 0,
      "fused_relu" : 0,
      "fused_tanh" : 0,
      "debug_info" : "Conv_56",
      "pad_fill_mode" : 0,
      "pad_b" : 0,
      "pad_l" : 0,
      "top" : "178",
      "K" : 64,
      "blob_biases" : 69,
      "name" : "Conv_56",
      "has_batch_norm" : 0,
      "type" : "convolution",
      "n_groups" : 1,
      "pad_t" : 0,
      "has_biases" : 1,
      "C" : 64,
      "bottom" : "177",
      "weights" : {

      },
      "Nx" : 1,
      "pad_mode" : 0,
      "pad_value" : 0,
      "Ny" : 1,
      "n_parallel" : 1,
      "blob_weights_f16" : 71
    },
    {
      "bottom" : "178",
      "weights" : {

      },
      "mode" : 3,
      "debug_info" : "Sigmoid_57",
      "top" : "179",
      "type" : "activation",
      "name" : "Sigmoid_57"
    },
    {
      "bottom" : "178,179",
      "alpha" : 1,
      "operation" : 1,
      "weights" : {

      },
      "fused_relu" : 0,
      "debug_info" : "Mul_58",
      "top" : "180",
      "type" : "elementwise",
      "name" : "Mul_58",
      "beta" : 0
    },
    {
      "pad_r" : 1,
      "fused_relu" : 0,
      "fused_tanh" : 0,
      "debug_info" : "Conv_59",
      "pad_fill_mode" : 0,
      "pad_b" : 1,
      "pad_l" : 1,
      "top" : "181",
      "K" : 64,
      "blob_biases" : 73,
      "name" : "Conv_59",
      "has_batch_norm" : 0,
      "type" : "convolution",
      "n_groups" : 1,
      "pad_t" : 1,
      "has_biases" : 1,
      "C" : 64,
      "bottom" : "180",
      "weights" : {

      },
      "Nx" : 3,
      "pad_mode" : 0,
      "pad_value" : 0,
      "Ny" : 3,
      "n_parallel" : 1,
      "blob_weights_f16" : 75
    },
    {
      "bottom" : "181",
      "weights" : {

      },
      "mode" : 3,
      "debug_info" : "Sigmoid_60",
      "top" : "182",
      "type" : "activation",
      "name" : "Sigmoid_60"
    },
    {
      "bottom" : "181,182",
      "alpha" : 1,
      "operation" : 1,
      "weights" : {

      },
      "fused_relu" : 0,
      "debug_info" : "Mul_61",
      "top" : "183",
      "type" : "elementwise",
      "name" : "Mul_61",
      "beta" : 0
    },
    {
      "bottom" : "177,183",
      "alpha" : 1,
      "operation" : 0,
      "weights" : {

      },
      "fused_relu" : 0,
      "debug_info" : "Add_62",
      "top" : "184",
      "type" : "elementwise",
      "name" : "Add_62",
      "beta" : 0
    },
    {
      "pad_r" : 0,
      "fused_relu" : 0,
      "fused_tanh" : 0,
      "debug_info" : "Conv_63",
      "pad_fill_mode" : 0,
      "pad_b" : 0,
      "pad_l" : 0,
      "top" : "185",
      "K" : 64,
      "blob_biases" : 77,
      "name" : "Conv_63",
      "has_batch_norm" : 0,
      "type" : "convolution",
      "n_groups" : 1,
      "pad_t" : 0,
      "has_biases" : 1,
      "C" : 64,
      "bottom" : "184",
      "weights" : {

      },
      "Nx" : 1,
      "pad_mode" : 0,
      "pad_value" : 0,
      "Ny" : 1,
      "n_parallel" : 1,
      "blob_weights_f16" : 79
    },
    {
      "bottom" : "185",
      "weights" : {

      },
      "mode" : 3,
      "debug_info" : "Sigmoid_64",
      "top" : "186",
      "type" : "activation",
      "name" : "Sigmoid_64"
    },
    {
      "bottom" : "185,186",
      "alpha" : 1,
      "operation" : 1,
      "weights" : {

      },
      "fused_relu" : 0,
      "debug_info" : "Mul_65",
      "top" : "187",
      "type" : "elementwise",
      "name" : "Mul_65",
      "beta" : 0
    },
    {
      "pad_r" : 1,
      "fused_relu" : 0,
      "fused_tanh" : 0,
      "debug_info" : "Conv_66",
      "pad_fill_mode" : 0,
      "pad_b" : 1,
      "pad_l" : 1,
      "top" : "188",
      "K" : 64,
      "blob_biases" : 81,
      "name" : "Conv_66",
      "has_batch_norm" : 0,
      "type" : "convolution",
      "n_groups" : 1,
      "pad_t" : 1,
      "has_biases" : 1,
      "C" : 64,
      "bottom" : "187",
      "weights" : {

      },
      "Nx" : 3,
      "pad_mode" : 0,
      "pad_value" : 0,
      "Ny" : 3,
      "n_parallel" : 1,
      "blob_weights_f16" : 83
    },
    {
      "bottom" : "188",
      "weights" : {

      },
      "mode" : 3,
      "debug_info" : "Sigmoid_67",
      "top" : "189",
      "type" : "activation",
      "name" : "Sigmoid_67"
    },
    {
      "bottom" : "188,189",
      "alpha" : 1,
      "operation" : 1,
      "weights" : {

      },
      "fused_relu" : 0,
      "debug_info" : "Mul_68",
      "top" : "190",
      "type" : "elementwise",
      "name" : "Mul_68",
      "beta" : 0
    },
    {
      "bottom" : "184,190",
      "alpha" : 1,
      "operation" : 0,
      "weights" : {

      },
      "fused_relu" : 0,
      "debug_info" : "Add_69",
      "top" : "191",
      "type" : "elementwise",
      "name" : "Add_69",
      "beta" : 0
    },
    {
      "pad_r" : 0,
      "fused_relu" : 0,
      "fused_tanh" : 0,
      "debug_info" : "Conv_70",
      "pad_fill_mode" : 0,
      "pad_b" : 0,
      "pad_l" : 0,
      "top" : "192",
      "K" : 64,
      "blob_biases" : 85,
      "name" : "Conv_70",
      "has_batch_norm" : 0,
      "type" : "convolution",
      "n_groups" : 1,
      "pad_t" : 0,
      "has_biases" : 1,
      "C" : 64,
      "bottom" : "191",
      "weights" : {

      },
      "Nx" : 1,
      "pad_mode" : 0,
      "pad_value" : 0,
      "Ny" : 1,
      "n_parallel" : 1,
      "blob_weights_f16" : 87
    },
    {
      "bottom" : "192",
      "weights" : {

      },
      "mode" : 3,
      "debug_info" : "Sigmoid_71",
      "top" : "193",
      "type" : "activation",
      "name" : "Sigmoid_71"
    },
    {
      "bottom" : "192,193",
      "alpha" : 1,
      "operation" : 1,
      "weights" : {

      },
      "fused_relu" : 0,
      "debug_info" : "Mul_72",
      "top" : "194",
      "type" : "elementwise",
      "name" : "Mul_72",
      "beta" : 0
    },
    {
      "pad_r" : 1,
      "fused_relu" : 0,
      "fused_tanh" : 0,
      "debug_info" : "Conv_73",
      "pad_fill_mode" : 0,
      "pad_b" : 1,
      "pad_l" : 1,
      "top" : "195",
      "K" : 64,
      "blob_biases" : 89,
      "name" : "Conv_73",
      "has_batch_norm" : 0,
      "type" : "convolution",
      "n_groups" : 1,
      "pad_t" : 1,
      "has_biases" : 1,
      "C" : 64,
      "bottom" : "194",
      "weights" : {

      },
      "Nx" : 3,
      "pad_mode" : 0,
      "pad_value" : 0,
      "Ny" : 3,
      "n_parallel" : 1,
      "blob_weights_f16" : 91
    },
    {
      "bottom" : "195",
      "weights" : {

      },
      "mode" : 3,
      "debug_info" : "Sigmoid_74",
      "top" : "196",
      "type" : "activation",
      "name" : "Sigmoid_74"
    },
    {
      "bottom" : "195,196",
      "alpha" : 1,
      "operation" : 1,
      "weights" : {

      },
      "fused_relu" : 0,
      "debug_info" : "Mul_75",
      "top" : "197",
      "type" : "elementwise",
      "name" : "Mul_75",
      "beta" : 0
    },
    {
      "bottom" : "191,197",
      "alpha" : 1,
      "operation" : 0,
      "weights" : {

      },
      "fused_relu" : 0,
      "debug_info" : "Add_76",
      "top" : "198",
      "type" : "elementwise",
      "name" : "Add_76",
      "beta" : 0
    },
    {
      "pad_r" : 0,
      "fused_relu" : 0,
      "fused_tanh" : 0,
      "debug_info" : "Conv_77",
      "pad_fill_mode" : 0,
      "pad_b" : 0,
      "pad_l" : 0,
      "top" : "199",
      "K" : 128,
      "blob_biases" : 93,
      "name" : "Conv_77",
      "has_batch_norm" : 0,
      "type" : "convolution",
      "n_groups" : 1,
      "pad_t" : 0,
      "has_biases" : 1,
      "C" : 64,
      "bottom" : "174",
      "weights" : {

      },
      "Nx" : 1,
      "pad_mode" : 0,
      "pad_value" : 0,
      "Ny" : 1,
      "n_parallel" : 1,
      "blob_weights_f16" : 95
    },
    {
      "bottom" : "199",
      "weights" : {

      },
      "mode" : 3,
      "debug_info" : "Sigmoid_78",
      "top" : "200",
      "type" : "activation",
      "name" : "Sigmoid_78"
    },
    {
      "bottom" : "199,200",
      "alpha" : 1,
      "operation" : 1,
      "weights" : {

      },
      "fused_relu" : 0,
      "debug_info" : "Mul_79",
      "top" : "201",
      "type" : "elementwise",
      "name" : "Mul_79",
      "beta" : 0
    },
    {
      "weights" : {

      },
      "debug_info" : "Concat_80",
      "top" : "202",
      "type" : "concat",
      "name" : "Concat_80",
      "bottom" : "198,201"
    },
    {
      "pad_r" : 0,
      "fused_relu" : 0,
      "fused_tanh" : 0,
      "debug_info" : "Conv_81",
      "pad_fill_mode" : 0,
      "pad_b" : 0,
      "pad_l" : 0,
      "top" : "203",
      "K" : 128,
      "blob_biases" : 97,
      "name" : "Conv_81",
      "has_batch_norm" : 0,
      "type" : "convolution",
      "n_groups" : 1,
      "pad_t" : 0,
      "has_biases" : 1,
      "C" : 128,
      "bottom" : "202",
      "weights" : {

      },
      "Nx" : 1,
      "pad_mode" : 0,
      "pad_value" : 0,
      "Ny" : 1,
      "n_parallel" : 1,
      "blob_weights_f16" : 99
    },
    {
      "bottom" : "203",
      "weights" : {

      },
      "mode" : 3,
      "debug_info" : "Sigmoid_82",
      "top" : "204",
      "type" : "activation",
      "name" : "Sigmoid_82"
    },
    {
      "bottom" : "203,204",
      "alpha" : 1,
      "operation" : 1,
      "weights" : {

      },
      "fused_relu" : 0,
      "debug_info" : "Mul_83",
      "top" : "205",
      "type" : "elementwise",
      "name" : "Mul_83",
      "beta" : 0
    },
    {
      "pad_r" : 1,
      "fused_relu" : 0,
      "fused_tanh" : 0,
      "debug_info" : "Conv_84",
      "pad_fill_mode" : 0,
      "pad_b" : 1,
      "pad_l" : 1,
      "top" : "206",
      "K" : 128,
      "blob_biases" : 101,
      "stride_x" : 2,
      "name" : "Conv_84",
      "has_batch_norm" : 0,
      "type" : "convolution",
      "n_groups" : 1,
      "pad_t" : 1,
      "stride_y" : 2,
      "has_biases" : 1,
      "C" : 256,
      "bottom" : "205",
      "weights" : {

      },
      "Nx" : 3,
      "pad_mode" : 0,
      "pad_value" : 0,
      "Ny" : 3,
      "n_parallel" : 1,
      "blob_weights_f16" : 103
    },
    {
      "bottom" : "206",
      "weights" : {

      },
      "mode" : 3,
      "debug_info" : "Sigmoid_85",
      "top" : "207",
      "type" : "activation",
      "name" : "Sigmoid_85"
    },
    {
      "bottom" : "206,207",
      "alpha" : 1,
      "operation" : 1,
      "weights" : {

      },
      "fused_relu" : 0,
      "debug_info" : "Mul_86",
      "top" : "208",
      "type" : "elementwise",
      "name" : "Mul_86",
      "beta" : 0
    },
    {
      "pad_r" : 0,
      "fused_relu" : 0,
      "fused_tanh" : 0,
      "debug_info" : "Conv_87",
      "pad_fill_mode" : 0,
      "pad_b" : 0,
      "pad_l" : 0,
      "top" : "209",
      "K" : 256,
      "blob_biases" : 105,
      "name" : "Conv_87",
      "has_batch_norm" : 0,
      "type" : "convolution",
      "n_groups" : 1,
      "pad_t" : 0,
      "has_biases" : 1,
      "C" : 128,
      "bottom" : "208",
      "weights" : {

      },
      "Nx" : 1,
      "pad_mode" : 0,
      "pad_value" : 0,
      "Ny" : 1,
      "n_parallel" : 1,
      "blob_weights_f16" : 107
    },
    {
      "bottom" : "209",
      "weights" : {

      },
      "mode" : 3,
      "debug_info" : "Sigmoid_88",
      "top" : "210",
      "type" : "activation",
      "name" : "Sigmoid_88"
    },
    {
      "bottom" : "209,210",
      "alpha" : 1,
      "operation" : 1,
      "weights" : {

      },
      "fused_relu" : 0,
      "debug_info" : "Mul_89",
      "top" : "211",
      "type" : "elementwise",
      "name" : "Mul_89",
      "beta" : 0
    },
    {
      "pad_r" : 0,
      "fused_relu" : 0,
      "fused_tanh" : 0,
      "debug_info" : "Conv_90",
      "pad_fill_mode" : 0,
      "pad_b" : 0,
      "pad_l" : 0,
      "top" : "212",
      "K" : 128,
      "blob_biases" : 109,
      "name" : "Conv_90",
      "has_batch_norm" : 0,
      "type" : "convolution",
      "n_groups" : 1,
      "pad_t" : 0,
      "has_biases" : 1,
      "C" : 128,
      "bottom" : "211",
      "weights" : {

      },
      "Nx" : 1,
      "pad_mode" : 0,
      "pad_value" : 0,
      "Ny" : 1,
      "n_parallel" : 1,
      "blob_weights_f16" : 111
    },
    {
      "bottom" : "212",
      "weights" : {

      },
      "mode" : 3,
      "debug_info" : "Sigmoid_91",
      "top" : "213",
      "type" : "activation",
      "name" : "Sigmoid_91"
    },
    {
      "bottom" : "212,213",
      "alpha" : 1,
      "operation" : 1,
      "weights" : {

      },
      "fused_relu" : 0,
      "debug_info" : "Mul_92",
      "top" : "214",
      "type" : "elementwise",
      "name" : "Mul_92",
      "beta" : 0
    },
    {
      "pad_r" : 1,
      "fused_relu" : 0,
      "fused_tanh" : 0,
      "debug_info" : "Conv_93",
      "pad_fill_mode" : 0,
      "pad_b" : 1,
      "pad_l" : 1,
      "top" : "215",
      "K" : 128,
      "blob_biases" : 113,
      "name" : "Conv_93",
      "has_batch_norm" : 0,
      "type" : "convolution",
      "n_groups" : 1,
      "pad_t" : 1,
      "has_biases" : 1,
      "C" : 128,
      "bottom" : "214",
      "weights" : {

      },
      "Nx" : 3,
      "pad_mode" : 0,
      "pad_value" : 0,
      "Ny" : 3,
      "n_parallel" : 1,
      "blob_weights_f16" : 115
    },
    {
      "bottom" : "215",
      "weights" : {

      },
      "mode" : 3,
      "debug_info" : "Sigmoid_94",
      "top" : "216",
      "type" : "activation",
      "name" : "Sigmoid_94"
    },
    {
      "bottom" : "215,216",
      "alpha" : 1,
      "operation" : 1,
      "weights" : {

      },
      "fused_relu" : 0,
      "debug_info" : "Mul_95",
      "top" : "217",
      "type" : "elementwise",
      "name" : "Mul_95",
      "beta" : 0
    },
    {
      "bottom" : "211,217",
      "alpha" : 1,
      "operation" : 0,
      "weights" : {

      },
      "fused_relu" : 0,
      "debug_info" : "Add_96",
      "top" : "218",
      "type" : "elementwise",
      "name" : "Add_96",
      "beta" : 0
    },
    {
      "pad_r" : 0,
      "fused_relu" : 0,
      "fused_tanh" : 0,
      "debug_info" : "Conv_97",
      "pad_fill_mode" : 0,
      "pad_b" : 0,
      "pad_l" : 0,
      "top" : "219",
      "K" : 256,
      "blob_biases" : 117,
      "name" : "Conv_97",
      "has_batch_norm" : 0,
      "type" : "convolution",
      "n_groups" : 1,
      "pad_t" : 0,
      "has_biases" : 1,
      "C" : 128,
      "bottom" : "208",
      "weights" : {

      },
      "Nx" : 1,
      "pad_mode" : 0,
      "pad_value" : 0,
      "Ny" : 1,
      "n_parallel" : 1,
      "blob_weights_f16" : 119
    },
    {
      "bottom" : "219",
      "weights" : {

      },
      "mode" : 3,
      "debug_info" : "Sigmoid_98",
      "top" : "220",
      "type" : "activation",
      "name" : "Sigmoid_98"
    },
    {
      "bottom" : "219,220",
      "alpha" : 1,
      "operation" : 1,
      "weights" : {

      },
      "fused_relu" : 0,
      "debug_info" : "Mul_99",
      "top" : "221",
      "type" : "elementwise",
      "name" : "Mul_99",
      "beta" : 0
    },
    {
      "weights" : {

      },
      "debug_info" : "Concat_100",
      "top" : "222",
      "type" : "concat",
      "name" : "Concat_100",
      "bottom" : "218,221"
    },
    {
      "pad_r" : 0,
      "fused_relu" : 0,
      "fused_tanh" : 0,
      "debug_info" : "Conv_101",
      "pad_fill_mode" : 0,
      "pad_b" : 0,
      "pad_l" : 0,
      "top" : "223",
      "K" : 256,
      "blob_biases" : 121,
      "name" : "Conv_101",
      "has_batch_norm" : 0,
      "type" : "convolution",
      "n_groups" : 1,
      "pad_t" : 0,
      "has_biases" : 1,
      "C" : 256,
      "bottom" : "222",
      "weights" : {

      },
      "Nx" : 1,
      "pad_mode" : 0,
      "pad_value" : 0,
      "Ny" : 1,
      "n_parallel" : 1,
      "blob_weights_f16" : 123
    },
    {
      "bottom" : "223",
      "weights" : {

      },
      "mode" : 3,
      "debug_info" : "Sigmoid_102",
      "top" : "224",
      "type" : "activation",
      "name" : "Sigmoid_102"
    },
    {
      "bottom" : "223,224",
      "alpha" : 1,
      "operation" : 1,
      "weights" : {

      },
      "fused_relu" : 0,
      "debug_info" : "Mul_103",
      "top" : "225",
      "type" : "elementwise",
      "name" : "Mul_103",
      "beta" : 0
    },
    {
      "pad_r" : 0,
      "fused_relu" : 0,
      "fused_tanh" : 0,
      "debug_info" : "Conv_104",
      "pad_fill_mode" : 0,
      "pad_b" : 0,
      "pad_l" : 0,
      "top" : "226",
      "K" : 256,
      "blob_biases" : 125,
      "name" : "Conv_104",
      "has_batch_norm" : 0,
      "type" : "convolution",
      "n_groups" : 1,
      "pad_t" : 0,
      "has_biases" : 1,
      "C" : 128,
      "bottom" : "225",
      "weights" : {

      },
      "Nx" : 1,
      "pad_mode" : 0,
      "pad_value" : 0,
      "Ny" : 1,
      "n_parallel" : 1,
      "blob_weights_f16" : 127
    },
    {
      "bottom" : "226",
      "weights" : {

      },
      "mode" : 3,
      "debug_info" : "Sigmoid_105",
      "top" : "227",
      "type" : "activation",
      "name" : "Sigmoid_105"
    },
    {
      "bottom" : "226,227",
      "alpha" : 1,
      "operation" : 1,
      "weights" : {

      },
      "fused_relu" : 0,
      "debug_info" : "Mul_106",
      "top" : "228",
      "type" : "elementwise",
      "name" : "Mul_106",
      "beta" : 0
    },
    {
      "pad_r" : 2,
      "debug_info" : "MaxPool_107",
      "pad_fill_mode" : 0,
      "pad_b" : 2,
      "pad_l" : 2,
      "size_x" : 5,
      "top" : "229",
      "top_shape_style" : 0,
      "stride_x" : 1,
      "avg_or_max" : 1,
      "average_count_exclude_padding" : 1,
      "type" : "pool",
      "name" : "MaxPool_107",
      "pad_t" : 2,
      "stride_y" : 1,
      "bottom" : "228",
      "weights" : {

      },
      "pad_mode" : 0,
      "size_y" : 5,
      "pad_value" : 0
    },
    {
      "pad_r" : 2,
      "debug_info" : "MaxPool_108",
      "pad_fill_mode" : 0,
      "pad_b" : 2,
      "pad_l" : 2,
      "size_x" : 5,
      "top" : "230",
      "top_shape_style" : 0,
      "stride_x" : 1,
      "avg_or_max" : 1,
      "average_count_exclude_padding" : 1,
      "type" : "pool",
      "name" : "MaxPool_108",
      "pad_t" : 2,
      "stride_y" : 1,
      "bottom" : "229",
      "weights" : {

      },
      "pad_mode" : 0,
      "size_y" : 5,
      "pad_value" : 0
    },
    {
      "pad_r" : 2,
      "debug_info" : "MaxPool_109",
      "pad_fill_mode" : 0,
      "pad_b" : 2,
      "pad_l" : 2,
      "size_x" : 5,
      "top" : "231",
      "top_shape_style" : 0,
      "stride_x" : 1,
      "avg_or_max" : 1,
      "average_count_exclude_padding" : 1,
      "type" : "pool",
      "name" : "MaxPool_109",
      "pad_t" : 2,
      "stride_y" : 1,
      "bottom" : "230",
      "weights" : {

      },
      "pad_mode" : 0,
      "size_y" : 5,
      "pad_value" : 0
    },
    {
      "weights" : {

      },
      "debug_info" : "Concat_110",
      "top" : "232",
      "type" : "concat",
      "name" : "Concat_110",
      "bottom" : "228,229,230,231"
    },
    {
      "pad_r" : 0,
      "fused_relu" : 0,
      "fused_tanh" : 0,
      "debug_info" : "Conv_111",
      "pad_fill_mode" : 0,
      "pad_b" : 0,
      "pad_l" : 0,
      "top" : "233",
      "K" : 512,
      "blob_biases" : 129,
      "name" : "Conv_111",
      "has_batch_norm" : 0,
      "type" : "convolution",
      "n_groups" : 1,
      "pad_t" : 0,
      "has_biases" : 1,
      "C" : 256,
      "bottom" : "232",
      "weights" : {

      },
      "Nx" : 1,
      "pad_mode" : 0,
      "pad_value" : 0,
      "Ny" : 1,
      "n_parallel" : 1,
      "blob_weights_f16" : 131
    },
    {
      "bottom" : "233",
      "weights" : {

      },
      "mode" : 3,
      "debug_info" : "Sigmoid_112",
      "top" : "234",
      "type" : "activation",
      "name" : "Sigmoid_112"
    },
    {
      "bottom" : "233,234",
      "alpha" : 1,
      "operation" : 1,
      "weights" : {

      },
      "fused_relu" : 0,
      "debug_info" : "Mul_113",
      "top" : "235",
      "type" : "elementwise",
      "name" : "Mul_113",
      "beta" : 0
    },
    {
      "pad_r" : 0,
      "fused_relu" : 0,
      "fused_tanh" : 0,
      "debug_info" : "Conv_114",
      "pad_fill_mode" : 0,
      "pad_b" : 0,
      "pad_l" : 0,
      "top" : "236",
      "K" : 256,
      "blob_biases" : 133,
      "name" : "Conv_114",
      "has_batch_norm" : 0,
      "type" : "convolution",
      "n_groups" : 1,
      "pad_t" : 0,
      "has_biases" : 1,
      "C" : 128,
      "bottom" : "235",
      "weights" : {

      },
      "Nx" : 1,
      "pad_mode" : 0,
      "pad_value" : 0,
      "Ny" : 1,
      "n_parallel" : 1,
      "blob_weights_f16" : 135
    },
    {
      "bottom" : "236",
      "weights" : {

      },
      "mode" : 3,
      "debug_info" : "Sigmoid_115",
      "top" : "237",
      "type" : "activation",
      "name" : "Sigmoid_115"
    },
    {
      "bottom" : "236,237",
      "alpha" : 1,
      "operation" : 1,
      "weights" : {

      },
      "fused_relu" : 0,
      "debug_info" : "Mul_116",
      "top" : "238",
      "type" : "elementwise",
      "name" : "Mul_116",
      "beta" : 0
    },
    {
      "top" : "242",
      "use_fractional_scale_factors" : false,
      "weights" : {

      },
      "fractional_scaling_factor_y" : 1,
      "type" : "upsample",
      "scaling_factor_x" : 2,
      "mode" : 0,
      "align_corners" : 0,
      "bottom" : "238",
      "debug_info" : "Upsample_117",
      "fractional_scaling_factor_x" : 1,
      "is_legacy_mode" : 1,
      "name" : "Upsample_117",
      "scaling_factor_y" : 2
    },
    {
      "weights" : {

      },
      "debug_info" : "Concat_118",
      "top" : "243",
      "type" : "concat",
      "name" : "Concat_118",
      "bottom" : "242,205"
    },
    {
      "pad_r" : 0,
      "fused_relu" : 0,
      "fused_tanh" : 0,
      "debug_info" : "Conv_119",
      "pad_fill_mode" : 0,
      "pad_b" : 0,
      "pad_l" : 0,
      "top" : "244",
      "K" : 256,
      "blob_biases" : 137,
      "name" : "Conv_119",
      "has_batch_norm" : 0,
      "type" : "convolution",
      "n_groups" : 1,
      "pad_t" : 0,
      "has_biases" : 1,
      "C" : 64,
      "bottom" : "243",
      "weights" : {

      },
      "Nx" : 1,
      "pad_mode" : 0,
      "pad_value" : 0,
      "Ny" : 1,
      "n_parallel" : 1,
      "blob_weights_f16" : 139
    },
    {
      "bottom" : "244",
      "weights" : {

      },
      "mode" : 3,
      "debug_info" : "Sigmoid_120",
      "top" : "245",
      "type" : "activation",
      "name" : "Sigmoid_120"
    },
    {
      "bottom" : "244,245",
      "alpha" : 1,
      "operation" : 1,
      "weights" : {

      },
      "fused_relu" : 0,
      "debug_info" : "Mul_121",
      "top" : "246",
      "type" : "elementwise",
      "name" : "Mul_121",
      "beta" : 0
    },
    {
      "pad_r" : 0,
      "fused_relu" : 0,
      "fused_tanh" : 0,
      "debug_info" : "Conv_122",
      "pad_fill_mode" : 0,
      "pad_b" : 0,
      "pad_l" : 0,
      "top" : "247",
      "K" : 64,
      "blob_biases" : 141,
      "name" : "Conv_122",
      "has_batch_norm" : 0,
      "type" : "convolution",
      "n_groups" : 1,
      "pad_t" : 0,
      "has_biases" : 1,
      "C" : 64,
      "bottom" : "246",
      "weights" : {

      },
      "Nx" : 1,
      "pad_mode" : 0,
      "pad_value" : 0,
      "Ny" : 1,
      "n_parallel" : 1,
      "blob_weights_f16" : 143
    },
    {
      "bottom" : "247",
      "weights" : {

      },
      "mode" : 3,
      "debug_info" : "Sigmoid_123",
      "top" : "248",
      "type" : "activation",
      "name" : "Sigmoid_123"
    },
    {
      "bottom" : "247,248",
      "alpha" : 1,
      "operation" : 1,
      "weights" : {

      },
      "fused_relu" : 0,
      "debug_info" : "Mul_124",
      "top" : "249",
      "type" : "elementwise",
      "name" : "Mul_124",
      "beta" : 0
    },
    {
      "pad_r" : 1,
      "fused_relu" : 0,
      "fused_tanh" : 0,
      "debug_info" : "Conv_125",
      "pad_fill_mode" : 0,
      "pad_b" : 1,
      "pad_l" : 1,
      "top" : "250",
      "K" : 64,
      "blob_biases" : 145,
      "name" : "Conv_125",
      "has_batch_norm" : 0,
      "type" : "convolution",
      "n_groups" : 1,
      "pad_t" : 1,
      "has_biases" : 1,
      "C" : 64,
      "bottom" : "249",
      "weights" : {

      },
      "Nx" : 3,
      "pad_mode" : 0,
      "pad_value" : 0,
      "Ny" : 3,
      "n_parallel" : 1,
      "blob_weights_f16" : 147
    },
    {
      "bottom" : "250",
      "weights" : {

      },
      "mode" : 3,
      "debug_info" : "Sigmoid_126",
      "top" : "251",
      "type" : "activation",
      "name" : "Sigmoid_126"
    },
    {
      "bottom" : "250,251",
      "alpha" : 1,
      "operation" : 1,
      "weights" : {

      },
      "fused_relu" : 0,
      "debug_info" : "Mul_127",
      "top" : "252",
      "type" : "elementwise",
      "name" : "Mul_127",
      "beta" : 0
    },
    {
      "pad_r" : 0,
      "fused_relu" : 0,
      "fused_tanh" : 0,
      "debug_info" : "Conv_128",
      "pad_fill_mode" : 0,
      "pad_b" : 0,
      "pad_l" : 0,
      "top" : "253",
      "K" : 256,
      "blob_biases" : 149,
      "name" : "Conv_128",
      "has_batch_norm" : 0,
      "type" : "convolution",
      "n_groups" : 1,
      "pad_t" : 0,
      "has_biases" : 1,
      "C" : 64,
      "bottom" : "243",
      "weights" : {

      },
      "Nx" : 1,
      "pad_mode" : 0,
      "pad_value" : 0,
      "Ny" : 1,
      "n_parallel" : 1,
      "blob_weights_f16" : 151
    },
    {
      "bottom" : "253",
      "weights" : {

      },
      "mode" : 3,
      "debug_info" : "Sigmoid_129",
      "top" : "254",
      "type" : "activation",
      "name" : "Sigmoid_129"
    },
    {
      "bottom" : "253,254",
      "alpha" : 1,
      "operation" : 1,
      "weights" : {

      },
      "fused_relu" : 0,
      "debug_info" : "Mul_130",
      "top" : "255",
      "type" : "elementwise",
      "name" : "Mul_130",
      "beta" : 0
    },
    {
      "weights" : {

      },
      "debug_info" : "Concat_131",
      "top" : "256",
      "type" : "concat",
      "name" : "Concat_131",
      "bottom" : "252,255"
    },
    {
      "pad_r" : 0,
      "fused_relu" : 0,
      "fused_tanh" : 0,
      "debug_info" : "Conv_132",
      "pad_fill_mode" : 0,
      "pad_b" : 0,
      "pad_l" : 0,
      "top" : "257",
      "K" : 128,
      "blob_biases" : 153,
      "name" : "Conv_132",
      "has_batch_norm" : 0,
      "type" : "convolution",
      "n_groups" : 1,
      "pad_t" : 0,
      "has_biases" : 1,
      "C" : 128,
      "bottom" : "256",
      "weights" : {

      },
      "Nx" : 1,
      "pad_mode" : 0,
      "pad_value" : 0,
      "Ny" : 1,
      "n_parallel" : 1,
      "blob_weights_f16" : 155
    },
    {
      "bottom" : "257",
      "weights" : {

      },
      "mode" : 3,
      "debug_info" : "Sigmoid_133",
      "top" : "258",
      "type" : "activation",
      "name" : "Sigmoid_133"
    },
    {
      "bottom" : "257,258",
      "alpha" : 1,
      "operation" : 1,
      "weights" : {

      },
      "fused_relu" : 0,
      "debug_info" : "Mul_134",
      "top" : "259",
      "type" : "elementwise",
      "name" : "Mul_134",
      "beta" : 0
    },
    {
      "pad_r" : 0,
      "fused_relu" : 0,
      "fused_tanh" : 0,
      "debug_info" : "Conv_135",
      "pad_fill_mode" : 0,
      "pad_b" : 0,
      "pad_l" : 0,
      "top" : "260",
      "K" : 128,
      "blob_biases" : 157,
      "name" : "Conv_135",
      "has_batch_norm" : 0,
      "type" : "convolution",
      "n_groups" : 1,
      "pad_t" : 0,
      "has_biases" : 1,
      "C" : 64,
      "bottom" : "259",
      "weights" : {

      },
      "Nx" : 1,
      "pad_mode" : 0,
      "pad_value" : 0,
      "Ny" : 1,
      "n_parallel" : 1,
      "blob_weights_f16" : 159
    },
    {
      "bottom" : "260",
      "weights" : {

      },
      "mode" : 3,
      "debug_info" : "Sigmoid_136",
      "top" : "261",
      "type" : "activation",
      "name" : "Sigmoid_136"
    },
    {
      "bottom" : "260,261",
      "alpha" : 1,
      "operation" : 1,
      "weights" : {

      },
      "fused_relu" : 0,
      "debug_info" : "Mul_137",
      "top" : "262",
      "type" : "elementwise",
      "name" : "Mul_137",
      "beta" : 0
    },
    {
      "top" : "266",
      "use_fractional_scale_factors" : false,
      "weights" : {

      },
      "fractional_scaling_factor_y" : 1,
      "type" : "upsample",
      "scaling_factor_x" : 2,
      "mode" : 0,
      "align_corners" : 0,
      "bottom" : "262",
      "debug_info" : "Upsample_138",
      "fractional_scaling_factor_x" : 1,
      "is_legacy_mode" : 1,
      "name" : "Upsample_138",
      "scaling_factor_y" : 2
    },
    {
      "weights" : {

      },
      "debug_info" : "Concat_139",
      "top" : "267",
      "type" : "concat",
      "name" : "Concat_139",
      "bottom" : "266,171"
    },
    {
      "pad_r" : 0,
      "fused_relu" : 0,
      "fused_tanh" : 0,
      "debug_info" : "Conv_140",
      "pad_fill_mode" : 0,
      "pad_b" : 0,
      "pad_l" : 0,
      "top" : "268",
      "K" : 128,
      "blob_biases" : 161,
      "name" : "Conv_140",
      "has_batch_norm" : 0,
      "type" : "convolution",
      "n_groups" : 1,
      "pad_t" : 0,
      "has_biases" : 1,
      "C" : 32,
      "bottom" : "267",
      "weights" : {

      },
      "Nx" : 1,
      "pad_mode" : 0,
      "pad_value" : 0,
      "Ny" : 1,
      "n_parallel" : 1,
      "blob_weights_f16" : 163
    },
    {
      "bottom" : "268",
      "weights" : {

      },
      "mode" : 3,
      "debug_info" : "Sigmoid_141",
      "top" : "269",
      "type" : "activation",
      "name" : "Sigmoid_141"
    },
    {
      "bottom" : "268,269",
      "alpha" : 1,
      "operation" : 1,
      "weights" : {

      },
      "fused_relu" : 0,
      "debug_info" : "Mul_142",
      "top" : "270",
      "type" : "elementwise",
      "name" : "Mul_142",
      "beta" : 0
    },
    {
      "pad_r" : 0,
      "fused_relu" : 0,
      "fused_tanh" : 0,
      "debug_info" : "Conv_143",
      "pad_fill_mode" : 0,
      "pad_b" : 0,
      "pad_l" : 0,
      "top" : "271",
      "K" : 32,
      "blob_biases" : 165,
      "name" : "Conv_143",
      "has_batch_norm" : 0,
      "type" : "convolution",
      "n_groups" : 1,
      "pad_t" : 0,
      "has_biases" : 1,
      "C" : 32,
      "bottom" : "270",
      "weights" : {

      },
      "Nx" : 1,
      "pad_mode" : 0,
      "pad_value" : 0,
      "Ny" : 1,
      "n_parallel" : 1,
      "blob_weights_f16" : 167
    },
    {
      "bottom" : "271",
      "weights" : {

      },
      "mode" : 3,
      "debug_info" : "Sigmoid_144",
      "top" : "272",
      "type" : "activation",
      "name" : "Sigmoid_144"
    },
    {
      "bottom" : "271,272",
      "alpha" : 1,
      "operation" : 1,
      "weights" : {

      },
      "fused_relu" : 0,
      "debug_info" : "Mul_145",
      "top" : "273",
      "type" : "elementwise",
      "name" : "Mul_145",
      "beta" : 0
    },
    {
      "pad_r" : 1,
      "fused_relu" : 0,
      "fused_tanh" : 0,
      "debug_info" : "Conv_146",
      "pad_fill_mode" : 0,
      "pad_b" : 1,
      "pad_l" : 1,
      "top" : "274",
      "K" : 32,
      "blob_biases" : 169,
      "name" : "Conv_146",
      "has_batch_norm" : 0,
      "type" : "convolution",
      "n_groups" : 1,
      "pad_t" : 1,
      "has_biases" : 1,
      "C" : 32,
      "bottom" : "273",
      "weights" : {

      },
      "Nx" : 3,
      "pad_mode" : 0,
      "pad_value" : 0,
      "Ny" : 3,
      "n_parallel" : 1,
      "blob_weights_f16" : 171
    },
    {
      "bottom" : "274",
      "weights" : {

      },
      "mode" : 3,
      "debug_info" : "Sigmoid_147",
      "top" : "275",
      "type" : "activation",
      "name" : "Sigmoid_147"
    },
    {
      "bottom" : "274,275",
      "alpha" : 1,
      "operation" : 1,
      "weights" : {

      },
      "fused_relu" : 0,
      "debug_info" : "Mul_148",
      "top" : "276",
      "type" : "elementwise",
      "name" : "Mul_148",
      "beta" : 0
    },
    {
      "pad_r" : 0,
      "fused_relu" : 0,
      "fused_tanh" : 0,
      "debug_info" : "Conv_149",
      "pad_fill_mode" : 0,
      "pad_b" : 0,
      "pad_l" : 0,
      "top" : "277",
      "K" : 128,
      "blob_biases" : 173,
      "name" : "Conv_149",
      "has_batch_norm" : 0,
      "type" : "convolution",
      "n_groups" : 1,
      "pad_t" : 0,
      "has_biases" : 1,
      "C" : 32,
      "bottom" : "267",
      "weights" : {

      },
      "Nx" : 1,
      "pad_mode" : 0,
      "pad_value" : 0,
      "Ny" : 1,
      "n_parallel" : 1,
      "blob_weights_f16" : 175
    },
    {
      "bottom" : "277",
      "weights" : {

      },
      "mode" : 3,
      "debug_info" : "Sigmoid_150",
      "top" : "278",
      "type" : "activation",
      "name" : "Sigmoid_150"
    },
    {
      "bottom" : "277,278",
      "alpha" : 1,
      "operation" : 1,
      "weights" : {

      },
      "fused_relu" : 0,
      "debug_info" : "Mul_151",
      "top" : "279",
      "type" : "elementwise",
      "name" : "Mul_151",
      "beta" : 0
    },
    {
      "weights" : {

      },
      "debug_info" : "Concat_152",
      "top" : "280",
      "type" : "concat",
      "name" : "Concat_152",
      "bottom" : "276,279"
    },
    {
      "pad_r" : 0,
      "fused_relu" : 0,
      "fused_tanh" : 0,
      "debug_info" : "Conv_153",
      "pad_fill_mode" : 0,
      "pad_b" : 0,
      "pad_l" : 0,
      "top" : "281",
      "K" : 64,
      "blob_biases" : 177,
      "name" : "Conv_153",
      "has_batch_norm" : 0,
      "type" : "convolution",
      "n_groups" : 1,
      "pad_t" : 0,
      "has_biases" : 1,
      "C" : 64,
      "bottom" : "280",
      "weights" : {

      },
      "Nx" : 1,
      "pad_mode" : 0,
      "pad_value" : 0,
      "Ny" : 1,
      "n_parallel" : 1,
      "blob_weights_f16" : 179
    },
    {
      "bottom" : "281",
      "weights" : {

      },
      "mode" : 3,
      "debug_info" : "Sigmoid_154",
      "top" : "282",
      "type" : "activation",
      "name" : "Sigmoid_154"
    },
    {
      "bottom" : "281,282",
      "alpha" : 1,
      "operation" : 1,
      "weights" : {

      },
      "fused_relu" : 0,
      "debug_info" : "Mul_155",
      "top" : "283",
      "type" : "elementwise",
      "name" : "Mul_155",
      "beta" : 0
    },
    {
      "pad_r" : 1,
      "fused_relu" : 0,
      "fused_tanh" : 0,
      "debug_info" : "Conv_156",
      "pad_fill_mode" : 0,
      "pad_b" : 1,
      "pad_l" : 1,
      "top" : "284",
      "K" : 64,
      "blob_biases" : 181,
      "stride_x" : 2,
      "name" : "Conv_156",
      "has_batch_norm" : 0,
      "type" : "convolution",
      "n_groups" : 1,
      "pad_t" : 1,
      "stride_y" : 2,
      "has_biases" : 1,
      "C" : 64,
      "bottom" : "283",
      "weights" : {

      },
      "Nx" : 3,
      "pad_mode" : 0,
      "pad_value" : 0,
      "Ny" : 3,
      "n_parallel" : 1,
      "blob_weights_f16" : 183
    },
    {
      "bottom" : "284",
      "weights" : {

      },
      "mode" : 3,
      "debug_info" : "Sigmoid_157",
      "top" : "285",
      "type" : "activation",
      "name" : "Sigmoid_157"
    },
    {
      "bottom" : "284,285",
      "alpha" : 1,
      "operation" : 1,
      "weights" : {

      },
      "fused_relu" : 0,
      "debug_info" : "Mul_158",
      "top" : "286",
      "type" : "elementwise",
      "name" : "Mul_158",
      "beta" : 0
    },
    {
      "weights" : {

      },
      "debug_info" : "Concat_159",
      "top" : "287",
      "type" : "concat",
      "name" : "Concat_159",
      "bottom" : "286,262"
    },
    {
      "pad_r" : 0,
      "fused_relu" : 0,
      "fused_tanh" : 0,
      "debug_info" : "Conv_160",
      "pad_fill_mode" : 0,
      "pad_b" : 0,
      "pad_l" : 0,
      "top" : "288",
      "K" : 128,
      "blob_biases" : 185,
      "name" : "Conv_160",
      "has_batch_norm" : 0,
      "type" : "convolution",
      "n_groups" : 1,
      "pad_t" : 0,
      "has_biases" : 1,
      "C" : 64,
      "bottom" : "287",
      "weights" : {

      },
      "Nx" : 1,
      "pad_mode" : 0,
      "pad_value" : 0,
      "Ny" : 1,
      "n_parallel" : 1,
      "blob_weights_f16" : 187
    },
    {
      "bottom" : "288",
      "weights" : {

      },
      "mode" : 3,
      "debug_info" : "Sigmoid_161",
      "top" : "289",
      "type" : "activation",
      "name" : "Sigmoid_161"
    },
    {
      "bottom" : "288,289",
      "alpha" : 1,
      "operation" : 1,
      "weights" : {

      },
      "fused_relu" : 0,
      "debug_info" : "Mul_162",
      "top" : "290",
      "type" : "elementwise",
      "name" : "Mul_162",
      "beta" : 0
    },
    {
      "pad_r" : 0,
      "fused_relu" : 0,
      "fused_tanh" : 0,
      "debug_info" : "Conv_163",
      "pad_fill_mode" : 0,
      "pad_b" : 0,
      "pad_l" : 0,
      "top" : "291",
      "K" : 64,
      "blob_biases" : 189,
      "name" : "Conv_163",
      "has_batch_norm" : 0,
      "type" : "convolution",
      "n_groups" : 1,
      "pad_t" : 0,
      "has_biases" : 1,
      "C" : 64,
      "bottom" : "290",
      "weights" : {

      },
      "Nx" : 1,
      "pad_mode" : 0,
      "pad_value" : 0,
      "Ny" : 1,
      "n_parallel" : 1,
      "blob_weights_f16" : 191
    },
    {
      "bottom" : "291",
      "weights" : {

      },
      "mode" : 3,
      "debug_info" : "Sigmoid_164",
      "top" : "292",
      "type" : "activation",
      "name" : "Sigmoid_164"
    },
    {
      "bottom" : "291,292",
      "alpha" : 1,
      "operation" : 1,
      "weights" : {

      },
      "fused_relu" : 0,
      "debug_info" : "Mul_165",
      "top" : "293",
      "type" : "elementwise",
      "name" : "Mul_165",
      "beta" : 0
    },
    {
      "pad_r" : 1,
      "fused_relu" : 0,
      "fused_tanh" : 0,
      "debug_info" : "Conv_166",
      "pad_fill_mode" : 0,
      "pad_b" : 1,
      "pad_l" : 1,
      "top" : "294",
      "K" : 64,
      "blob_biases" : 193,
      "name" : "Conv_166",
      "has_batch_norm" : 0,
      "type" : "convolution",
      "n_groups" : 1,
      "pad_t" : 1,
      "has_biases" : 1,
      "C" : 64,
      "bottom" : "293",
      "weights" : {

      },
      "Nx" : 3,
      "pad_mode" : 0,
      "pad_value" : 0,
      "Ny" : 3,
      "n_parallel" : 1,
      "blob_weights_f16" : 195
    },
    {
      "bottom" : "294",
      "weights" : {

      },
      "mode" : 3,
      "debug_info" : "Sigmoid_167",
      "top" : "295",
      "type" : "activation",
      "name" : "Sigmoid_167"
    },
    {
      "bottom" : "294,295",
      "alpha" : 1,
      "operation" : 1,
      "weights" : {

      },
      "fused_relu" : 0,
      "debug_info" : "Mul_168",
      "top" : "296",
      "type" : "elementwise",
      "name" : "Mul_168",
      "beta" : 0
    },
    {
      "pad_r" : 0,
      "fused_relu" : 0,
      "fused_tanh" : 0,
      "debug_info" : "Conv_169",
      "pad_fill_mode" : 0,
      "pad_b" : 0,
      "pad_l" : 0,
      "top" : "297",
      "K" : 128,
      "blob_biases" : 197,
      "name" : "Conv_169",
      "has_batch_norm" : 0,
      "type" : "convolution",
      "n_groups" : 1,
      "pad_t" : 0,
      "has_biases" : 1,
      "C" : 64,
      "bottom" : "287",
      "weights" : {

      },
      "Nx" : 1,
      "pad_mode" : 0,
      "pad_value" : 0,
      "Ny" : 1,
      "n_parallel" : 1,
      "blob_weights_f16" : 199
    },
    {
      "bottom" : "297",
      "weights" : {

      },
      "mode" : 3,
      "debug_info" : "Sigmoid_170",
      "top" : "298",
      "type" : "activation",
      "name" : "Sigmoid_170"
    },
    {
      "bottom" : "297,298",
      "alpha" : 1,
      "operation" : 1,
      "weights" : {

      },
      "fused_relu" : 0,
      "debug_info" : "Mul_171",
      "top" : "299",
      "type" : "elementwise",
      "name" : "Mul_171",
      "beta" : 0
    },
    {
      "weights" : {

      },
      "debug_info" : "Concat_172",
      "top" : "300",
      "type" : "concat",
      "name" : "Concat_172",
      "bottom" : "296,299"
    },
    {
      "pad_r" : 0,
      "fused_relu" : 0,
      "fused_tanh" : 0,
      "debug_info" : "Conv_173",
      "pad_fill_mode" : 0,
      "pad_b" : 0,
      "pad_l" : 0,
      "top" : "301",
      "K" : 128,
      "blob_biases" : 201,
      "name" : "Conv_173",
      "has_batch_norm" : 0,
      "type" : "convolution",
      "n_groups" : 1,
      "pad_t" : 0,
      "has_biases" : 1,
      "C" : 128,
      "bottom" : "300",
      "weights" : {

      },
      "Nx" : 1,
      "pad_mode" : 0,
      "pad_value" : 0,
      "Ny" : 1,
      "n_parallel" : 1,
      "blob_weights_f16" : 203
    },
    {
      "bottom" : "301",
      "weights" : {

      },
      "mode" : 3,
      "debug_info" : "Sigmoid_174",
      "top" : "302",
      "type" : "activation",
      "name" : "Sigmoid_174"
    },
    {
      "bottom" : "301,302",
      "alpha" : 1,
      "operation" : 1,
      "weights" : {

      },
      "fused_relu" : 0,
      "debug_info" : "Mul_175",
      "top" : "303",
      "type" : "elementwise",
      "name" : "Mul_175",
      "beta" : 0
    },
    {
      "pad_r" : 1,
      "fused_relu" : 0,
      "fused_tanh" : 0,
      "debug_info" : "Conv_176",
      "pad_fill_mode" : 0,
      "pad_b" : 1,
      "pad_l" : 1,
      "top" : "304",
      "K" : 128,
      "blob_biases" : 205,
      "stride_x" : 2,
      "name" : "Conv_176",
      "has_batch_norm" : 0,
      "type" : "convolution",
      "n_groups" : 1,
      "pad_t" : 1,
      "stride_y" : 2,
      "has_biases" : 1,
      "C" : 128,
      "bottom" : "303",
      "weights" : {

      },
      "Nx" : 3,
      "pad_mode" : 0,
      "pad_value" : 0,
      "Ny" : 3,
      "n_parallel" : 1,
      "blob_weights_f16" : 207
    },
    {
      "bottom" : "304",
      "weights" : {

      },
      "mode" : 3,
      "debug_info" : "Sigmoid_177",
      "top" : "305",
      "type" : "activation",
      "name" : "Sigmoid_177"
    },
    {
      "bottom" : "304,305",
      "alpha" : 1,
      "operation" : 1,
      "weights" : {

      },
      "fused_relu" : 0,
      "debug_info" : "Mul_178",
      "top" : "306",
      "type" : "elementwise",
      "name" : "Mul_178",
      "beta" : 0
    },
    {
      "weights" : {

      },
      "debug_info" : "Concat_179",
      "top" : "307",
      "type" : "concat",
      "name" : "Concat_179",
      "bottom" : "306,238"
    },
    {
      "pad_r" : 0,
      "fused_relu" : 0,
      "fused_tanh" : 0,
      "debug_info" : "Conv_180",
      "pad_fill_mode" : 0,
      "pad_b" : 0,
      "pad_l" : 0,
      "top" : "308",
      "K" : 256,
      "blob_biases" : 209,
      "name" : "Conv_180",
      "has_batch_norm" : 0,
      "type" : "convolution",
      "n_groups" : 1,
      "pad_t" : 0,
      "has_biases" : 1,
      "C" : 128,
      "bottom" : "307",
      "weights" : {

      },
      "Nx" : 1,
      "pad_mode" : 0,
      "pad_value" : 0,
      "Ny" : 1,
      "n_parallel" : 1,
      "blob_weights_f16" : 211
    },
    {
      "bottom" : "308",
      "weights" : {

      },
      "mode" : 3,
      "debug_info" : "Sigmoid_181",
      "top" : "309",
      "type" : "activation",
      "name" : "Sigmoid_181"
    },
    {
      "bottom" : "308,309",
      "alpha" : 1,
      "operation" : 1,
      "weights" : {

      },
      "fused_relu" : 0,
      "debug_info" : "Mul_182",
      "top" : "310",
      "type" : "elementwise",
      "name" : "Mul_182",
      "beta" : 0
    },
    {
      "pad_r" : 0,
      "fused_relu" : 0,
      "fused_tanh" : 0,
      "debug_info" : "Conv_183",
      "pad_fill_mode" : 0,
      "pad_b" : 0,
      "pad_l" : 0,
      "top" : "311",
      "K" : 128,
      "blob_biases" : 213,
      "name" : "Conv_183",
      "has_batch_norm" : 0,
      "type" : "convolution",
      "n_groups" : 1,
      "pad_t" : 0,
      "has_biases" : 1,
      "C" : 128,
      "bottom" : "310",
      "weights" : {

      },
      "Nx" : 1,
      "pad_mode" : 0,
      "pad_value" : 0,
      "Ny" : 1,
      "n_parallel" : 1,
      "blob_weights_f16" : 215
    },
    {
      "bottom" : "311",
      "weights" : {

      },
      "mode" : 3,
      "debug_info" : "Sigmoid_184",
      "top" : "312",
      "type" : "activation",
      "name" : "Sigmoid_184"
    },
    {
      "bottom" : "311,312",
      "alpha" : 1,
      "operation" : 1,
      "weights" : {

      },
      "fused_relu" : 0,
      "debug_info" : "Mul_185",
      "top" : "313",
      "type" : "elementwise",
      "name" : "Mul_185",
      "beta" : 0
    },
    {
      "pad_r" : 1,
      "fused_relu" : 0,
      "fused_tanh" : 0,
      "debug_info" : "Conv_186",
      "pad_fill_mode" : 0,
      "pad_b" : 1,
      "pad_l" : 1,
      "top" : "314",
      "K" : 128,
      "blob_biases" : 217,
      "name" : "Conv_186",
      "has_batch_norm" : 0,
      "type" : "convolution",
      "n_groups" : 1,
      "pad_t" : 1,
      "has_biases" : 1,
      "C" : 128,
      "bottom" : "313",
      "weights" : {

      },
      "Nx" : 3,
      "pad_mode" : 0,
      "pad_value" : 0,
      "Ny" : 3,
      "n_parallel" : 1,
      "blob_weights_f16" : 219
    },
    {
      "bottom" : "314",
      "weights" : {

      },
      "mode" : 3,
      "debug_info" : "Sigmoid_187",
      "top" : "315",
      "type" : "activation",
      "name" : "Sigmoid_187"
    },
    {
      "bottom" : "314,315",
      "alpha" : 1,
      "operation" : 1,
      "weights" : {

      },
      "fused_relu" : 0,
      "debug_info" : "Mul_188",
      "top" : "316",
      "type" : "elementwise",
      "name" : "Mul_188",
      "beta" : 0
    },
    {
      "pad_r" : 0,
      "fused_relu" : 0,
      "fused_tanh" : 0,
      "debug_info" : "Conv_189",
      "pad_fill_mode" : 0,
      "pad_b" : 0,
      "pad_l" : 0,
      "top" : "317",
      "K" : 256,
      "blob_biases" : 221,
      "name" : "Conv_189",
      "has_batch_norm" : 0,
      "type" : "convolution",
      "n_groups" : 1,
      "pad_t" : 0,
      "has_biases" : 1,
      "C" : 128,
      "bottom" : "307",
      "weights" : {

      },
      "Nx" : 1,
      "pad_mode" : 0,
      "pad_value" : 0,
      "Ny" : 1,
      "n_parallel" : 1,
      "blob_weights_f16" : 223
    },
    {
      "bottom" : "317",
      "weights" : {

      },
      "mode" : 3,
      "debug_info" : "Sigmoid_190",
      "top" : "318",
      "type" : "activation",
      "name" : "Sigmoid_190"
    },
    {
      "bottom" : "317,318",
      "alpha" : 1,
      "operation" : 1,
      "weights" : {

      },
      "fused_relu" : 0,
      "debug_info" : "Mul_191",
      "top" : "319",
      "type" : "elementwise",
      "name" : "Mul_191",
      "beta" : 0
    },
    {
      "weights" : {

      },
      "debug_info" : "Concat_192",
      "top" : "320",
      "type" : "concat",
      "name" : "Concat_192",
      "bottom" : "316,319"
    },
    {
      "pad_r" : 0,
      "fused_relu" : 0,
      "fused_tanh" : 0,
      "debug_info" : "Conv_193",
      "pad_fill_mode" : 0,
      "pad_b" : 0,
      "pad_l" : 0,
      "top" : "321",
      "K" : 256,
      "blob_biases" : 225,
      "name" : "Conv_193",
      "has_batch_norm" : 0,
      "type" : "convolution",
      "n_groups" : 1,
      "pad_t" : 0,
      "has_biases" : 1,
      "C" : 256,
      "bottom" : "320",
      "weights" : {

      },
      "Nx" : 1,
      "pad_mode" : 0,
      "pad_value" : 0,
      "Ny" : 1,
      "n_parallel" : 1,
      "blob_weights_f16" : 227
    },
    {
      "bottom" : "321",
      "weights" : {

      },
      "mode" : 3,
      "debug_info" : "Sigmoid_194",
      "top" : "322",
      "type" : "activation",
      "name" : "Sigmoid_194"
    },
    {
      "bottom" : "321,322",
      "alpha" : 1,
      "operation" : 1,
      "weights" : {

      },
      "fused_relu" : 0,
      "debug_info" : "Mul_195",
      "top" : "323",
      "type" : "elementwise",
      "name" : "Mul_195",
      "beta" : 0
    },
    {
      "pad_r" : 0,
      "fused_relu" : 0,
      "fused_tanh" : 0,
      "debug_info" : "Conv_196",
      "pad_fill_mode" : 0,
      "pad_b" : 0,
      "pad_l" : 0,
      "top" : "324",
      "K" : 64,
      "blob_biases" : 229,
      "name" : "Conv_196",
      "has_batch_norm" : 0,
      "type" : "convolution",
      "n_groups" : 1,
      "pad_t" : 0,
      "has_biases" : 1,
      "C" : 18,
      "bottom" : "283",
      "weights" : {

      },
      "Nx" : 1,
      "pad_mode" : 0,
      "pad_value" : 0,
      "Ny" : 1,
      "n_parallel" : 1,
      "blob_weights_f16" : 231
    },
    {
      "name" : "Reshape_197",
      "weights" : {

      },
      "dst_w" : 16,
      "version" : 1,
      "dst_n" : 0,
      "type" : "reshape",
      "dst_h" : 12,
      "mode" : 0,
      "bottom" : "324",
      "debug_info" : "Reshape_197",
      "dst_seq" : 3,
      "dst_k" : 6,
      "top" : "336"
    },
    {
      "axis_h" : 0,
      "axis_w" : 2,
      "bottom" : "336",
      "axis_k" : 1,
      "axis_n" : 3,
      "axis_seq" : 4,
      "weights" : {

      },
      "debug_info" : "Transpose_198",
      "top" : "337",
      "type" : "transpose",
      "name" : "Transpose_198"
    },
    {
      "bottom" : "337",
      "weights" : {

      },
      "mode" : 3,
      "debug_info" : "Sigmoid_233",
      "top" : "382",
      "type" : "activation",
      "name" : "Sigmoid_233"
    },
    {
      "axis_h" : 1,
      "axis_w" : 2,
      "bottom" : "382",
      "axis_k" : 0,
      "axis_n" : 3,
      "axis_seq" : 4,
      "weights" : {

      },
      "debug_info" : "Split_234_input_transpose0",
      "top" : "Split_234_382_transpose",
      "type" : "transpose",
      "name" : "Split_234_input_transpose0"
    },
    {
      "bottom" : "Split_234_382_transpose",
      "cut" : 0,
      "weights" : {

      },
      "debug_info" : "Split_234",
      "n_outputs" : 3,
      "top" : "383_transpose,384_transpose,385_transpose",
      "type" : "split",
      "name" : "Split_234"
    },
    {
      "axis_h" : 1,
      "axis_w" : 2,
      "bottom" : "383_transpose",
      "axis_k" : 0,
      "axis_n" : 3,
      "axis_seq" : 4,
      "weights" : {

      },
      "debug_info" : "Split_234_output_transpose0",
      "top" : "383",
      "type" : "transpose",
      "name" : "Split_234_output_transpose0"
    },
    {
      "axis_h" : 1,
      "axis_w" : 2,
      "bottom" : "384_transpose",
      "axis_k" : 0,
      "axis_n" : 3,
      "axis_seq" : 4,
      "weights" : {

      },
      "debug_info" : "Split_234_output_transpose1",
      "top" : "384",
      "type" : "transpose",
      "name" : "Split_234_output_transpose1"
    },
    {
      "axis_h" : 1,
      "axis_w" : 2,
      "bottom" : "385_transpose",
      "axis_k" : 0,
      "axis_n" : 3,
      "axis_seq" : 4,
      "weights" : {

      },
      "debug_info" : "Split_234_output_transpose2",
      "top" : "385",
      "type" : "transpose",
      "name" : "Split_234_output_transpose2"
    },
    {
      "bottom" : "",
      "k" : 1,
      "n" : 1,
      "weights" : {

      },
      "h" : 1,
      "debug_info" : "589",
      "constant_blob" : 233,
      "top" : "589",
      "w" : 1,
      "type" : "load_constant",
      "name" : "589"
    },
    {
      "bottom" : "383,589",
      "alpha" : 1,
      "operation" : 1,
      "weights" : {

      },
      "fused_relu" : 0,
      "debug_info" : "Mul_236",
      "top" : "387",
      "type" : "elementwise",
      "name" : "Mul_236",
      "beta" : 0
    },
    {
      "bottom" : "",
      "k" : 12,
      "n" : 1,
      "weights" : {

      },
      "h" : 16,
      "debug_info" : "375",
      "constant_blob" : 235,
      "top" : "375",
      "w" : 2,
      "type" : "load_constant",
      "name" : "375"
    },
    {
      "bottom" : "387,375",
      "alpha" : 1,
      "operation" : 0,
      "weights" : {

      },
      "fused_relu" : 0,
      "debug_info" : "Add_237",
      "top" : "388",
      "type" : "elementwise",
      "name" : "Add_237",
      "beta" : 0
    },
    {
      "bottom" : "",
      "k" : 1,
      "n" : 1,
      "weights" : {

      },
      "h" : 1,
      "debug_info" : "389",
      "constant_blob" : 237,
      "top" : "389",
      "w" : 1,
      "type" : "load_constant",
      "name" : "389"
    },
    {
      "bottom" : "388,389",
      "alpha" : 1,
      "operation" : 1,
      "weights" : {

      },
      "fused_relu" : 0,
      "debug_info" : "Mul_239",
      "top" : "390",
      "type" : "elementwise",
      "name" : "Mul_239",
      "beta" : 0
    },
    {
      "axis_h" : 4,
      "axis_w" : 0,
      "bottom" : "384",
      "axis_k" : 1,
      "axis_n" : 3,
      "axis_seq" : 2,
      "weights" : {

      },
      "debug_info" : "Transpose_240",
      "top" : "391",
      "type" : "transpose",
      "name" : "Transpose_240"
    },
    {
      "bottom" : "391,589",
      "alpha" : 1,
      "operation" : 1,
      "weights" : {

      },
      "fused_relu" : 0,
      "debug_info" : "Mul_242",
      "top" : "393",
      "type" : "elementwise",
      "name" : "Mul_242",
      "beta" : 0
    },
    {
      "bottom" : "393",
      "alpha" : 2,
      "operation" : 13,
      "weights" : {

      },
      "fused_relu" : 0,
      "debug_info" : "Pow_243",
      "top" : "396",
      "type" : "elementwise",
      "name" : "Pow_243",
      "beta" : 0
    },
    {
      "bottom" : "",
      "k" : 1,
      "n" : 1,
      "weights" : {

      },
      "h" : 3,
      "debug_info" : "588",
      "constant_blob" : 239,
      "top" : "588",
      "w" : 2,
      "type" : "load_constant",
      "name" : "588"
    },
    {
      "bottom" : "396,588",
      "alpha" : 1,
      "operation" : 1,
      "weights" : {

      },
      "fused_relu" : 0,
      "debug_info" : "Mul_244",
      "top" : "397",
      "type" : "elementwise",
      "name" : "Mul_244",
      "beta" : 0
    },
    {
      "axis_h" : 2,
      "axis_w" : 0,
      "bottom" : "397",
      "axis_k" : 4,
      "axis_n" : 3,
      "axis_seq" : 1,
      "weights" : {

      },
      "debug_info" : "Transpose_245",
      "top" : "398",
      "type" : "transpose",
      "name" : "Transpose_245"
    },
    {
      "axis_h" : 1,
      "axis_w" : 2,
      "bottom" : "390",
      "axis_k" : 0,
      "axis_n" : 3,
      "axis_seq" : 4,
      "weights" : {

      },
      "debug_info" : "Concat_246_input_transpose0",
      "top" : "Concat_246_390_transpose",
      "type" : "transpose",
      "name" : "Concat_246_input_transpose0"
    },
    {
      "axis_h" : 1,
      "axis_w" : 2,
      "bottom" : "398",
      "axis_k" : 0,
      "axis_n" : 3,
      "axis_seq" : 4,
      "weights" : {

      },
      "debug_info" : "Concat_246_input_transpose1",
      "top" : "Concat_246_398_transpose",
      "type" : "transpose",
      "name" : "Concat_246_input_transpose1"
    },
    {
      "axis_h" : 1,
      "axis_w" : 2,
      "bottom" : "385",
      "axis_k" : 0,
      "axis_n" : 3,
      "axis_seq" : 4,
      "weights" : {

      },
      "debug_info" : "Concat_246_input_transpose2",
      "top" : "Concat_246_385_transpose",
      "type" : "transpose",
      "name" : "Concat_246_input_transpose2"
    },
    {
      "weights" : {

      },
      "debug_info" : "Concat_246",
      "top" : "399_transpose",
      "type" : "concat",
      "name" : "Concat_246",
      "bottom" : "Concat_246_390_transpose,Concat_246_398_transpose,Concat_246_385_transpose"
    },
    {
      "axis_h" : 1,
      "axis_w" : 2,
      "bottom" : "399_transpose",
      "axis_k" : 0,
      "axis_n" : 3,
      "axis_seq" : 4,
      "weights" : {

      },
      "debug_info" : "Concat_246_output_transpose0",
      "top" : "399",
      "type" : "transpose",
      "name" : "Concat_246_output_transpose0"
    },
    {
      "name" : "Reshape_247",
      "weights" : {

      },
      "dst_w" : 6,
      "version" : 1,
      "dst_n" : 0,
      "type" : "reshape",
      "dst_h" : -1,
      "mode" : 0,
      "bottom" : "399",
      "debug_info" : "Reshape_247",
      "dst_seq" : 1,
      "dst_k" : 1,
      "top" : "406"
    },
    {
      "pad_r" : 0,
      "fused_relu" : 0,
      "fused_tanh" : 0,
      "debug_info" : "Conv_248",
      "pad_fill_mode" : 0,
      "pad_b" : 0,
      "pad_l" : 0,
      "top" : "407",
      "K" : 128,
      "blob_biases" : 241,
      "name" : "Conv_248",
      "has_batch_norm" : 0,
      "type" : "convolution",
      "n_groups" : 1,
      "pad_t" : 0,
      "has_biases" : 1,
      "C" : 18,
      "bottom" : "303",
      "weights" : {

      },
      "Nx" : 1,
      "pad_mode" : 0,
      "pad_value" : 0,
      "Ny" : 1,
      "n_parallel" : 1,
      "blob_weights_f16" : 243
    },
    {
      "name" : "Reshape_249",
      "weights" : {

      },
      "dst_w" : 8,
      "version" : 1,
      "dst_n" : 0,
      "type" : "reshape",
      "dst_h" : 6,
      "mode" : 0,
      "bottom" : "407",
      "debug_info" : "Reshape_249",
      "dst_seq" : 3,
      "dst_k" : 6,
      "top" : "419"
    },
    {
      "axis_h" : 0,
      "axis_w" : 2,
      "bottom" : "419",
      "axis_k" : 1,
      "axis_n" : 3,
      "axis_seq" : 4,
      "weights" : {

      },
      "debug_info" : "Transpose_250",
      "top" : "420",
      "type" : "transpose",
      "name" : "Transpose_250"
    },
    {
      "bottom" : "420",
      "weights" : {

      },
      "mode" : 3,
      "debug_info" : "Sigmoid_285",
      "top" : "465",
      "type" : "activation",
      "name" : "Sigmoid_285"
    },
    {
      "axis_h" : 1,
      "axis_w" : 2,
      "bottom" : "465",
      "axis_k" : 0,
      "axis_n" : 3,
      "axis_seq" : 4,
      "weights" : {

      },
      "debug_info" : "Split_286_input_transpose0",
      "top" : "Split_286_465_transpose",
      "type" : "transpose",
      "name" : "Split_286_input_transpose0"
    },
    {
      "bottom" : "Split_286_465_transpose",
      "cut" : 0,
      "weights" : {

      },
      "debug_info" : "Split_286",
      "n_outputs" : 3,
      "top" : "466_transpose,467_transpose,468_transpose",
      "type" : "split",
      "name" : "Split_286"
    },
    {
      "axis_h" : 1,
      "axis_w" : 2,
      "bottom" : "466_transpose",
      "axis_k" : 0,
      "axis_n" : 3,
      "axis_seq" : 4,
      "weights" : {

      },
      "debug_info" : "Split_286_output_transpose0",
      "top" : "466",
      "type" : "transpose",
      "name" : "Split_286_output_transpose0"
    },
    {
      "axis_h" : 1,
      "axis_w" : 2,
      "bottom" : "467_transpose",
      "axis_k" : 0,
      "axis_n" : 3,
      "axis_seq" : 4,
      "weights" : {

      },
      "debug_info" : "Split_286_output_transpose1",
      "top" : "467",
      "type" : "transpose",
      "name" : "Split_286_output_transpose1"
    },
    {
      "axis_h" : 1,
      "axis_w" : 2,
      "bottom" : "468_transpose",
      "axis_k" : 0,
      "axis_n" : 3,
      "axis_seq" : 4,
      "weights" : {

      },
      "debug_info" : "Split_286_output_transpose2",
      "top" : "468",
      "type" : "transpose",
      "name" : "Split_286_output_transpose2"
    },
    {
      "bottom" : "466,589",
      "alpha" : 1,
      "operation" : 1,
      "weights" : {

      },
      "fused_relu" : 0,
      "debug_info" : "Mul_288",
      "top" : "470",
      "type" : "elementwise",
      "name" : "Mul_288",
      "beta" : 0
    },
    {
      "bottom" : "",
      "k" : 6,
      "n" : 1,
      "weights" : {

      },
      "h" : 8,
      "debug_info" : "458",
      "constant_blob" : 245,
      "top" : "458",
      "w" : 2,
      "type" : "load_constant",
      "name" : "458"
    },
    {
      "bottom" : "470,458",
      "alpha" : 1,
      "operation" : 0,
      "weights" : {

      },
      "fused_relu" : 0,
      "debug_info" : "Add_289",
      "top" : "471",
      "type" : "elementwise",
      "name" : "Add_289",
      "beta" : 0
    },
    {
      "bottom" : "",
      "k" : 1,
      "n" : 1,
      "weights" : {

      },
      "h" : 1,
      "debug_info" : "472",
      "constant_blob" : 247,
      "top" : "472",
      "w" : 1,
      "type" : "load_constant",
      "name" : "472"
    },
    {
      "bottom" : "471,472",
      "alpha" : 1,
      "operation" : 1,
      "weights" : {

      },
      "fused_relu" : 0,
      "debug_info" : "Mul_291",
      "top" : "473",
      "type" : "elementwise",
      "name" : "Mul_291",
      "beta" : 0
    },
    {
      "axis_h" : 4,
      "axis_w" : 0,
      "bottom" : "467",
      "axis_k" : 1,
      "axis_n" : 3,
      "axis_seq" : 2,
      "weights" : {

      },
      "debug_info" : "Transpose_292",
      "top" : "474",
      "type" : "transpose",
      "name" : "Transpose_292"
    },
    {
      "bottom" : "474,589",
      "alpha" : 1,
      "operation" : 1,
      "weights" : {

      },
      "fused_relu" : 0,
      "debug_info" : "Mul_294",
      "top" : "476",
      "type" : "elementwise",
      "name" : "Mul_294",
      "beta" : 0
    },
    {
      "bottom" : "476",
      "alpha" : 2,
      "operation" : 13,
      "weights" : {

      },
      "fused_relu" : 0,
      "debug_info" : "Pow_295",
      "top" : "479",
      "type" : "elementwise",
      "name" : "Pow_295",
      "beta" : 0
    },
    {
      "bottom" : "",
      "k" : 1,
      "n" : 1,
      "weights" : {

      },
      "h" : 3,
      "debug_info" : "606",
      "constant_blob" : 249,
      "top" : "606",
      "w" : 2,
      "type" : "load_constant",
      "name" : "606"
    },
    {
      "bottom" : "479,606",
      "alpha" : 1,
      "operation" : 1,
      "weights" : {

      },
      "fused_relu" : 0,
      "debug_info" : "Mul_296",
      "top" : "480",
      "type" : "elementwise",
      "name" : "Mul_296",
      "beta" : 0
    },
    {
      "axis_h" : 2,
      "axis_w" : 0,
      "bottom" : "480",
      "axis_k" : 4,
      "axis_n" : 3,
      "axis_seq" : 1,
      "weights" : {

      },
      "debug_info" : "Transpose_297",
      "top" : "481",
      "type" : "transpose",
      "name" : "Transpose_297"
    },
    {
      "axis_h" : 1,
      "axis_w" : 2,
      "bottom" : "473",
      "axis_k" : 0,
      "axis_n" : 3,
      "axis_seq" : 4,
      "weights" : {

      },
      "debug_info" : "Concat_298_input_transpose0",
      "top" : "Concat_298_473_transpose",
      "type" : "transpose",
      "name" : "Concat_298_input_transpose0"
    },
    {
      "axis_h" : 1,
      "axis_w" : 2,
      "bottom" : "481",
      "axis_k" : 0,
      "axis_n" : 3,
      "axis_seq" : 4,
      "weights" : {

      },
      "debug_info" : "Concat_298_input_transpose1",
      "top" : "Concat_298_481_transpose",
      "type" : "transpose",
      "name" : "Concat_298_input_transpose1"
    },
    {
      "axis_h" : 1,
      "axis_w" : 2,
      "bottom" : "468",
      "axis_k" : 0,
      "axis_n" : 3,
      "axis_seq" : 4,
      "weights" : {

      },
      "debug_info" : "Concat_298_input_transpose2",
      "top" : "Concat_298_468_transpose",
      "type" : "transpose",
      "name" : "Concat_298_input_transpose2"
    },
    {
      "weights" : {

      },
      "debug_info" : "Concat_298",
      "top" : "482_transpose",
      "type" : "concat",
      "name" : "Concat_298",
      "bottom" : "Concat_298_473_transpose,Concat_298_481_transpose,Concat_298_468_transpose"
    },
    {
      "axis_h" : 1,
      "axis_w" : 2,
      "bottom" : "482_transpose",
      "axis_k" : 0,
      "axis_n" : 3,
      "axis_seq" : 4,
      "weights" : {

      },
      "debug_info" : "Concat_298_output_transpose0",
      "top" : "482",
      "type" : "transpose",
      "name" : "Concat_298_output_transpose0"
    },
    {
      "name" : "Reshape_299",
      "weights" : {

      },
      "dst_w" : 6,
      "version" : 1,
      "dst_n" : 0,
      "type" : "reshape",
      "dst_h" : -1,
      "mode" : 0,
      "bottom" : "482",
      "debug_info" : "Reshape_299",
      "dst_seq" : 1,
      "dst_k" : 1,
      "top" : "489"
    },
    {
      "pad_r" : 0,
      "fused_relu" : 0,
      "fused_tanh" : 0,
      "debug_info" : "Conv_300",
      "pad_fill_mode" : 0,
      "pad_b" : 0,
      "pad_l" : 0,
      "top" : "490",
      "K" : 256,
      "blob_biases" : 251,
      "name" : "Conv_300",
      "has_batch_norm" : 0,
      "type" : "convolution",
      "n_groups" : 1,
      "pad_t" : 0,
      "has_biases" : 1,
      "C" : 18,
      "bottom" : "323",
      "weights" : {

      },
      "Nx" : 1,
      "pad_mode" : 0,
      "pad_value" : 0,
      "Ny" : 1,
      "n_parallel" : 1,
      "blob_weights_f16" : 253
    },
    {
      "name" : "Reshape_301",
      "weights" : {

      },
      "dst_w" : 4,
      "version" : 1,
      "dst_n" : 0,
      "type" : "reshape",
      "dst_h" : 3,
      "mode" : 0,
      "bottom" : "490",
      "debug_info" : "Reshape_301",
      "dst_seq" : 3,
      "dst_k" : 6,
      "top" : "502"
    },
    {
      "axis_h" : 0,
      "axis_w" : 2,
      "bottom" : "502",
      "axis_k" : 1,
      "axis_n" : 3,
      "axis_seq" : 4,
      "weights" : {

      },
      "debug_info" : "Transpose_302",
      "top" : "503",
      "type" : "transpose",
      "name" : "Transpose_302"
    },
    {
      "bottom" : "503",
      "weights" : {

      },
      "mode" : 3,
      "debug_info" : "Sigmoid_337",
      "top" : "548",
      "type" : "activation",
      "name" : "Sigmoid_337"
    },
    {
      "axis_h" : 1,
      "axis_w" : 2,
      "bottom" : "548",
      "axis_k" : 0,
      "axis_n" : 3,
      "axis_seq" : 4,
      "weights" : {

      },
      "debug_info" : "Split_338_input_transpose0",
      "top" : "Split_338_548_transpose",
      "type" : "transpose",
      "name" : "Split_338_input_transpose0"
    },
    {
      "bottom" : "Split_338_548_transpose",
      "cut" : 0,
      "weights" : {

      },
      "debug_info" : "Split_338",
      "n_outputs" : 3,
      "top" : "549_transpose,550_transpose,551_transpose",
      "type" : "split",
      "name" : "Split_338"
    },
    {
      "axis_h" : 1,
      "axis_w" : 2,
      "bottom" : "549_transpose",
      "axis_k" : 0,
      "axis_n" : 3,
      "axis_seq" : 4,
      "weights" : {

      },
      "debug_info" : "Split_338_output_transpose0",
      "top" : "549",
      "type" : "transpose",
      "name" : "Split_338_output_transpose0"
    },
    {
      "axis_h" : 1,
      "axis_w" : 2,
      "bottom" : "550_transpose",
      "axis_k" : 0,
      "axis_n" : 3,
      "axis_seq" : 4,
      "weights" : {

      },
      "debug_info" : "Split_338_output_transpose1",
      "top" : "550",
      "type" : "transpose",
      "name" : "Split_338_output_transpose1"
    },
    {
      "axis_h" : 1,
      "axis_w" : 2,
      "bottom" : "551_transpose",
      "axis_k" : 0,
      "axis_n" : 3,
      "axis_seq" : 4,
      "weights" : {

      },
      "debug_info" : "Split_338_output_transpose2",
      "top" : "551",
      "type" : "transpose",
      "name" : "Split_338_output_transpose2"
    },
    {
      "bottom" : "549,589",
      "alpha" : 1,
      "operation" : 1,
      "weights" : {

      },
      "fused_relu" : 0,
      "debug_info" : "Mul_340",
      "top" : "553",
      "type" : "elementwise",
      "name" : "Mul_340",
      "beta" : 0
    },
    {
      "bottom" : "",
      "k" : 3,
      "n" : 1,
      "weights" : {

      },
      "h" : 4,
      "debug_info" : "541",
      "constant_blob" : 255,
      "top" : "541",
      "w" : 2,
      "type" : "load_constant",
      "name" : "541"
    },
    {
      "bottom" : "553,541",
      "alpha" : 1,
      "operation" : 0,
      "weights" : {

      },
      "fused_relu" : 0,
      "debug_info" : "Add_341",
      "top" : "554",
      "type" : "elementwise",
      "name" : "Add_341",
      "beta" : 0
    },
    {
      "bottom" : "",
      "k" : 1,
      "n" : 1,
      "weights" : {

      },
      "h" : 1,
      "debug_info" : "555",
      "constant_blob" : 257,
      "top" : "555",
      "w" : 1,
      "type" : "load_constant",
      "name" : "555"
    },
    {
      "bottom" : "554,555",
      "alpha" : 1,
      "operation" : 1,
      "weights" : {

      },
      "fused_relu" : 0,
      "debug_info" : "Mul_343",
      "top" : "556",
      "type" : "elementwise",
      "name" : "Mul_343",
      "beta" : 0
    },
    {
      "axis_h" : 4,
      "axis_w" : 0,
      "bottom" : "550",
      "axis_k" : 1,
      "axis_n" : 3,
      "axis_seq" : 2,
      "weights" : {

      },
      "debug_info" : "Transpose_344",
      "top" : "557",
      "type" : "transpose",
      "name" : "Transpose_344"
    },
    {
      "bottom" : "557,589",
      "alpha" : 1,
      "operation" : 1,
      "weights" : {

      },
      "fused_relu" : 0,
      "debug_info" : "Mul_346",
      "top" : "559",
      "type" : "elementwise",
      "name" : "Mul_346",
      "beta" : 0
    },
    {
      "bottom" : "559",
      "alpha" : 2,
      "operation" : 13,
      "weights" : {

      },
      "fused_relu" : 0,
      "debug_info" : "Pow_347",
      "top" : "562",
      "type" : "elementwise",
      "name" : "Pow_347",
      "beta" : 0
    },
    {
      "bottom" : "",
      "k" : 1,
      "n" : 1,
      "weights" : {

      },
      "h" : 3,
      "debug_info" : "624",
      "constant_blob" : 259,
      "top" : "624",
      "w" : 2,
      "type" : "load_constant",
      "name" : "624"
    },
    {
      "bottom" : "562,624",
      "alpha" : 1,
      "operation" : 1,
      "weights" : {

      },
      "fused_relu" : 0,
      "debug_info" : "Mul_348",
      "top" : "563",
      "type" : "elementwise",
      "name" : "Mul_348",
      "beta" : 0
    },
    {
      "axis_h" : 2,
      "axis_w" : 0,
      "bottom" : "563",
      "axis_k" : 4,
      "axis_n" : 3,
      "axis_seq" : 1,
      "weights" : {

      },
      "debug_info" : "Transpose_349",
      "top" : "564",
      "type" : "transpose",
      "name" : "Transpose_349"
    },
    {
      "axis_h" : 1,
      "axis_w" : 2,
      "bottom" : "556",
      "axis_k" : 0,
      "axis_n" : 3,
      "axis_seq" : 4,
      "weights" : {

      },
      "debug_info" : "Concat_350_input_transpose0",
      "top" : "Concat_350_556_transpose",
      "type" : "transpose",
      "name" : "Concat_350_input_transpose0"
    },
    {
      "axis_h" : 1,
      "axis_w" : 2,
      "bottom" : "564",
      "axis_k" : 0,
      "axis_n" : 3,
      "axis_seq" : 4,
      "weights" : {

      },
      "debug_info" : "Concat_350_input_transpose1",
      "top" : "Concat_350_564_transpose",
      "type" : "transpose",
      "name" : "Concat_350_input_transpose1"
    },
    {
      "axis_h" : 1,
      "axis_w" : 2,
      "bottom" : "551",
      "axis_k" : 0,
      "axis_n" : 3,
      "axis_seq" : 4,
      "weights" : {

      },
      "debug_info" : "Concat_350_input_transpose2",
      "top" : "Concat_350_551_transpose",
      "type" : "transpose",
      "name" : "Concat_350_input_transpose2"
    },
    {
      "weights" : {

      },
      "debug_info" : "Concat_350",
      "top" : "565_transpose",
      "type" : "concat",
      "name" : "Concat_350",
      "bottom" : "Concat_350_556_transpose,Concat_350_564_transpose,Concat_350_551_transpose"
    },
    {
      "axis_h" : 1,
      "axis_w" : 2,
      "bottom" : "565_transpose",
      "axis_k" : 0,
      "axis_n" : 3,
      "axis_seq" : 4,
      "weights" : {

      },
      "debug_info" : "Concat_350_output_transpose0",
      "top" : "565",
      "type" : "transpose",
      "name" : "Concat_350_output_transpose0"
    },
    {
      "name" : "Reshape_351",
      "weights" : {

      },
      "dst_w" : 6,
      "version" : 1,
      "dst_n" : 0,
      "type" : "reshape",
      "dst_h" : -1,
      "mode" : 0,
      "bottom" : "565",
      "debug_info" : "Reshape_351",
      "dst_seq" : 1,
      "dst_k" : 1,
      "top" : "572"
    },
    {
      "axis_h" : 2,
      "axis_w" : 0,
      "bottom" : "406",
      "axis_k" : 1,
      "axis_n" : 3,
      "axis_seq" : 4,
      "weights" : {

      },
      "debug_info" : "Concat_352_input_transpose0",
      "top" : "Concat_352_406_transpose",
      "type" : "transpose",
      "name" : "Concat_352_input_transpose0"
    },
    {
      "axis_h" : 2,
      "axis_w" : 0,
      "bottom" : "489",
      "axis_k" : 1,
      "axis_n" : 3,
      "axis_seq" : 4,
      "weights" : {

      },
      "debug_info" : "Concat_352_input_transpose1",
      "top" : "Concat_352_489_transpose",
      "type" : "transpose",
      "name" : "Concat_352_input_transpose1"
    },
    {
      "axis_h" : 2,
      "axis_w" : 0,
      "bottom" : "572",
      "axis_k" : 1,
      "axis_n" : 3,
      "axis_seq" : 4,
      "weights" : {

      },
      "debug_info" : "Concat_352_input_transpose2",
      "top" : "Concat_352_572_transpose",
      "type" : "transpose",
      "name" : "Concat_352_input_transpose2"
    },
    {
      "weights" : {

      },
      "debug_info" : "Concat_352",
      "top" : "output_transpose",
      "type" : "concat",
      "name" : "Concat_352",
      "bottom" : "Concat_352_406_transpose,Concat_352_489_transpose,Concat_352_572_transpose"
    },
    {
      "axis_seq" : 4,
      "name" : "Concat_352_output_transpose0",
      "axis_n" : 3,
      "axis_h" : 2,
      "type" : "transpose",
      "attributes" : {
        "is_output" : 1
      },
      "bottom" : "output_transpose",
      "axis_w" : 0,
      "axis_k" : 1,
      "debug_info" : "Concat_352_output_transpose0",
      "weights" : {

      },
      "top" : "output"
    }
  ]
}